checkpoints/pannet_model_WV3/pannet_model_WV3_2023_07_22-14_38_46_best_eval.pth.tar (torch, 847387 bytes, 92 tensors)

layer_0.0.weight f4 [8, 8, 8, 8]
0	0x3d2c3fd4	0.04205306
1	0x3e38927f	0.18024634
2	0x3e6467c9	0.22305216
3	0x3eff2fb9	0.49841097
4	0x3eeae761	0.45879653
5	0x3f0247f8	0.50891066
6	0x3ec3ec7e	0.38266367
7	0x3e3986d3	0.18117838
8	0x3dfc9066	0.12332229
9	0x3d9275ef	0.071514
10	0x3ea6d1d2	0.32581955
11	0x3ed29f0c	0.41136968
12	0x3ebd55cd	0.36979523
13	0x3eea06e5	0.45708385
14	0x3e09c7cd	0.13455124
15	0x3e5a92e4	0.21345097
16	0x3e3d5775	0.18490393
17	0x3e86eed9	0.263541
18	0x3e6cb87b	0.23117249
19	0x3e99f623	0.300706
20	0x3e218f88	0.15777409
21	0x3e453d09	0.19261564
22	0x3e4f8441	0.20265295
23	0x3dd88d4c	0.10573825
24	0x3df971b1	0.12179888
25	0xbd38f058	-0.045151085
26	0x3e782849	0.24234118
27	0xbe30fe26	-0.1728445
28	0x3e0c331a	0.13691369
29	0xbcced7ab	-0.025249323
30	0x3e39f200	0.18158722
31	0x3e4c5f36	0.19958195
32	0x3c93e784	0.018054731
33	0xbd8ff039	-0.07028241
34	0xbe3d8783	-0.18508725
35	0xbc292f21	-0.010326178
36	0xbd1fc8e1	-0.039009932
37	0x3e30adba	0.17253771
38	0x3d5c8389	0.05383638
39	0x3ea722dc	0.32643783
40	0xbbbacb42	-0.0057004998
41	0xbe232e3a	-0.15935603
42	0xbd0515f7	-0.03249165
43	0xbe78ecb1	-0.2430904
44	0x3d8c1ad4	0.068410546
45	0xbcba1b2f	-0.02271804
46	0x3e223753	0.15841417
47	0x3ebb87a9	0.36626938
48	0xbe1a4818	-0.15066564
49	0xbe87b256	-0.26503247
50	0xbea017a4	-0.31268036
51	0xbce062be	-0.027390834
52	0xbe0edb4c	-0.13950843
53	0x3c32445c	0.010880556
54	0x3c5168a0	0.012781292
55	0x3ddc207d	0.10748384
56	0xbde5fb2a	-0.11229546
57	0xbcfd04a9	-0.030886011
58	0x3e82ac1d	0.25521937
59	0x3dd48833	0.103775404
60	0x3edd537e	0.43227762
61	0x3e98d1ad	0.2984747
62	0x3e5514fb	0.20808785
63	0x3df120d6	0.11773841
64	0xba32fa7f	-0.0006827488
65	0x3e35b458	0.17744577
66	0x3ebaa4e6	0.36453933
67	0x3eab957f	0.33512494
68	0x3e7f8109	0.24951567
69	0x3e8d8b8e	0.27645534
70	0x3da2c704	0.079481155
71	0x3d322e08	0.04350093
72	0x3c81cf9b	0.015846064
73	0x3d95b366	0.07309608
74	0xbe042fc4	-0.12908846
75	0xbdce5782	-0.100752845
76	0x3db64bcc	0.08901176
77	0xbdd9b780	-0.10630703
78	0x3de6b9a6	0.112658784
79	0xbd36c55b	-0.044621807
80	0x3d57e71e	0.052710645
81	0xbd560628	-0.052251965
82	0xbe58d908	-0.21176541
83	0xbdb01b0e	-0.0859891
84	0xbea2829c	-0.31740272
85	0x3e3d3a8e	0.18479368
86	0x39039aca	0.00012550797
87	0x3ec5aecf	0.3860993
88	0x3eaa2913	0.33234462
89	0x3df68682	0.12037374
90	0xbd0fad2e	-0.035077266
91	0x3da636a1	0.081158884
92	0x3e4c0a88	0.19925892
93	0x3e04ffcf	0.12988208
94	0x3eadb572	0.33927494
95	0x3dde0d8b	0.10842427
96	0x3e23f340	0.16010761
97	0xbe33906b	-0.1753556
98	0xbdb49ada	-0.08818598
99	0xbe6ad513	-0.22932844
100	0xbe7cfedd	-0.24706598
101	0x3ca9f996	0.020748895
102	0x3d218af0	0.03943914
103	0x3e955be9	0.29171684
104	0x3d222958	0.03959021
105	0x3e2e6f67	0.17034684
106	0xbdb24db5	-0.08706228
107	0x3c1925a9	0.009347358
108	0xbd010648	-0.03150013
109	0xbdb9f779	-0.09080405
110	0x3e91889e	0.28424543
111	0xbd5deebb	-0.05418275
112	0x3ed776c0	0.42082787
113	0x3e00faf6	0.12595734
114	0x3f0df82d	0.5545681
115	0x3e170094	0.14746314
116	0x3ebc9466	0.3683197
117	0x3e6f94b9	0.23396577
118	0x3c8cac04	0.017171867
119	0x3e195748	0.14974701
120	0x3e1061b7	0.14099775
121	0x3eb8ecec	0.36118257
122	0x3eaa8e96	0.3331191
123	0x3ed539af	0.41645572
124	0x3ec69a98	0.3878982
125	0x3c9c3dc4	0.01907242
126	0x3e0d1b3b	0.13779919
127	0xbdabfdd7	-0.083980255
128	0x3c6bb640	0.0143867135
129	0x3b82aa4d	0.0039875866
130	0xbd1cf458	-0.03831896
131	0xbe94d819	-0.2907112
132	0xbf06c662	-0.5264646
133	0xbe80c6b4	-0.25151598
134	0xbed4b589	-0.4154475
135	0xbda53f0a	-0.08068664
136	0xbd2cf7e3	-0.04222859
137	0xbe98b914	-0.29828703
138	0xbec0eefd	-0.37682334
139	0xbf477eab	-0.77927655
140	0xbf03ccf5	-0.51484615
141	0xbf2ee1bb	-0.6831319
142	0xbe8f0a98	-0.2793777
143	0xbe029359	-0.12751521
144	0xbe396d55	-0.18108113
145	0xbee93e23	-0.4555522
146	0xbed0fb23	-0.40816602
147	0xbf09a8e3	-0.53773326
148	0xbf21b1c4	-0.63161874
149	0xbe8b692a	-0.2722867
150	0xbec977de	-0.39349264
151	0x3ea1f4e5	0.31632152
152	0xbe363cac	-0.17796582
153	0xbda8e5cd	-0.08246956
154	0xbe27cad0	-0.1638596
155	0xbea806bf	-0.32817647
156	0xbd1b8316	-0.03796681
157	0xbede006c	-0.43359697
158	0x3e62bea7	0.2214304
159	0xbe908b73	-0.2823139
160	0xbe2a1b24	-0.16611916
161	0xbebaa17e	-0.36451334
162	0xba9e6c1d	-0.0012086664
163	0xbd624e44	-0.05525042
164	0xbd8aec8c	-0.06783399
165	0x3e11f9dc	0.1425547
166	0xbeae9b5e	-0.3410291
167	0x3e5cbfc1	0.21557523
168	0xbec3b01c	-0.38220298
169	0x3e12e1ee	0.14343998
170	0x3c8a6d22	0.016897742
171	0x3ea46761	0.32110122
172	0x3e68f9ce	0.22751543
173	0x3e4f8b95	0.2026809
174	0x3e5ca8f6	0.21548828
175	0x3d8b2b32	0.06795348
176	0x3e4ea1f9	0.20178975
177	0xbd3e632f	-0.046481308
178	0x3ecd431e	0.4009027
179	0x3eb8d0b6	0.36096734
180	0x3eae7d90	0.34080172
181	0x3f0b3c0a	0.5438849
182	0xbdbc4b52	-0.09194054
183	0x3e9f632f	0.3113036
184	0x3d5bdf97	0.05368003
185	0x3f012dbf	0.5046043
186	0x3e9745ca	0.29545432
187	0x3f07c4f5	0.5303491
188	0x3e9b6ca2	0.30356318
189	0x3e889966	0.26679534
190	0x3e76b4a3	0.24092345
191	0xbde37dc8	-0.11107975
192	0xbd948810	-0.07252514
193	0xbe9a5dda	-0.30149728
194	0xbea6a1d5	-0.32545343
195	0xbf07ff1a	-0.5312363
196	0xbe4edad6	-0.20200667
197	0xbf00449f	-0.5010471
198	0x3dd2cf19	0.10293407
199	0xbe5f80e8	-0.21826518
200	0xbe1c8a3e	-0.1528711
201	0xbcb2064f	-0.021731524
202	0xbdc2ecc7	-0.09517818
203	0x3e222875	0.15835746
204	0xbdd7271e	-0.10505508
205	0x3e2af9f0	0.16696906
206	0xbe0bc1c6	-0.13648137
207	0x3e28e3e8	0.1649319
208	0x3b62fbb0	0.003463488
209	0x3ea756f2	0.32683522
210	0x3ebcb0b5	0.36853567
211	0x3ef493c2	0.4776898
212	0x3edd4fdc	0.4322499
213	0x3da6a5cb	0.08137091
214	0x3eb468a2	0.35236079
215	0xbe94a36a	-0.29030925
216	0xbdfc02ee	-0.12305246
217	0x3d9270f8	0.07150453
218	0x3e7dd6e0	0.24789
219	0x3ed9f0f2	0.4256664
220	0x3e146cec	0.14494675
221	0x3e14029c	0.1445412
222	0xbde800ba	-0.113282636
223	0xbda60c93	-0.08107867
224	0xbda27ae4	-0.07933596
225	0x3eb17f26	0.3466732
226	0x3eb166df	0.34648797
227	0x3ec996b0	0.39372778
228	0x3e7feb2f	0.24992059
229	0x3d59c992	0.053170748
230	0x3dcbfd8d	0.0996047
231	0xbe776906	-0.24161157
232	0x3e8bc2a3	0.27296934
233	0x3d55c019	0.05218515
234	0x3ea8022a	0.3281415
235	0x3dac48c1	0.08412314
236	0xbc6a22f9	-0.014290565
237	0xbdd10d33	-0.10207596
238	0xbe849a7c	-0.25899112
239	0xbe8850e2	-0.2662421
240	0x3ce5eaaf	0.028066007
241	0x3d6da62d	0.058019806
242	0xbe24e8e4	-0.16104466
243	0xbe28749f	-0.16450737
244	0xbe5a792d	-0.21335287
245	0xbeae2670	-0.340137
246	0xbd8d4da2	-0.06899573
247	0xbdc16f87	-0.094451
248	0x3da95b4f	0.08269369
249	0xbe95fedf	-0.29296014
250	0xbe8d649a	-0.27615815
251	0xbf27938a	-0.654595
252	0xbeff79b5	-0.49897543
253	0xbf0667d9	-0.5250221
254	0xbe11411e	-0.14184996
255	0x3e151f00	0.14562607

layer_0.0.bias f4 [8]
0	0x3e587eb9	0.21142091
1	0xbe513867	-0.20431672
2	0xbf4e7907	-0.80653423
3	0x3fad7e73	1.3554214
4	0x3e9deae0	0.30843258
5	0x3db6ee1f	0.08932137
6	0x3f61194c	0.87929225
7	0xbf11143a	-0.5667149

layer_1.0.weight f4 [32, 9, 3, 3]
0	0xbd9a70fa	-0.0754108
1	0x3efa700a	0.48913604
2	0xbd0a5fa8	-0.03378263
3	0x3e67c10e	0.22632238
4	0xbf41b894	-0.7567227
5	0x3e4547bf	0.1926565
6	0xbd97374b	-0.07383593
7	0x3e302c3c	0.17204374
8	0xbd5e4552	-0.054265328
9	0xbbbb3303	-0.005712868
10	0x3ccfa35e	0.025346454
11	0x3d21a777	0.039466348
12	0xbcd9151d	-0.026499325
13	0x3ce4f55b	0.027949026
14	0x3ca8d26c	0.02060815
15	0x3c50826d	0.012726408
16	0x3c6e0438	0.014527373
17	0x3c6a54da	0.014302457
18	0xbd190d19	-0.037366007
19	0xbb4d771f	-0.003135152
20	0xba95d309	-0.0011430691
21	0x3d2f5987	0.04280999
22	0x3c025789	0.00795544
23	0xbd5fefc2	-0.05467201
24	0x3cf124d6	0.02943651
25	0x3ce4d1a3	0.027931994
26	0xbc9e0dc0	-0.019293666
27	0x3b86e40b	0.0041165403
28	0xbc8fa779	-0.017535912
29	0xbcf5b045	-0.029991278
30	0xbd74aed4	-0.05973704
31	0xbc7d0a30	-0.015444323
32	0x3d17e12b	0.03707997
33	0xbd820eb7	-0.06350463
34	0xbbc22f71	-0.0059260656
35	0x3c12ce82	0.008960368
36	0x3d3e3581	0.046437744
37	0x3c527d32	0.012847232
38	0x390459fa	0.0001262202
39	0x3d0da3cc	0.034580037
40	0xbd08f82b	-0.033439796
41	0xbc8013d6	-0.015634459
42	0x3cf73e83	0.030181175
43	0xbc9bfc9f	-0.019041358
44	0xbccfbf33	-0.025359726
45	0xbb845080	-0.0040379167
46	0xbd32c369	-0.04364339
47	0xbd4e5026	-0.050369404
48	0x3cfb4761	0.030673685
49	0x3bbe053d	0.0057989643
50	0xbc4a0872	-0.012331115
51	0x3a15e24e	0.0005717621
52	0xbb9068d0	-0.004407026
53	0xbc05d622	-0.008168729
54	0xbd930f5e	-0.071806654
55	0xbd1e426a	-0.038637556
56	0xbd443a38	-0.047907084
57	0x3d4f605c	0.050629005
58	0x3d8a453e	0.06751488
59	0xbd6d15b2	-0.05788202
60	0x3d4da85b	0.050209384
61	0x3c16557b	0.009175654
62	0xbd37fead	-0.044920612
63	0x3ccd4d25	0.0250612
64	0x3a3f2fa8	0.0007293173
65	0xbb1168a2	-0.002218761
66	0xbd255a8d	-0.04036956
67	0xbd81f33f	-0.06345224
68	0x3c50c679	0.012742632
69	0xbca2b0aa	-0.01985963
70	0xbd4cddbb	-0.050016146
71	0x3d48b878	0.049004048
72	0x3c231913	0.009954709
73	0xbcd13885	-0.025539646
74	0xbc65de75	-0.014030089
75	0x3d003bfc	0.031307206
76	0x3ce872ae	0.028374996
77	0xbcbe4d67	-0.023230268
78	0x3cc4b9fa	0.024014462
79	0x3bf266c3	0.007397504
80	0xbcdc4a0a	-0.026890773
81	0x3b633c14	0.003467326
82	0xbc7e87b4	-0.015535284
83	0x3ce5cceb	0.028051814
84	0xbc23fd25	-0.010009085
85	0x3d149124	0.03627123
86	0x3c23bc5c	0.009993639
87	0x3b2ef07c	0.0026693633
88	0x3b1e0150	0.002410967
89	0x3d909783	0.070601486
90	0x3d189f24	0.037261143
91	0x3cda191b	0.0266233
92	0x3e1feb9d	0.15617223
93	0x3e39f7ad	0.18160887
94	0xbcc6e5eb	-0.024279555
95	0x3b1a80d4	0.0023575323
96	0x3ba8ceed	0.0051516206
97	0xbcf2b59d	-0.029627616
98	0xbd24f053	-0.040268254
99	0x3a075025	0.0005161784
100	0x3d7e10af	0.06202763
101	0xbd5ff7a1	-0.054679517
102	0x3d3319d2	0.043725796
103	0xbe14096f	-0.14456724
104	0x3d617075	0.055038888
105	0xbe0920d0	-0.13391423
106	0xbd93f4c4	-0.0722442
107	0xbcfbaf6a	-0.030723292
108	0xbcdf3e83	-0.027251488
109	0xbd856968	-0.06514245
110	0x3d6a24fe	0.057164185
111	0x3cf76c8a	0.030203123
112	0x3cd50e06	0.026007663
113	0x3d60d482	0.054890163
114	0xbc946956	-0.018116634
115	0x3b4bccd6	0.0031097434
116	0xbccfeb86	-0.025380861
117	0xbba6b26d	-0.005087188
118	0x3c5ade08	0.0133586
119	0xbbe200b8	-0.0068970583
120	0xbd39a39c	-0.045322046
121	0x3d924cf1	0.07143582
122	0x3c7072db	0.014675821
123	0xbdd66da9	-0.10470135
124	0x3d92c6ad	0.07166801
125	0x3ca12821	0.019672455
126	0x3db8ee36	0.0902981
127	0xbd8de949	-0.06929261
128	0xbd6793d9	-0.056537483
129	0xbdf2c337	-0.118536405
130	0x3d3e86a3	0.04651512
131	0x3d03f6fa	0.032217957
132	0x3d8c3f20	0.06847978
133	0xbc5d4c1a	-0.013506914
134	0x3ce9aeae	0.028525677
135	0x3d1591b4	0.036515906
136	0x3e270880	0.16311836
137	0x3ccae288	0.024766222
138	0x3daa6c2f	0.08321416
139	0x3cc9af5d	0.024619753
140	0x3bea03ed	0.0071415813
141	0x3d28654d	0.041112233
142	0x3d9f58c4	0.077806026
143	0x3cbca0a9	0.023025827
144	0x3d2ddd86	0.04244759
145	0xbe2c11c4	-0.16803652
146	0xbcfb51bc	-0.030678622
147	0xbc1151fc	-0.008869644
148	0x3ddc4929	0.10756142
149	0x3abadfdb	0.0014257388
150	0x3dadd0f4	0.0848712
151	0x3d270589	0.040776763
152	0x3b4e2d25	0.0031460014
153	0xbcdcf3f9	-0.026971804
154	0x3e109261	0.14118339
155	0xbd20d9cf	-0.03927022
156	0x3db707ef	0.0893706
157	0xbddc6ae6	-0.10762577
158	0xbd693480	-0.056934834
159	0xbd7e5506	-0.062092803
160	0xbca7c505	-0.020479688
161	0xbd47f6f3	-0.048819494
162	0xbdccafd1	-0.09994472
163	0x3e51dca0	0.20494318
164	0xbdad5273	-0.084629916
165	0x3e434f1e	0.1907315
166	0xbf11105f	-0.56665605
167	0x3e76d8ce	0.24106142
168	0xbda6b179	-0.08139319
169	0x3e5a5ec3	0.21325211
170	0xbdb09e7d	-0.08623979
171	0xbd3d3aec	-0.04619877
172	0xbd168043	-0.036743414
173	0xbd0d10d6	-0.034439884
174	0xbc03689a	-0.008020544
175	0x3af5f444	0.0018764813
176	0xbb870a90	-0.004121132
177	0x3d24652f	0.04013556
178	0x3d2154b5	0.039387424
179	0x3d04f09f	0.032456037
180	0xbc5d9cd0	-0.013526157
181	0x3bbb88ff	0.0057231183
182	0xbba50716	-0.005036245
183	0xbc8ef55b	-0.017450979
184	0xbbe0352e	-0.006842277
185	0xbc8e01ac	-0.017334782
186	0xbbf1c137	-0.0073777693
187	0xbc14a63e	-0.009072838
188	0xbb84159a	-0.0040308954
189	0xbd0c0361	-0.03418291
190	0xbbeeb1bf	-0.0072843726
191	0xbd02c62a	-0.031927265
192	0xbc349670	-0.011022195
193	0xbac8b93c	-0.0015313993
194	0xbc8cc96a	-0.017185885
195	0x3cbab22b	0.022790035
196	0x3c15653e	0.009118376
197	0x3c566cd4	0.01308747
198	0xbd783763	-0.060599696
199	0xbd519b85	-0.051173706
200	0xbc8e98e4	-0.017406888
201	0xbc4e7c4e	-0.012602879
202	0xbc958903	-0.018253809
203	0x3b41c00a	0.0029563927
204	0x3cf8095d	0.030277902
205	0x3cb6f6a2	0.0223344
206	0x3cae514a	0.021278996
207	0x3c04b4d5	0.008099754
208	0x3cbef87b	0.023311844
209	0xba9e6f32	-0.0012087582
210	0x3c535d3c	0.012900647
211	0x3ca7ca25	0.020482132
212	0x3ca99f93	0.020705974
213	0xbc75c8ab	-0.015001456
214	0x3cc527a7	0.02406676
215	0x3d48e5ba	0.04904721
216	0xbd117959	-0.035516117
217	0xbcfd4781	-0.030917885
218	0x3d267061	0.040634517
219	0xb9f4ee0f	-0.00046716674
220	0xbc381366	-0.011235094
221	0x3c78650f	0.015160813
222	0x3ce7b370	0.028283805
223	0x3b87cae8	0.0041440614
224	0xbc3bb8b3	-0.01145761
225	0x3b7df385	0.0038749885
226	0x3c070362	0.008240553
227	0xbcca2dfd	-0.024680132
228	0xbd2a399b	-0.041558843
229	0xbd048131	-0.03234977
230	0xbd004530	-0.031315982
231	0x3c4fa04d	0.012672496
232	0x3d42c0a7	0.04754701
233	0x3c97fec0	0.018554091
234	0x3be05710	0.006846316
235	0xbc975e78	-0.018477663
236	0xbbbdfab0	-0.0057977065
237	0x3c07ff06	0.008300548
238	0x3bc30b8b	0.0059523038
239	0x3cd839a6	0.026394676
240	0x3c05b1b4	0.0081600435
241	0x3c069fc2	0.0082168
242	0x3b86a14d	0.004108584
243	0x3c0ec147	0.008713073
244	0xbc3813f9	-0.011235231
245	0xbb223931	-0.0024753327
246	0xbb4a1bec	-0.0030839397
247	0xbb0820d7	-0.0020771527
248	0x3c736e6f	0.014857872
249	0x3bb9c3c1	0.0056690876
250	0xbb66b29f	-0.0035201681
251	0xbc95a8bc	-0.018268935
252	0x3df8d207	0.121494345
253	0xbeaec31d	-0.34133235
254	0xbca5ab7c	-0.020223372
255	0x3b96884c	0.0045938846

layer_1.0.bias f4 [32]
0	0xbe9ae57a	-0.30253202
1	0xbe4a007d	-0.19726749
2	0xbee39f49	-0.44457462
3	0xbf4fcdc2	-0.81173337
4	0xbf1fd1ae	-0.6242932
5	0xbd3d58c7	-0.046227243
6	0xbf31b270	-0.694129
7	0xbe2170f9	-0.15765752
8	0xbbc4706b	-0.0059948466
9	0x3e926f76	0.28600663
10	0xbec0d4cd	-0.37662354
11	0xbd57c4c1	-0.052677874
12	0xbe72eedd	-0.23723932
13	0x3f0b8bbb	0.54510087
14	0xbc95cb9d	-0.018285567
15	0xbe445f27	-0.19176923
16	0xbf76d476	-0.9641794
17	0xbe7929f4	-0.2433241
18	0xbe250ec1	-0.1611891
19	0xbe348b19	-0.17631187
20	0xbf87d354	-1.0611367
21	0xbf8fad12	-1.1224692
22	0xbedbc46a	-0.4292329
23	0xbe165edb	-0.14684622
24	0x3bac2209	0.0052530807
25	0xbf0af76f	-0.54283804
26	0xbe9b1e5e	-0.30296606
27	0xbee8e1bd	-0.45484725
28	0xbecd4a60	-0.40095806
29	0xbf97480f	-1.1818866
30	0x3db34c40	0.08754778
31	0xbdac5cf5	-0.08416168

layer_2.0.0.conv1.weight f4 [32, 32, 3, 3]
0	0xbe1bf989	-0.15231909
1	0xbe685462	-0.2268844
2	0xbe1873ce	-0.14887926
3	0xbec5fb5d	-0.38668337
4	0xbb8e33c1	-0.0043396656
5	0xbd418baa	-0.047252335
6	0x3d14c840	0.036323786
7	0xbe8bd1c4	-0.27308476
8	0x3dea0b54	0.11427942
9	0xbe665f7b	-0.2249736
10	0xbbee3f02	-0.0072706947
11	0xbdf59c4f	-0.11992704
12	0xbdb10866	-0.0864418
13	0xbe2fcdc0	-0.17168331
14	0xbd9ea1bc	-0.07745692
15	0xbc84fdbd	-0.016234273
16	0x3e231241	0.15924932
17	0x3d270b96	0.040782534
18	0xbc911821	-0.0177117
19	0xbeb8cdd6	-0.3609454
20	0xbe0087c0	-0.12551785
21	0x3d1715da	0.036886074
22	0x3e8ceba5	0.27523533
23	0x3e1fdbf7	0.15611254
24	0x3eba0089	0.36328533
25	0xbdb53d26	-0.08849554
26	0x3d88b52d	0.066751815
27	0x3bb38198	0.0054780953
28	0xbe208e6b	-0.15679328
29	0xbe84d20f	-0.25941512
30	0x3be6a752	0.007038989
31	0xbe026a2a	-0.12735811
32	0xbe882e5c	-0.2659787
33	0x3ced564d	0.028971815
34	0xbdc5c5ad	-0.09656844
35	0xbea03289	-0.31288555
36	0xbe281123	-0.16412787
37	0xbd094f6f	-0.03352302
38	0x3cbeeb92	0.023305688
39	0xbd9bc224	-0.07605389
40	0xbdc26be9	-0.094932385
41	0xbc966975	-0.018360833
42	0xbde8af87	-0.11361604
43	0xbdf293b2	-0.11844577
44	0x3c93825e	0.0180065
45	0xbaff50a9	-0.0019478995
46	0x3dbc17b3	0.09184208
47	0x3e80ed31	0.25180963
48	0xbecca5a1	-0.39970115
49	0xbd8d171e	-0.06889175
50	0xbe567f10	-0.20946908
51	0xbeade78e	-0.33965725
52	0xbe22f1c5	-0.1591254
53	0xbe02b2c3	-0.12763505
54	0xbcaf679c	-0.02141171
55	0xbdfd6533	-0.12372818
56	0x3d993330	0.07480466
57	0xbda83fdb	-0.082153045
58	0xbdabb3e1	-0.083839186
59	0xbc3e2249	-0.011604854
60	0xbdb908b0	-0.0903486
61	0xbe1461cf	-0.14490436
62	0xbcb1bc2c	-0.021696173
63	0x3d270d2e	0.040784054
64	0x3d80aabd	0.06282566
65	0xbd2d3566	-0.042287253
66	0x3e83502d	0.25647107
67	0x3dd5af97	0.10433882
68	0xbd425cf1	-0.047451917
69	0xbdeafc85	-0.114739455
70	0xbe2808ec	-0.16409653
71	0xbe28c4e3	-0.16481356
72	0x3e0de638	0.13857353
73	0x39c01d1a	0.00036642776
74	0xbdebf887	-0.11522012
75	0x3da62b1e	0.08113693
76	0xbd940c75	-0.072289385
77	0x3d9eab76	0.07747547
78	0x3dcf247a	0.10114379
79	0x3e1409dc	0.14456886
80	0x3e1efedd	0.1552691
81	0x3ca76f42	0.020438794
82	0xbb14a2c3	-0.0022680021
83	0x3e0ca9e0	0.13736677
84	0x3dbb0f67	0.09133797
85	0x3dad6dd4	0.08468214
86	0x3e8bdc07	0.27316305
87	0x3ee7e321	0.45290473
88	0x3ec5da17	0.38642952
89	0xbd9aa9f3	-0.075519465
90	0xbe13f5fa	-0.14449301
91	0xbe717347	-0.23579131
92	0xbcaed1c8	-0.021340266
93	0xbeae3c78	-0.3403051
94	0xbe5c977c	-0.21542162
95	0xbd1a7d35	-0.037717063
96	0xbea29742	-0.31756026
97	0xbe468b6d	-0.19389124
98	0xbd75be7e	-0.05999612
99	0xbe3d9776	-0.18514809
100	0x3db0efa0	0.08639455
101	0x3e453960	0.19260168
102	0x3c86c70c	0.016452335
103	0xbcd4f190	-0.025994092
104	0x3dd70879	0.10499663
105	0xbddb865d	-0.10718987
106	0xbdb7f042	-0.089813724
107	0xbe2043b0	-0.1565082
108	0xbe66ff90	-0.22558427
109	0xbe444824	-0.19168144
110	0xbdee638e	-0.11640082
111	0xbd6ddd23	-0.05807222
112	0xbdb6e25b	-0.08929893
113	0xbdfe8d84	-0.12429336
114	0x3d571cbb	0.052517634
115	0x3da94cd4	0.08266607
116	0xb9e2c9d9	-0.00043256467
117	0x3e4da8b0	0.2008388
118	0x3dae5662	0.0851257
119	0x3e2d0db5	0.1689976
120	0xbd3943a0	-0.045230508
121	0xbe1a024b	-0.15039937
122	0x3e3f473e	0.1867952
123	0x3eae9a05	0.34101883
124	0xbd902ff3	-0.070403956
125	0x3dcf7784	0.10130218
126	0x3d71b0d0	0.059006512
127	0xbd575886	-0.052574657
128	0x3dfc6656	0.123242065
129	0xbd938bf6	-0.0720443
130	0x3d783bbb	0.06060384
131	0xbc14e0a3	-0.009086761
132	0xbdeca40c	-0.11554727
133	0x3c28bc36	0.010298779
134	0x3d86eedb	0.06588527
135	0xbd93cb7d	-0.07216547
136	0xbbf82990	-0.007573314
137	0xbd2a5a5f	-0.04159009
138	0x3dbed427	0.093178086
139	0x3d79991a	0.060937025
140	0xbe08a38a	-0.13343635
141	0x3b77297b	0.0037713933
142	0xba0e12d6	-0.0005419677
143	0xbdfe73cd	-0.12424431
144	0xbe55ffc9	-0.20898356
145	0xbe7bab49	-0.24577059
146	0x3d06a239	0.03286955
147	0xbe2cba89	-0.16868033
148	0x3c0a7ebd	0.008453068
149	0xbcb90e4d	-0.022589827
150	0xbeac71f1	-0.3368068
151	0xbe45ab57	-0.19303642
152	0xbca47379	-0.020074593
153	0x3da48549	0.080332346
154	0xbc86b0a4	-0.01644165
155	0xbcc6ff85	-0.024291763
156	0x3e497d49	0.19676699
157	0xbdc240c1	-0.09485007
158	0x3df2c1a8	0.11853343
159	0x3eb4dc49	0.35324314
160	0xbd849499	-0.06473655
161	0x3d6a5e3f	0.057218786
162	0x3cd2409f	0.02566558
163	0x3d31c60b	0.04340176
164	0xbe42511c	-0.18976253
165	0x3dcec739	0.100965925
166	0xbe3fa1ab	-0.18714015
167	0x3d0ab9cc	0.033868596
168	0x3edc3f92	0.4301725
169	0x3e98d02e	0.29846328
170	0x3e2823dc	0.1641993
171	0xbe78a0e2	-0.24280122
172	0xbd961976	-0.07329075
173	0xbe244fa6	-0.16046008
174	0xbd678714	-0.056525305
175	0x3d695a17	0.056970682
176	0x3c8a9312	0.016915832
177	0x3b099af9	0.0020996912
178	0xbd2f8866	-0.04285469
179	0xbc6279ca	-0.013822982
180	0x3e1d354e	0.15352365
181	0x3e336c89	0.17521872
182	0x3e741f30	0.23840022
183	0xbd0e440c	-0.034732863
184	0xbd16c7ca	-0.036811627
185	0xbcc84496	-0.024446767
186	0x3d4887ac	0.04895751
187	0xbe24418b	-0.16040628
188	0xbd3ccbb6	-0.04609271
189	0xbcdab5b5	-0.026697973
190	0x3c80cdb6	0.01572309
191	0xbde942c4	-0.11389688
192	0xbe02bdd8	-0.12767732
193	0x3d13ac20	0.036052823
194	0x3debba0a	0.115100935
195	0xbe57c385	-0.21070679
196	0xbe49f330	-0.19721675
197	0xbb67aae2	-0.0035349657
198	0x3e642277	0.22278772
199	0xbd90326f	-0.070408694
200	0x3e48d9d9	0.19614352
201	0x3cf5bd02	0.029997353
202	0xbe053810	-0.13009667
203	0x3e3f6dc8	0.18694222
204	0xbe06ebff	-0.13175963
205	0xbe5be261	-0.21473075
206	0xbd88c4d8	-0.0667817
207	0xbd3683d6	-0.044559322
208	0xbdbb9b14	-0.09160438
209	0xbcd6dd8b	-0.026228687
210	0x3e313394	0.17304832
211	0x3cfdf1c0	0.030999064
212	0xbe65431a	-0.22388878
213	0xbbcbab81	-0.006215513
214	0x3e1314e9	0.14363445
215	0xbe01d016	-0.12677035
216	0xbe2bdda4	-0.16783768
217	0x3d725942	0.059167154
218	0x3d0d95fd	0.034566868
219	0xbd35262f	-0.044225868
220	0x3dd2e425	0.10297421
221	0x3e370f8b	0.17877023
222	0xbd9d4979	-0.076800294
223	0x3d24cde5	0.04023542
224	0x3dc40a76	0.09572308
225	0x3e6ae43a	0.22938624
226	0xbd3a44aa	-0.04547564
227	0xbde54fde	-0.11196874
228	0x3dfda086	0.12384133
229	0x3d898d63	0.067164205
230	0xbd2efd42	-0.042721994
231	0x3d77c0e8	0.060486704
232	0xbe5469e6	-0.20743522
233	0xbe06396e	-0.13107845
234	0x3e31e20c	0.17371386
235	0x3e297c3e	0.16551301
236	0x3d8b9816	0.068161175
237	0x3c543f15	0.012954493
238	0xb9715bc5	-0.00023017738
239	0xbde6fc2f	-0.11278569
240	0xbe0f98cd	-0.14023133
241	0xbdae8460	-0.08521342
242	0xbe84fd68	-0.25974584
243	0x3de65da2	0.11248328
244	0xbe350288	-0.17676747
245	0xbe8467d9	-0.2586048
246	0x3d925cad	0.07146583
247	0x3ac24c04	0.001482368
248	0xbe425d6a	-0.18980947
249	0x3e4ded61	0.20110084
250	0x3d553837	0.052055564
251	0xbdb07298	-0.08615607
252	0x3c735411	0.014851586
253	0x3d8df84d	0.06932125
254	0x3d373fb6	0.044738494
255	0xbe8058f0	-0.25067854

layer_2.0.0.conv1.bias f4 [32]
0	0xbcbcd3cc	-0.023050211
1	0x3d667583	0.05626441
2	0xbcdea74a	-0.027179379
3	0x3d6e5d6b	0.05819456
4	0xbc66f820	-0.014097244
5	0x3ca43bd2	0.020048056
6	0x3d462f71	0.048385087
7	0xbb857268	-0.004072476
8	0x3cd41936	0.025890928
9	0x3ca175f2	0.019709561
10	0xbcbebd64	-0.023283668
11	0x3ce12262	0.027482215
12	0x3c5cdf34	0.01348095
13	0xbbe86598	-0.007092189
14	0x3d028c9d	0.03187238
15	0xbcf87083	-0.030327087
16	0xbd23304a	-0.039840974
17	0xbd1a3e2f	-0.03765696
18	0x3d3fbfd7	0.046813812
19	0x3d666865	0.056251902
20	0x3d4e88f9	0.050423596
21	0xbd06f033	-0.032943916
22	0x3c8772de	0.016534265
23	0x3cb1a69a	0.021685887
24	0xbcfee564	-0.031115241
25	0xbd14b47c	-0.036304936
26	0xbd6f0c41	-0.058361296
27	0xbd68e768	-0.05686131
28	0xbc3645b8	-0.011125021
29	0x3d4bff63	0.049804103
30	0xbc7843e8	-0.015152909
31	0xbd1d7b1e	-0.03844749

layer_2.0.0.bn1.weight f4 [32]
0	0x3f44adc8	0.7682767
1	0x3f8a21b3	1.0791534
2	0x3f826220	1.0186195
3	0x3ede4ee1	0.43419555
4	0x4006ad9c	2.1043463
5	0x3f15a868	0.5846009
6	0x3f8730c9	1.0561763
7	0x3fe4b6b7	1.786826
8	0x3f0be1b5	0.54641277
9	0x3ff158f7	1.8855275
10	0x3f8f17a7	1.1179093
11	0x3edda6c3	0.43291292
12	0x3f98c090	1.1933765
13	0x3f99a41d	1.2003208
14	0x3fb8a68d	1.4425827
15	0x3fec583d	1.8464428
16	0x3fcd0015	1.601565
17	0x3f6dcb05	0.9288791
18	0x3f4fd829	0.8118921
19	0x3fa20d2d	1.2660271
20	0x3f06eb78	0.52703047
21	0x3edc51e4	0.43031228
22	0x3f6a7fe3	0.9160139
23	0x3ed11004	0.4083253
24	0x3fe0357b	1.7516321
25	0x3ef0d9e3	0.47041234
26	0x3fdde742	1.7336199
27	0x3fd6e8b4	1.6789765
28	0x3eeddec3	0.46459016
29	0x3fb750ee	1.4321573
30	0x3fc0965b	1.5045885
31	0x3ef14004	0.47119153

layer_2.0.0.bn1.bias f4 [32]
0	0xbd33adb7	-0.04386684
1	0xbec71b38	-0.38887954
2	0x3e211227	0.15729581
3	0x3f97bdca	1.1854794
4	0xbfb0c611	-1.3810445
5	0x3ebd0ef3	0.36925468
6	0xbde93f6c	-0.1138905
7	0xbf7fb1d2	-0.9988071
8	0xbc69acd6	-0.014262399
9	0xbf4e6de0	-0.80636406
10	0xbe5ad827	-0.21371518
11	0x3f04b685	0.51841
12	0xbe58304a	-0.21112171
13	0xbf4205f2	-0.7579032
14	0xbf2701fe	-0.65237415
15	0xbf644348	-0.89165163
16	0xbf59eaf1	-0.8512412
17	0xbe1c9d97	-0.15294491
18	0xbb5a75b5	-0.003333432
19	0xbf064f8a	-0.52465117
20	0x3f43027f	0.76175684
21	0x3f6f1303	0.93388385
22	0xbd664314	-0.056216314
23	0x3fb43aad	1.4080406
24	0xbf6f2b8a	-0.9342581
25	0x3fb1c481	1.3888093
26	0xbf59ea53	-0.85123175
27	0xbf68d5c6	-0.9095119
28	0x3fa2f098	1.2729673
29	0xbf66d85f	-0.90173906
30	0xbf73b1a9	-0.9519296
31	0x3e90e4ab	0.2829946

layer_2.0.0.bn1.running_mean f4 [32]
0	0xc10269e8	-8.150856
1	0xc1a1d024	-20.226631
2	0xc11ef692	-9.935198
3	0x4121be20	10.108917
4	0xc2a20dcc	-81.02695
5	0xc0bf24dd	-5.97325
6	0xc13501eb	-11.312968
7	0xc2a2d881	-81.42286
8	0xc140ea7b	-12.057246
9	0xc2a0209e	-80.063705
10	0xc225ee50	-41.482727
11	0x411db154	9.855793
12	0xc21254ac	-36.582687
13	0xc2527677	-52.61569
14	0xc2695a1d	-58.338
15	0xc292230f	-73.068474
16	0xc22290d6	-40.64144
17	0xc1da1d2d	-27.264246
18	0xc2697a71	-58.36957
19	0xc23f3328	-47.799957
20	0x3f1fac76	0.6237253
21	0x40d80edf	6.7518153
22	0xc1cda5c0	-25.705933
23	0x4021b104	2.5264292
24	0xc27c2395	-63.034748
25	0x4124586b	10.271586
26	0xc28ca068	-70.31329
27	0xc27a5be1	-62.589725
28	0x4119719f	9.59024
29	0xc20e4aa1	-35.57288
30	0xc258c765	-54.19472
31	0xc1c1fa20	-24.247131

layer_2.0.0.bn1.running_var f4 [32]
0	0x4507d566	2173.3374
1	0x45cee3bd	6620.4673
2	0x45f6a035	7892.026
3	0x43cb52de	406.6474
4	0x461242a7	9360.663
5	0x441a1b91	616.4307
6	0x446c2e46	944.723
7	0x46720600	15489.5
8	0x449cf643	1255.6957
9	0x468358d3	16812.412
10	0x45b72cef	5861.6167
11	0x44020f42	520.2384
12	0x4586af14	4309.885
13	0x45d891b8	6930.215
14	0x45c42cd7	6277.605
15	0x467cbe87	16175.632
16	0x45123e0b	2339.8777
17	0x454b6a83	3254.657
18	0x45b4193d	5763.155
19	0x456b5e5e	3765.898
20	0x4408087c	544.13257
21	0x439f6a6a	318.83136
22	0x452ba344	2746.204
23	0x43aa4d1c	340.60242
24	0x46568ca7	13731.163
25	0x43d6ccab	429.59897
26	0x468ce661	18035.19
27	0x45c9382c	6439.0215
28	0x43c04c4b	384.59604
29	0x44c31fb5	1560.9908
30	0x45fa6668	8012.801
31	0x45088d1f	2184.82

layer_2.0.0.conv2.weight f4 [32, 32, 3, 3]
0	0xbe49c71d	-0.19704862
1	0xbdbe0f79	-0.09280295
2	0xbe20b1a1	-0.1569276
3	0xbe2ee0f9	-0.17078008
4	0x3dc120df	0.09430098
5	0xbc5f232f	-0.013619228
6	0xbd38bc28	-0.045101315
7	0x3defec79	0.117150255
8	0x3c25c2a6	0.010117209
9	0xbba88a0a	-0.0051434087
10	0x3d1cfe9b	0.03832875
11	0xbde013f2	-0.10941304
12	0xbd004d1a	-0.03132353
13	0x3d8ee77c	0.06977746
14	0xbdf5bbe4	-0.11998728
15	0xbd2dceb7	-0.042433467
16	0x3bd19e92	0.006397077
17	0xbdd0ced9	-0.10195703
18	0xbcf26b5f	-0.029592214
19	0xbc012812	-0.007883089
20	0xbc67cf8f	-0.014148607
21	0xbd2fd092	-0.042923518
22	0x3dc6eae1	0.09712768
23	0x3d8f082d	0.06983981
24	0x3c4f6da0	0.012660414
25	0x3c59ce54	0.013293821
26	0x3df0d801	0.117599495
27	0xbd6faaf9	-0.05851266
28	0xbd07bbd0	-0.033138096
29	0x3d2ce09f	0.042206403
30	0x3c87bccd	0.01656952
31	0x3db5c4a1	0.088753946
32	0x3b5b9e3c	0.0033511063
33	0xbda270b1	-0.079316504
34	0x3ddecf8c	0.1087943
35	0x3dc4581c	0.09587118
36	0x3dddf4ba	0.108376935
37	0x3cb59c09	0.02216913
38	0xbc93816e	-0.018006053
39	0x3d1aab64	0.037761107
40	0x3d86818e	0.06567679
41	0xbc0c42fc	-0.008560892
42	0xba544216	-0.0008097006
43	0xbe0fb438	-0.14033592
44	0xbd8ad4be	-0.067788586
45	0xbdd6e014	-0.10491958
46	0x3db0b55d	0.08628342
47	0x3d3e212f	0.046418365
48	0xbe3c4b5f	-0.18388127
49	0x3cdb4724	0.02676732
50	0x3e35efb2	0.17767218
51	0x3c734776	0.014848581
52	0x3cd95911	0.026531728
53	0x3d73b0e2	0.05949486
54	0xbdb84f1c	-0.08999464
55	0xbdd4ddaa	-0.103938416
56	0xbd86ccfe	-0.06582068
57	0x3daf1552	0.085489884
58	0x3e576378	0.21034038
59	0xbd7046bf	-0.05866122
60	0x3c90b160	0.017662704
61	0x3e0356ae	0.12826034
62	0xbd16c28a	-0.03680662
63	0xbdc2cbbb	-0.09511515
64	0x3acb10ad	0.0015492641
65	0xbd82ade2	-0.06380822
66	0xbd985eb0	-0.07439935
67	0xbce35087	-0.02774836
68	0xbd5df332	-0.054187007
69	0xbca99fc6	-0.020706069
70	0x3cd29b6d	0.025708878
71	0xbd830727	-0.063978486
72	0x3e08065c	0.13283676
73	0x3e495294	0.19660407
74	0x3e46702a	0.19378725
75	0x3d9a5d41	0.07537318
76	0xbc1af2eb	-0.00945733
77	0xbb26b4aa	-0.0025437274
78	0xbd4eaa8c	-0.050455615
79	0xbd2f5b6d	-0.0428118
80	0x3d407d4d	0.046994496
81	0xbdeee7e1	-0.11665321
82	0xbb57ce66	-0.003292942
83	0xbd36e606	-0.04465296
84	0x3ce03cd3	0.027372753
85	0x3d82459d	0.06360934
86	0x3d53f764	0.051749602
87	0xbd73013a	-0.05932734
88	0x3d0463a0	0.032321572
89	0xbd2f3154	-0.042771652
90	0x3cef7842	0.029232148
91	0x3bbcba67	0.0057595256
92	0xbc613eb7	-0.013747863
93	0x3db5a411	0.08869184
94	0xbd611336	-0.05494996
95	0xbd30f594	-0.04320295
96	0x3e1577d4	0.14596492
97	0x3c231f6f	0.009956225
98	0x3d34c529	0.04413334
99	0xbe77b9a2	-0.24191907
100	0xbe97119f	-0.2950563
101	0xbe9767bd	-0.29571334
102	0x3d3d23ca	0.04617671
103	0xbdf85f44	-0.121275455
104	0xbe5a31c5	-0.21308048
105	0x3e081af3	0.1329153
106	0x3e2e08d7	0.1699556
107	0x3d91482f	0.07093846
108	0xbd9305b9	-0.07178826
109	0xbd6e6629	-0.058202896
110	0x3d1bcc12	0.038036413
111	0xbd4a7275	-0.04942556
112	0xbd25ba55	-0.040460903
113	0xbcb11267	-0.02161522
114	0xbd6f248a	-0.058384456
115	0xbd2818b3	-0.04103918
116	0xbd2317e9	-0.039817724
117	0xbd5815b5	-0.052755076
118	0xbd264c16	-0.040599905
119	0xbd2e15ac	-0.042501137
120	0xbd139bab	-0.03603713
121	0xbb90186c	-0.0043974426
122	0x3cc0c23f	0.023530124
123	0x3d0d005f	0.034424182
124	0x3d80a39a	0.062812045
125	0x3e189c0c	0.14903277
126	0xbdc4b8be	-0.09605549
127	0xbd1ba387	-0.03799775
128	0xbd81d40b	-0.06339272
129	0xbda5b238	-0.08090633
130	0x3d7f3cad	0.062313724
131	0x3d76295b	0.060098033
132	0xbdb38008	-0.087646544
133	0x3d893db6	0.067012236
134	0xbcfa2a88	-0.030537859
135	0x3e3fcf5a	0.18731442
136	0x3e0bd499	0.13655318
137	0x3e1e8184	0.15479094
138	0x3dcbff9b	0.09960862
139	0xbd8d169f	-0.0688908
140	0xbdb6a79d	-0.089186884
141	0x3de2174b	0.11039599
142	0xbcf98e73	-0.030463433
143	0xbdb79a25	-0.089649476
144	0xbda74537	-0.081674986
145	0xbd73fe20	-0.059568524
146	0xbd091072	-0.03346295
147	0xbd74839b	-0.05969582
148	0x3d932ae5	0.07185916
149	0x3be85b85	0.007090988
150	0xbd22a511	-0.0397082
151	0x3dbb622d	0.09149585
152	0xbb0ade4c	-0.0021189628
153	0xbde4f31e	-0.111791834
154	0xbd859ba9	-0.065238304
155	0xbdf59a7f	-0.119923584
156	0x3d8e8724	0.0695937
157	0x3cc105d4	0.02356235
158	0xbd38b2c7	-0.04509237
159	0xbe09a841	-0.1344309
160	0xbc786056	-0.015159687
161	0xbd1ba5bd	-0.037999857
162	0x3e131f19	0.14367332
163	0x3e32372b	0.17403857
164	0x3db10acf	0.0864464
165	0x3cc59a27	0.024121357
166	0x3d5bcbd1	0.05366117
167	0xbcca1e39	-0.024672614
168	0x3c3078a1	0.010770948
169	0x3e05bcf9	0.13060369
170	0x3dbaa5c6	0.0911365
171	0xbd5fd5b1	-0.05464715
172	0x3d3839f9	0.044977162
173	0x3aed40fe	0.0018101034
174	0x3d319f6c	0.043364927
175	0x3d818901	0.063249595
176	0x3dbcf024	0.09225491
177	0xbd80eb82	-0.062949196
178	0x3d818e2f	0.063259475
179	0xbdbab993	-0.09117427
180	0xbd681c2c	-0.05666749
181	0xbc4bb6d0	-0.012433723
182	0xbd24225b	-0.040071826
183	0xbda22a71	-0.07918251
184	0x3d33a8e6	0.043862246
185	0x3d0519d7	0.032495346
186	0x3c90ba8a	0.017667074
187	0x3d87bc94	0.06627765
188	0xbc7535cf	-0.014966442
189	0x3d9c5c8f	0.07634842
190	0x3deaeac6	0.11470561
191	0x3de27104	0.11056712
192	0xbd1d859f	-0.03845751
193	0x3d5448ed	0.05182736
194	0x3d08ae65	0.03336944
195	0xbb68344b	-0.003543156
196	0x3e2b4ec0	0.1672926
197	0xbd4ac773	-0.049506616
198	0x3d3c90b4	0.046036437
199	0x3c8c49ad	0.017124975
200	0x3d778684	0.06043102
201	0xbd4636df	-0.048392173
202	0x3bce9bfc	0.006305216
203	0x3df9887e	0.12184237
204	0x3c7bf6d4	0.015378673
205	0x3d98d10c	0.074617475
206	0x3d693cd6	0.056942783
207	0xbe0299f3	-0.1275404
208	0x3e5ca3a8	0.21546805
209	0xbddaa536	-0.10676043
210	0x3da61430	0.08109319
211	0x3e31fdaa	0.17381921
212	0xbc09a991	-0.008402244
213	0x3d4eb398	0.050464243
214	0x3e0515be	0.12996575
215	0x3cfcfda5	0.030882666
216	0x3ddb1a0a	0.10698326
217	0x3b8339f0	0.0040047094
218	0xbb9a3d28	-0.0047069974
219	0x3c6a49c9	0.014299818
220	0x3aac37a2	0.0013139138
221	0xbd05ba61	-0.032648448
222	0xbc51c36f	-0.012802943
223	0x3c072b95	0.008250137
224	0x3d3a2755	0.045447666
225	0xbdc9a5ea	-0.09846099
226	0x3e0f5d5e	0.1400046
227	0xbdb43a4f	-0.08800184
228	0xbc0eba8b	-0.0087114675
229	0x3d9311b0	0.07181108
230	0xbd0ffaf7	-0.035151448
231	0xbde2f7e4	-0.11082438
232	0x3d41c1ac	0.04730384
233	0xbe0ffdb3	-0.14061622
234	0x3e4bd86e	0.1990678
235	0x3d1604ef	0.0366258
236	0x3e2c5be0	0.16831923
237	0x3e187d57	0.14891563
238	0xbccdd52d	-0.025126064
239	0x3d57b7c6	0.052665494
240	0x3e293f82	0.16528133
241	0x3c5f4ef2	0.013629662
242	0x3db9d7d6	0.090743706
243	0xbe31cb26	-0.17362651
244	0xbda23c16	-0.07921617
245	0xbd227c6f	-0.03966945
246	0xbd003632	-0.031301685
247	0x3d85419c	0.065066546
248	0xbca03e43	-0.019560939
249	0xbd915a7e	-0.07097338
250	0x39bea7d9	0.0003636468
251	0xbd95998c	-0.07304677
252	0xbe1b1c15	-0.15147431
253	0xbb93f3f6	-0.0045151664
254	0xbd78010c	-0.060547873
255	0xbcfdbed1	-0.030974777

layer_2.0.0.conv2.bias f4 [32]
0	0x3ca7e64a	0.020495553
1	0xbd4876bb	-0.048941355
2	0x3d6dd247	0.058061864
3	0x3cc554aa	0.024088223
4	0x3d10e4fb	0.035374623
5	0x3b1d55d8	0.0024007466
6	0x3cf9e8de	0.030506548
7	0x3d0232cd	0.03178673
8	0xbd656521	-0.056004647
9	0x3cb7d83e	0.02244198
10	0xbcff153d	-0.031138057
11	0xb98b0872	-0.00026518438
12	0x3d1315cb	0.035909455
13	0x3ba9e088	0.005184237
14	0xbbaeb8a0	-0.0053320676
15	0x3d4e23c1	0.050327066
16	0x3d48b9e7	0.049005415
17	0x3cd87aa2	0.026425663
18	0xbbb88890	-0.005631514
19	0x3d43e86f	0.047829088
20	0xbb791345	-0.003800587
21	0xbc9d6efe	-0.019217964
22	0xbc34cfdc	-0.011035886
23	0xbc310c5c	-0.010806169
24	0xbc602c78	-0.013682477
25	0x3d6b351d	0.0574237
26	0x3a46043f	0.00075537333
27	0x3d275891	0.040855948
28	0xba6a73ff	-0.00089436764
29	0x3d4f9713	0.050681185
30	0x3d458753	0.04822476
31	0xbd0cbe93	-0.034361433

layer_2.0.0.bn2.weight f4 [32]
0	0x40222a93	2.5338485
1	0x40661ba3	3.5954368
2	0x4074d814	3.8256884
3	0x4088301b	4.2558722
4	0x4062e25d	3.545066
5	0x408b30c7	4.3497043
6	0x40871d83	4.2223525
7	0x40535c42	3.302506
8	0x405012d7	3.25115
9	0x402ad15b	2.669028
10	0x4036e868	2.857935
11	0x40951fff	4.660156
12	0x4082444e	4.070838
13	0x40a6936b	5.2054954
14	0x409e05a8	4.9381905
15	0x408d8bc1	4.42331
16	0x408b4f7c	4.3534527
17	0x40880d68	4.2516365
18	0x4094ce5b	4.65019
19	0x409c6fe8	4.8886604
20	0x409b5fb6	4.8554335
21	0x408b22ef	4.3480144
22	0x40ae5573	5.447931
23	0x4048822c	3.132945
24	0x4077c952	3.8716626
25	0x4057bbd2	3.3708386
26	0x405745a7	3.3636262
27	0x409c4e4c	4.8845577
28	0x4024c12a	2.5742898
29	0x4071e206	3.7794204
30	0x40973b23	4.725969
31	0x40a540d5	5.164164

layer_2.0.0.bn2.bias f4 [32]
0	0x3f18471c	0.59483504
1	0x3f702e5d	0.93820745
2	0x3fab3216	1.337466
3	0x3fdcc6bf	1.7248152
4	0x3f711cd8	0.9418464
5	0x3fc683d2	1.5508978
6	0x3fda78cf	1.7068118
7	0x3f79a0c8	0.9751096
8	0x3f910e3c	1.1332469
9	0x3eb61449	0.3556235
10	0x3f02b2dc	0.5105417
11	0x40109c74	2.2595491
12	0x400081bc	2.0079184
13	0x401497a7	2.3217561
14	0x3fd8cbb0	1.693716
15	0x4001f1f4	2.0303926
16	0x3fdf53ed	1.7447487
17	0x3fb550b7	1.4165257
18	0x3ff53e18	1.9159575
19	0x3fd7e569	1.6866885
20	0x3f9769d1	1.1829168
21	0x3fed86e4	1.855679
22	0x400f0219	2.234503
23	0x3fa57d36	1.2928836
24	0x3f90fc09	1.1326915
25	0x3f5aad17	0.85420364
26	0x3f5c1632	0.8597137
27	0x4018e106	2.3887343
28	0x3f1b9605	0.60775787
29	0x3f4c4582	0.7979356
30	0x3fe7dc7b	1.811416
31	0x3feed00f	1.8657244

layer_2.0.0.bn2.running_mean f4 [32]
0	0x3e96f172	0.29481083
1	0x3f14b55f	0.5808925
2	0x3f3cee7d	0.73801404
3	0xbd2648bb	-0.040596705
4	0xbddbfa1d	-0.10741065
5	0x3edb25f3	0.4280239
6	0x3e692c0d	0.2277071
7	0x3c36e0b7	0.011161975
8	0x3f5b452f	0.8565244
9	0x3fffe4c1	1.9991685
10	0x3f45c0a5	0.7724708
11	0x3e9fa946	0.31183833
12	0x3f113616	0.56723154
13	0xbe74d132	-0.23907927
14	0x3e37ebc7	0.17961036
15	0xbf8f9290	-1.1216602
16	0xbf759fde	-0.9594706
17	0x3fa24394	1.2676873
18	0xbe210c20	-0.15727282
19	0x3b4f994e	0.003167707
20	0xbf84b5a3	-1.0367931
21	0xc00707df	-2.1098554
22	0x3f0bbe0b	0.5458686
23	0x3f869477	1.0514058
24	0xbf6f82db	-0.93559045
25	0xbf085298	-0.5325103
26	0x3e22b1bd	0.15888114
27	0x3f03c704	0.5147555
28	0xbf580d23	-0.84395045
29	0x3dd5f914	0.104478985
30	0x3eccf681	0.40031818
31	0x3da1f059	0.07907171

layer_2.0.0.bn2.running_var f4 [32]
0	0x3ed2cdf7	0.41172764
1	0x3ef4fd2a	0.478494
2	0x3ee198cd	0.4406189
3	0x3f12c0fa	0.5732571
4	0x3ec4f918	0.38471293
5	0x3f09435a	0.53618395
6	0x3ef31ce8	0.4748299
7	0x3e7e6144	0.24841791
8	0x3e961fdf	0.2932119
9	0x3ecad8c7	0.39618513
10	0x3e284292	0.16431645
11	0x3f4e1543	0.8050119
12	0x3f75014f	0.9570512
13	0x3f299784	0.6624682
14	0x3f5ea037	0.8696322
15	0x3f00db55	0.50334674
16	0x3f03d169	0.5149141
17	0x3ee3feb9	0.44530275
18	0x3f1a321a	0.602327
19	0x3f1ae0c1	0.604992
20	0x3f2020da	0.6255013
21	0x3f4179d6	0.7557653
22	0x3f78915e	0.9709681
23	0x3eb45433	0.3522049
24	0x3ecf0ede	0.4044103
25	0x3eaa915c	0.33314025
26	0x3edb036f	0.42776057
27	0x3f5d674b	0.8648574
28	0x3e99675c	0.2996167
29	0x3ea5695a	0.3230694
30	0x3ece7fe0	0.40331936
31	0x3fa8e3f7	1.3194569

layer_2.0.1.conv1.weight f4 [32, 32, 3, 3]
0	0x3e18ce53	0.14922456
1	0x3e1ad8d5	0.15121777
2	0x3e80936f	0.25112483
3	0x3cd98e6a	0.026557166
4	0x3c42934e	0.0118759405
5	0x3da003c2	0.07813217
6	0xbd3c6bb8	-0.046001166
7	0x3c035550	0.008015946
8	0xbdddc44e	-0.10828458
9	0x3e292230	0.16516948
10	0x3dece141	0.11566401
11	0x3ecaf012	0.39636284
12	0xbdae4b33	-0.08510437
13	0xbd537407	-0.051624324
14	0x3d639cb6	0.055569373
15	0xbf0100ad	-0.50391656
16	0xbe5e1c79	-0.21690549
17	0xbc75f735	-0.015012552
18	0x3e0b956b	0.13631217
19	0x3d81fac3	0.06346657
20	0xbe25ee19	-0.16204108
21	0x3e0ba074	0.13635427
22	0xbce4652d	-0.027880276
23	0xbe30e9fe	-0.17276761
24	0x3e68870d	0.22707768
25	0xbc188677	-0.009309403
26	0xbd29933b	-0.041400176
27	0xbee232c1	-0.44179347
28	0xbe487a09	-0.19577803
29	0x3cff491b	0.03116279
30	0xbe801520	-0.25016117
31	0x3d90b0f3	0.070650004
32	0x3e1e8d38	0.15483558
33	0x3e6df01b	0.23236124
34	0x3ebb8d91	0.36631444
35	0x3f0d0ed7	0.5510077
36	0xbbd8f287	-0.0066207084
37	0xbe01753f	-0.12642382
38	0xbede12f8	-0.43373847
39	0x3d3c3b16	0.045954786
40	0xbda74aba	-0.0816855
41	0xbe45f008	-0.19329846
42	0x3e6cb54f	0.23116039
43	0x3cb0567e	0.021525618
44	0xbd632440	-0.055454493
45	0xbefe7f24	-0.49706376
46	0xbd606ca7	-0.05479112
47	0x3dbe7e97	0.09301489
48	0xbed7499d	-0.4204835
49	0x3dbec8b9	0.093156286
50	0xbd999e20	-0.07500863
51	0xbe1482fb	-0.1450309
52	0x3dafe2a9	0.08588154
53	0x3ecb4d5b	0.39707455
54	0xbe5602b4	-0.20899469
55	0xbe4a5a38	-0.19760978
56	0xbe3e7f2c	-0.186032
57	0x3e16d495	0.14729531
58	0x3d1c1f7a	0.038115956
59	0xbca856dc	-0.02054923
60	0x3eac4755	0.33648172
61	0x3d183bdf	0.037166473
62	0x3d7f55c7	0.062337663
63	0x3d9132b7	0.07089751
64	0x3de7ae20	0.113125086
65	0x3e79d93c	0.24399275
66	0x3d246ce7	0.04014292
67	0x3df5968d	0.11991606
68	0xbd8c22c4	-0.068425685
69	0xbd6787aa	-0.056525864
70	0xbd307a7c	-0.04308556
71	0x3d079d8c	0.033109233
72	0xbdc7542d	-0.09732852
73	0xbd9e5974	-0.077319056
74	0xbe8e1281	-0.27748492
75	0xbd06a826	-0.032875203
76	0xbe089232	-0.13337019
77	0x3d19c57f	0.037541863
78	0x3db2d1e6	0.08731441
79	0x3c3ad249	0.011402675
80	0x3d24e10a	0.040253676
81	0x3e18a887	0.14908038
82	0x3db77504	0.08957866
83	0x3e2e40e9	0.17016949
84	0xbdeeef08	-0.11666685
85	0xbe3b635b	-0.1829962
86	0xbd23b8bc	-0.0399711
87	0x3d5c55e6	0.053792857
88	0xbd6d98db	-0.058007102
89	0xbd42ffac	-0.04760711
90	0xbe05ee02	-0.13079074
91	0x3dfd23b5	0.12360326
92	0x3e2fb56f	0.17159055
93	0xbcb7a97b	-0.022419682
94	0xbe05636f	-0.13026212
95	0x3c26f7ef	0.010190948
96	0x3bd53803	0.0065069213
97	0x3dac10d3	0.084016465
98	0x3e19f976	0.15036568
99	0xbe1524f6	-0.1456488
100	0x3dab2106	0.08355908
101	0x3ece9e30	0.40355062
102	0xbeaeb5ba	-0.3412302
103	0xbdd094d6	-0.10184638
104	0x3e490b68	0.19633257
105	0xbeacc50f	-0.33744094
106	0x3cafcbc6	0.021459471
107	0x3eadf5be	0.3397655
108	0xbe772740	-0.24136066
109	0xbe69af74	-0.22820836
110	0xbf1e5a08	-0.61856127
111	0xbba78ea6	-0.0051134406
112	0x3ddba88d	0.10725508
113	0xbda7bd3b	-0.0819039
114	0x3f04ee51	0.5192614
115	0x3e9e9426	0.30972403
116	0x3eb60065	0.35547176
117	0x3f5949ea	0.8487841
118	0x3eb9337f	0.361721
119	0x3e05a1ea	0.13050047
120	0x3e5fc558	0.21852624
121	0x3e3de0dc	0.18542808
122	0xbe8c0895	-0.27350298
123	0xbee32e7d	-0.44371405
124	0xbeb0f0f5	-0.34558836
125	0xbf77314e	-0.9655961
126	0xbdd39623	-0.10331371
127	0x3eb91e39	0.3615587
128	0x3f3bdca9	0.73383576
129	0xbe8e3caa	-0.27780658
130	0x3dccdbf7	0.100028925
131	0x3e8b759e	0.27238172
132	0xbf1cf194	-0.6130612
133	0xbe101c0e	-0.14073202
134	0x3e4f055a	0.20216885
135	0x3ec61f15	0.3869559
136	0x3df0e950	0.11763251
137	0x3e8839bc	0.26606548
138	0x3dead45e	0.11466287
139	0xbe042632	-0.12905195
140	0x3dde3b5b	0.10851165
141	0xbe8e2a22	-0.2776652
142	0xbe3a583e	-0.18197724
143	0xbe0dc004	-0.1384278
144	0xbe5f0567	-0.21779405
145	0x3de4262b	0.111400925
146	0x3e1acb1d	0.15116544
147	0xbe3168f3	-0.17325191
148	0xbe26260a	-0.16225448
149	0xbdbb05de	-0.091319785
150	0x3e69177d	0.22762866
151	0x3e3b7fc4	0.18310457
152	0x3e4b154b	0.19832341
153	0x3e69257b	0.22768204
154	0x3d8aa2cd	0.06769333
155	0xbdd4eff2	-0.103973284
156	0x3d727025	0.05918898
157	0x3c0adf10	0.008476034
158	0xbe8f30a6	-0.27966803
159	0x3c0c5c67	0.008566952
160	0xbdddc114	-0.10827842
161	0xbed20da1	-0.41026023
162	0x3f2e432a	0.68071234
163	0x3e991233	0.29896697
164	0xbe52c210	-0.20581841
165	0x3ea4ac13	0.32162532
166	0x3cfe58f5	0.031048277
167	0xbea0e6e5	-0.3142616
168	0x3e3476a5	0.17623384
169	0xbe4f5bec	-0.20249909
170	0xbf2e1462	-0.6799985
171	0x3edc1526	0.42984885
172	0xbdeb58e7	-0.11491566
173	0xbe9a401d	-0.3012704
174	0x3e9039c0	0.2816906
175	0xbd901912	-0.07036032
176	0xbe8d105d	-0.27551547
177	0x3eb7d32c	0.359033
178	0xbe14a4fe	-0.14516065
179	0xbec6d764	-0.38836205
180	0x3d7f12f9	0.062273953
181	0x3e1702f9	0.14747228
182	0x3e4597c4	0.19296175
183	0xbd9c74d7	-0.07639473
184	0xbdbf031e	-0.093267664
185	0x3c989bfc	0.018629067
186	0xbd2622cb	-0.040560525
187	0x3d6b02a0	0.05737555
188	0x3cc19056	0.023628395
189	0xbebace9b	-0.36485752
190	0xbec6ad5e	-0.38804144
191	0xbe583f20	-0.2111783
192	0xbcbde656	-0.023181122
193	0xbdaeb50f	-0.08530628
194	0x3dd92976	0.10603611
195	0x3e2371cd	0.1596138
196	0x3cdb5700	0.026774883
197	0x3e8629ba	0.2620371
198	0xbce6f4d5	-0.028192917
199	0x3d9b4f61	0.075835
200	0x3f51c896	0.81946695
201	0xbe357c8e	-0.17723295
202	0xbd85a3fc	-0.06525418
203	0x3eacf74a	0.33782417
204	0xbf2854e4	-0.6575453
205	0xbec491ce	-0.3839249
206	0x3e082370	0.13294768
207	0xbe2ec00f	-0.17065452
208	0x3d3b511e	0.045731656
209	0x3e1ce629	0.15322174
210	0x3d888dcc	0.066676706
211	0x3e19a8a9	0.15005745
212	0x3d22a0b6	0.039704047
213	0xbcd5e15e	-0.02610844
214	0xbd1e9e1f	-0.038725015
215	0x3c87636b	0.016526898
216	0x3ddad933	0.10685959
217	0x3baf85a7	0.005356509
218	0x3dc68e84	0.096951514
219	0x3de1170e	0.109907255
220	0xbdd25988	-0.10270983
221	0x3d8d738f	0.06906807
222	0x3a8797d7	0.0010344934
223	0xbe64e263	-0.22351985
224	0xbe359f1d	-0.17736478
225	0xbd177a95	-0.036982138
226	0x3de4d6a8	0.11173755
227	0x3e2b6fa7	0.1674181
228	0xbdc8a243	-0.09796574
229	0x3e4771f3	0.19477062
230	0x3e2422d1	0.16028906
231	0xbe0f92d9	-0.14020862
232	0x3d3c5dfd	0.04598807
233	0x3d234b00	0.039866447
234	0xbe90f242	-0.28309828
235	0xbe6061dd	-0.21912332
236	0xbe55c917	-0.20877491
237	0xbd44dc47	-0.048061635
238	0xbd4d23de	-0.050083034
239	0x3d568a54	0.052378014
240	0xbbef3aba	-0.007300702
241	0x3d16dae9	0.036829863
242	0x3e81df03	0.25365457
243	0xbe885c9e	-0.2663316
244	0xbed968ca	-0.4246276
245	0xbf525571	-0.82161623
246	0x3e21e488	0.15809834
247	0xbe0f19e9	-0.13974728
248	0xbd98e084	-0.07464698
249	0x3f49af07	0.78782696
250	0x3ea13d34	0.31492007
251	0x3ecf6a3f	0.40510747
252	0xbe3b8e19	-0.18315925
253	0xbdfdf893	-0.124009274
254	0xbd08778c	-0.033317134
255	0x3d969b7a	0.073538736

layer_2.0.1.conv1.bias f4 [32]
0	0xbc8f75be	-0.017512199
1	0x3cdc92ca	0.026925463
2	0x3d243bc9	0.040096078
3	0x3ce83cc6	0.028349292
4	0xbd3602c2	-0.044436224
5	0x3c5c817c	0.013458606
6	0x3ccf47ba	0.025302757
7	0xbd61c12c	-0.055115864
8	0x3d1889bd	0.037240732
9	0x3cbad06e	0.022804465
10	0xbc722084	-0.01477826
11	0xbc9c4514	-0.019075908
12	0xbd3341be	-0.04376387
13	0x3d324d8d	0.04353099
14	0xbcfa118f	-0.03052595
15	0x3d6680c7	0.056275155
16	0x3c141be4	0.009039853
17	0xbcf11782	-0.029430155
18	0x3d1db43f	0.038501974
19	0x3ce8240e	0.028337505
20	0xbd52b191	-0.05143887
21	0x3d413da3	0.047177922
22	0x39f2d080	0.00046313182
23	0x3ca180ea	0.019714791
24	0xbd05dfca	-0.032684125
25	0x3ca7c092	0.020477567
26	0x3c7e6aa4	0.015528355
27	0xbd58a90f	-0.0528956
28	0x3d5c2967	0.05375042
29	0x3d4ebf89	0.05047563
30	0xbd081d71	-0.033231203
31	0x3d08d77f	0.033408638

layer_2.0.1.bn1.weight f4 [32]
0	0x3f0c7aaa	0.5487467
1	0x3f891777	1.0710286
2	0x3f91abd5	1.1380564
3	0x3eaae245	0.33375755
4	0x3ee7c560	0.45267773
5	0x3fab89ad	1.340139
6	0x3fbca905	1.4739081
7	0x3f1d8e6d	0.6154545
8	0x3f4cc7c5	0.79992324
9	0x3ef60f37	0.48058483
10	0x3fc82c80	1.563858
11	0x3f984585	1.1896216
12	0x3f9164b8	1.1358862
13	0x3fa99cfa	1.325103
14	0x3f2a68e0	0.66566277
15	0x3f679594	0.90462613
16	0x3eff8646	0.4990713
17	0x3f25835f	0.6465358
18	0x3f080352	0.53130066
19	0x3f88f96c	1.0701118
20	0x3f88c09e	1.0683782
21	0x3eef08d0	0.4668641
22	0x3f44f477	0.76935524
23	0x3fa2c260	1.2715569
24	0x3f9cf0a3	1.2260936
25	0x3fc3f1c9	1.5308162
26	0x3fb77b5d	1.4334522
27	0x3f462dc6	0.77413595
28	0x3fa9c8cd	1.3264405
29	0x3f8f8d9e	1.1215093
30	0x3f928502	1.1446841
31	0x3f57127e	0.8401259

layer_2.0.1.bn1.bias f4 [32]
0	0x3fa8a4b1	1.317526
1	0xbd8a7cc5	-0.06762079
2	0xbe884f01	-0.26622775
3	0x3f2a8a6c	0.66617465
4	0x3f8dfa0e	1.1091936
5	0xbe1b3d6b	-0.15160148
6	0xbf2629ee	-0.6490773
7	0x3ec81a29	0.3908246
8	0x3e2b4cf9	0.16728581
9	0x3f8cdcac	1.1004844
10	0xbe21ddc5	-0.15807255
11	0xbeeeb491	-0.46622136
12	0xbe978240	-0.2959156
13	0xbf1f6fcc	-0.62279963
14	0x3e85dae4	0.26143563
15	0xbe8edf3f	-0.27904698
16	0x3f59c195	0.8506101
17	0x3f11082c	0.56653094
18	0x3f02a76a	0.51036704
19	0xbe81bcf3	-0.2533947
20	0xbea1c0ec	-0.315925
21	0x3f70b85e	0.9403132
22	0x3dff5e2e	0.12469135
23	0xbf2d7af0	-0.6776571
24	0xbec97339	-0.3934572
25	0xbf82a9af	-1.0208033
26	0xbf3a62fa	-0.72807276
27	0xbd89e8b6	-0.06733839
28	0xbe4da007	-0.20080577
29	0xbeed054b	-0.462931
30	0xbf08d9a3	-0.5345709
31	0xbe26be3c	-0.16283506

layer_2.0.1.bn1.running_mean f4 [32]
0	0x41250516	10.313742
1	0xc20c8605	-35.13088
2	0xc21a9114	-38.641678
3	0x41898708	17.190933
4	0xc003bd11	-2.0584147
5	0xc18b9b4a	-17.450825
6	0xc25be233	-54.970898
7	0xc1033ba1	-8.202058
8	0xc15f7a64	-13.967381
9	0x4162e020	14.179718
10	0xc20f30b5	-35.797565
11	0xc24c7351	-51.112614
12	0xc25191ba	-52.39231
13	0xc252d1be	-52.704826
14	0xc06a8bc6	-3.664781
15	0xc15b7ecf	-13.718459
16	0xc085177b	-4.1591163
17	0xc0ed946c	-7.424368
18	0xbff8d8c4	-1.9441152
19	0xc2217955	-40.36849
20	0xc1aa07da	-21.253834
21	0x4137dfb2	11.492113
22	0xc10562d4	-8.336628
23	0xc2521822	-52.523567
24	0xc222c045	-40.687763
25	0xc29f72d0	-79.72424
26	0xc2a16cab	-80.71224
27	0xc1ce589c	-25.793266
28	0xc1eed544	-29.854134
29	0xc250facc	-52.24492
30	0xc21da3ad	-39.40984
31	0xc204b5e8	-33.177643

layer_2.0.1.bn1.running_var f4 [32]
0	0x43dd1f43	442.24423
1	0x45028fc9	2088.9866
2	0x448f37b3	1145.7406
3	0x442d51be	693.2772
4	0x436435a0	228.20947
5	0x4539d8bc	2973.546
6	0x4515d173	2397.0906
7	0x43e6141d	460.15714
8	0x443d68ef	757.6396
9	0x43b4fadf	361.95993
10	0x45a7a698	5364.824
11	0x458c76d3	4494.853
12	0x457044ca	3844.2993
13	0x457160a2	3862.0396
14	0x43e3646f	454.78464
15	0x44a98751	1356.2286
16	0x44241606	656.3441
17	0x4424fb42	659.9259
18	0x43b1917e	355.13666
19	0x4535cbed	2908.7454
20	0x448adae7	1110.8407
21	0x43a25321	324.64944
22	0x4409da34	551.4094
23	0x455fbaf9	3579.6858
24	0x4547fed0	3199.9258
25	0x45f67154	7886.166
26	0x45af9df3	5619.7437
27	0x44d3aacd	1693.3375
28	0x452c28f9	2754.5608
29	0x451bd680	2493.4062
30	0x451a6d45	2470.8293
31	0x44fdafc3	2029.4926
