checkpoints/pannet_model_WV3/pannet_model_WV3_2023_07_22-14_38_46.pth.tar (torch, 955615 bytes, 92 tensors)

layer_0.0.weight f4 [8, 8, 8, 8]
00000000: 6084 433d 307e 2f3e 5725 6d3e aa40 fc3e
00000010: ae6d f13e d120 023f db3c ca3e c119 3f3e
00000020: e757 0c3e 2ab0 803d d33e a43e eb8b d53e
00000030: 82bf af3e 20e3 e83e 7a15 073e 96f3 653e
00000040: ccc6 4e3e 1afd 7c3e 08b8 6c3e 7fa9 943e
00000050: 5a01 1d3e ebd9 2d3e a512 4e3e 3fec b53d
00000060: 52e5 fc3d a557 40bd 1e5f 843e 1b7c 4bbe
00000070: b565 113e e208 54bd 55c3 413e 1784 3f3e
00000080: 8ff6 f33b e2a9 88bd 58cc 51be 3976 d3bb
00000090: 6559 78bd ddc1 1a3e e6be 2a3d cefe a93e
000000a0: 3f05 283c 3bdd 20be 7645 24bd 1387 74be
000000b0: df66 703d 2dce b2bc c28c 1b3e ee56 c03e
000000c0: f97d 0abe 0f2b 8abe 07e6 9ebe 43c0 93bc
000000d0: 61f7 03be 0865 723a c449 ae3c 1191 df3d
000000e0: ca48 febd e586 40bd 3564 7e3e c17f e83d
000000f0: 690e e03e 25ce 9c3e 92e4 433e 82a7 e83d
00000100: 9d2c bdbc e796 463e b9b0 b63e a6cd b43e
00000110: 435e 853e 978b 853e 50de 833d 07d3 103d
00000120: d100 553c 1d61 7a3d 0508 10be 68ef 08be
00000130: ceb2 d13d a62b cdbd 2f85 fa3d adfe 1abd
00000140: def5 473d 2562 9ebd df24 69be f168 a2bd
00000150: e9d3 9dbe dfa0 313e e720 a63c 4f40 cf3e
00000160: 1a05 a93e c824 f03d e344 85bd 40f7 a23d
00000170: ba5f 473e cadd 1b3e 07b7 ae3e 7585 033e
00000180: 1fda 113e bf0d 4ebe 2055 e6bd 1549 6abe
00000190: 3910 80be 8c5c 143c 1063 783d 76ad 9a3e
000001a0: e7e7 0d3d d880 2c3e eb93 dfbd ee0a c5ba
000001b0: 7bc8 2ebd cc2d a9bd 7057 963e 0386 8cbd
000001c0: 648d d13e 73e4 f13d 6058 0d3f 7419 183e
000001d0: 5c59 b83e d42b 773e 8a91 c13c e89b 1c3e
000001e0: 6937 093e 1333 ba3e 950d a83e 0c68 d33e
000001f0: 7283 c53e 1de1 363c 1104 f63d 8f95 bbbd
00000200: 1fc1 c43c 58f6 d13c b1ae 22bd 072b 8abe
00000210: 213d 0fbf b84d 69be b528 dfbe 01cb 8dbd
00000220: 0fae d0bc 6b0c 9fbe e5f9 c9be aa89 51bf
00000230: fd70 00bf 76b8 30bf d9e9 8abe e23a e8bd
00000240: f214 37be de1a f5be cc20 d8be b0ec 0cbf
00000250: 345d 23bf 4ffb 87be 27ab c7be 13c8 b23e
00000260: 27aa 1fbe d21b a5bd 4e17 17be c635 bfbe
00000270: 6930 c8bc e2a3 eabe d99b 823e a519 8cbe
00000280: 7b17 1dbe 1738 bcbe 40b5 85bc 3581 79bd
00000290: 43bc b1bd 209a 1a3e dc2a babe a092 6b3e
000002a0: 069b cebe 890d 173e 6ad6 6ebb 44a0 a53e
000002b0: 9deb 653e 6639 5b3e 42fc 513e bbd1 8f3d
000002c0: 55f9 4c3e 4066 3ebd 94f3 ca3e e1e8 b83e
000002d0: 0c85 ac3e 7137 0a3f b521 ddbd d217 963e
000002e0: 5d66 703d 44fd fa3e c926 9e3e 3a9d 023f
000002f0: e252 943e 7df1 823e 2836 6c3e 7958 0abe
00000300: 250f 70bd aa71 9abe 9d59 a2be ecc0 0abf
00000310: 4662 4dbe 3333 06bf b538 e93d d030 63be
00000320: 02c5 0fbe 802a 7dbc 7cfb d8bd a4a8 233e
00000330: 3c03 f1bd 5c95 143e 0c57 2abe 980b 313e
00000340: 640b 27bc 88ca b23e 11c9 ce3e 6b9a f53e
00000350: 474f e93e 8416 b13d 85d9 bd3e 7a55 a4be
00000360: 21bd 02be e291 733d cd1a 843e 0c1f dc3e
00000370: dc65 143e 81ba 103e 71f4 febd 4d04 9bbd
00000380: 21ee cabd cf6c b23e c878 b63e 65b3 ca3e
00000390: c94a 873e 4f5c 853d d0df e23d 3437 82be
000003a0: 1245 913e 9d12 743d 7ce2 ae3e c615 cc3d
000003b0: dab8 a6bb 179b f6bd 1136 8dbe 6038 90be
000003c0: 00fa b23c 603e 943d 04f8 23be 1455 18be
000003d0: b2b9 4cbe f8bd 9bbe a058 8bbd 3925 b0bd
000003e0: 3aad 813d 1148 98be 7dd8 8fbe 9b78 28bf
000003f0: 5dfc ffbe 62b5 03bf 8633 09be 711d 083e
0.047733665 0.1713798 0.23158775 0.49268085 0.4715399 0.50831324 0.39499554 0.18662168
0.13705407 0.06283601 0.3207918 0.4170831 0.34325796 0.45485783 0.13191786 0.22456202
0.20193022 0.24705926 0.23117077 0.29035565 0.15332547 0.1697766 0.201243 0.08882951
0.12348427 -0.046958584 0.2585382 -0.19871561 0.14198954 -0.051766284 0.1892217 0.18702732
0.0074451636 -0.066730276 -0.20488107 -0.006453302 -0.06063213 0.15113015 0.04168596 0.33202213
0.010255157 -0.15709393 -0.040105306 -0.23879652 0.058691856 -0.021826828 0.15190414 0.37566322
-0.13524617 -0.26985976 -0.31034872 -0.018036013 -0.12887336 0.0009246622 0.021275409 0.10916341
-0.12416227 -0.047003645 0.24842913 0.11352492 0.43760994 0.30626026 0.19130161 0.113600746
-0.023092562 0.19393502 0.35681704 0.35313147 0.26048478 0.2608306 0.06438887 0.0353575
0.013000683 0.06112777 -0.14065559 -0.13372576 0.102391824 -0.10018091 0.12232434 -0.037840534
0.04881846 -0.07733563 -0.22767971 -0.07930172 -0.30825737 0.17346524 0.020279361 0.4047875
0.33011705 0.117257655 -0.0650728 0.079573154 0.1947011 0.15221325 0.34124014 0.12843879
0.14243363 -0.20122431 -0.11246705 -0.22879441 -0.25012377 0.009055268 0.06064135 0.30210465
0.034644987 0.16846025 -0.10916885 -0.0015033165 -0.04267166 -0.08260688 0.29363585 -0.06861498
0.40928185 0.11811151 0.55212975 0.1485346 0.36005676 0.24137813 0.023628969 0.15293849
0.13400044 0.36367092 0.32822862 0.4129032 0.38576847 0.01116207 0.12012494 -0.091593854
0.024017869 0.025630161 -0.03971738 -0.26985952 -0.5595265 -0.22783554 -0.43585745 -0.069234855
-0.025473623 -0.31064162 -0.39448467 -0.81850684 -0.50172406 -0.69031465 -0.27131537 -0.11339356
-0.17879084 -0.4787206 -0.42212522 -0.55048656 -0.6381409 -0.2655892 -0.38997766 0.3491827
-0.15592252 -0.08061947 -0.14754984 -0.37345713 -0.024437146 -0.45828158 0.25509527 -0.27363315
-0.15340988 -0.36761543 -0.016321778 -0.060914237 -0.08678486 0.15097857 -0.36360824 0.23005152
-0.40352648 0.14751257 -0.0036443719 0.32348835 0.2245316 0.21408615 0.20506385 0.07022425
0.20016988 -0.046484232 0.3963896 0.36115173 0.33695257 0.53990847 -0.10797445 0.29315048
0.05869137 0.4902135 0.30888966 0.5102116 0.28969485 0.25574866 0.23067534 -0.13510312
-0.058608193 -0.30164844 -0.31708995 -0.54200625 -0.2005702 -0.52421874 0.11387769 -0.22186589
-0.14039996 -0.015452027 -0.10594842 0.159823 -0.11768195 0.14510101 -0.16634768 0.17289579
-0.010195587 0.34920144 0.40387776 0.47969374 0.45568296 0.08646873 0.37080017 -0.32096463
-0.1276746 0.059465297 0.25801697 0.42992437 0.14491981 0.14133646 -0.12448967 -0.0756918
-0.09908701 0.3484864 0.35639024 0.39589992 0.26424244 0.06511747 0.11077845 -0.25432742
0.2837301 0.059588064 0.3415717 0.099650905 -0.005087954 -0.120413 -0.27580312 -0.2816801
0.021847725 0.072384596 -0.16012579 -0.14876205 -0.19992712 -0.30418372 -0.06804013 -0.0860085
0.063318685 -0.29742482 -0.28094855 -0.6580903 -0.49997225 -0.51448643 -0.13398561 0.13292481

layer_0.0.bias f4 [8]
00000000: 67c6 3b3e 9837 44be 32d8 50bf 5cab a73f
00000010: a87c af3e c540 103e ecc2 5e3f ae7d 17bf
0.18337403 -0.19161832 -0.8157989 1.309917 0.34274793 0.14087208 0.8701618 -0.59176147

layer_1.0.weight f4 [32, 9, 3, 3]
00000000: a612 90bd 7696 e43e e802 15bd 3bb6 4f3e
00000010: 5202 30bf a3cf 363e d1dc 93bd cd0c 233e
00000020: f98f 5dbd 2df8 04bc 2700 c33c bd42 193d
00000030: 5b56 ccbc 6656 cc3c 0400 aa3c 6c38 5e3c
00000040: d504 543c e378 283c 7e71 c9bc 5bde 903b
00000050: 42e8 f1bb 5a2f 0b3d 8a98 0c3c 5ed6 39bd
00000060: 3853 9d3c fffd 8f3c cc88 86bc 08d3 1a3c
00000070: 0942 61bc e3d1 cbbc dee2 58bd fa33 8bbc
00000080: 7b74 0b3d a8e3 72bd e770 ebbb 1722 a13b
00000090: 505f 1e3d 03f5 fe3b ed5a 853b a00b 043d
000000a0: 15dc 05bd 085f 5cbc 9e2b df3c 367b 1fbc
000000b0: bde0 a0bc b7bc 2abb 9d38 26bd 1235 35bd
000000c0: 997f f33c 053e 243c b1bd 44bc ebc8 313a
000000d0: 7dee 17bb f51c 1ebc f616 89bd b310 03bd
000000e0: 85f8 2cbd b08f 433d ce35 803d df69 5abd
000000f0: 59c4 223d eeba 7a3b 022a 13bd 47eb bd3c
00000100: d2d0 4e39 427e 4f3b 49c5 0abd d5cd 59bd
00000110: cc39 433c 6032 a1bc 0767 2bbd 52e3 303d
00000120: e502 2b3c ba86 a5bc 5b0c 18bc 54ed eb3c
00000130: 0cda a73c 3bce 71bc ee42 823c f0d7 8d3b
00000140: 480f a7bc e44a 233b dc05 70bc 24d6 933c
00000150: 7b1f 63bc e87a 0e3d f68d 9c3c 947c 383c
00000160: ea30 59bb d5d1 683d a15b eb3c 28fe e03c
00000170: dd67 0e3e cbc1 2a3e 3489 b6bc b260 c53b
00000180: a1b2 113a 57b5 92bc c1d3 2cbd ad52 d03a
00000190: 6cc7 4a3d 2d46 5ebd c0cd 263d fde2 ecbd
000001a0: cc73 153d 350f f1bd 2776 8cbd 2259 ffbc
000001b0: 21b9 21bc 817a 92bd f8f0 393d 85b4 a53c
000001c0: f2c5 a43c b54f 803d ce2c 85bc d6a3 76bc
000001d0: a317 f5bb 63bc bbbb cc91 6d3c a22e e23b
000001e0: 3ba0 14bd b6cc 643d 612c 323b 3b37 c7bd
000001f0: 141b 753d 772d 373c aaef b63d a188 9cbd
00000200: df5d 80bd 0e08 d3bd 1709 343d c017 e93c
00000210: ddbc 713d acce a2bc 9490 d43c e6b1 513c
00000220: be2e 243e ccc4 b43b 93d8 a43d 280b bf3c
00000230: 94a3 693b fe0c 183d 5b17 a63d ab3c 5f3c
00000240: 0d11 263d 8c8c 34be 93e4 9abc 884e 79bc
00000250: 66af ca3d 1cf1 6f3c 4e2b 963d 63e6 cd3c
00000260: 58c8 ff3a dbb0 debc aa90 033e cde6 1cbd
00000270: 8dba 9a3d 7e02 a9bd c464 71bd 6979 75bd
00000280: a243 29bc de4f 4dbd abe2 b6bd 4849 3f3e
00000290: d3f2 9bbd 4614 2a3e a94c 04bf edc3 5a3e
000002a0: 4f48 97bd 31cf 453e fb05 9ebd 85b0 25bd
000002b0: ddd8 0abd 5869 0bbd 93cb eabb b0d2 4d3b
000002c0: 0efb 9bbb 10d7 123d 62b7 133d b73f 023d
000002d0: d87d 36bc 0800 b33b 6028 e0ba 4df9 89bc
000002e0: 03a9 11bc 9fb1 3fbc a36b 06bc a0aa 25bc
000002f0: 586f debb 5612 e7bc 23c2 a4bb 3b0a 08bd
00000300: f39d ecbb 7f7e d439 63a4 91bc aec9 b13c
00000310: 328d 403c b665 813c 6bdd 69bd 3bb7 37bd
00000320: 5f52 73bc bb08 1cbc 0f47 78bc b382 aa3b
00000330: f4eb de3c 2ab6 7e3c 3a90 ad3c 0503 ef3b
00000340: 7bfd a83c c589 10bb f2d3 373c 3426 ad3c
00000350: a8d1 b63c e0a5 55bc b305 a73c 88db 2b3d
00000360: d2f7 cebc 3ed6 e5bc cdaf 283d cba0 413b
00000370: 326a 41bc b2b2 aa3c 3bc7 db3c 4b22 003b
00000380: 4cfa 44bc 47f1 8f3b d552 4e3c 54a9 c7bc
00000390: 8fcd 32bd 9929 d6bc bd84 f5bc a1e7 c53b
000003a0: 78ae 283d c270 8f3c 12ad 9a3a 0e6f 9abc
000003b0: 3519 9bbb 6c41 663b d266 7c3b 7a3c b03c
000003c0: 853e 063c 66d4 ef3b 9ed2 103c c56c e13b
000003d0: 6438 3cbc c31d 43bb 1241 8cba 3a9a 923a
000003e0: 8c72 bb3b f12f db3a 7fdd 59bb 92b6 82bc
000003f0: e01a 003e 243e acbe 1d06 a2bc 8327 823c
-0.07034807 0.44646043 -0.036379725 0.20284359 -0.6875354 0.17852645 -0.07219852 0.15922852
-0.05409238 -0.00811581 0.023803784 0.037417162 -0.024943521 0.024943542 0.02075196 0.013563257
0.012940605 0.010282728 -0.02459025 0.004421038 -0.0073824236 0.033980705 0.00858129 -0.045370452
0.01920472 0.01757717 -0.016422652 0.009449728 -0.013748654 -0.024880355 -0.052950732 -0.016992558
0.03404663 -0.05929914 -0.00718509 0.004917394 0.038665116 0.0077806725 0.004069677 0.03223765
-0.03268059 -0.013450392 0.027242478 -0.009733966 -0.019638414 -0.0026052424 -0.040581334 -0.044240065
0.02972393 0.010024552 -0.012008117 0.0006781953 -0.0023182922 -0.009650459 -0.066938326 -0.031998347
-0.042229194 0.047744453 0.062602624 -0.053323623 0.039738033 0.0038258391 -0.035928734 0.023183478
0.00019723483 0.003166095 -0.033879552 -0.053174812 0.011915635 -0.019677341 -0.0418463 0.04318554
0.010437702 -0.020205844 -0.0092802895 0.02879969 0.020489715 -0.014758642 0.015901055 0.0043287203
-0.020393029 0.0024916464 -0.0146498345 0.018046446 -0.013862486 0.03478518 0.019110661 0.0112601705
-0.0033140727 0.056840736 0.028730216 0.027464941 0.13906808 0.16675489 -0.02228222 0.00602349
0.0005557929 -0.017908735 -0.04219413 0.001589378 0.04950659 -0.054266144 0.040723562 -0.11566732
0.036487386 -0.11770479 -0.06858473 -0.031170432 -0.009870798 -0.07152272 0.04539582 0.02022768
0.020113919 0.06265203 -0.016256716 -0.01505371 -0.0074796244 -0.0057292446 0.014500093 0.0069025317
-0.03628562 0.05585929 0.0027187096 -0.09727331 0.059840277 0.011180273 0.08932431 -0.076432474
-0.062679045 -0.10304271 0.04395398 0.028453708 0.059018005 -0.01987394 0.025947846 0.012798762
0.16033456 0.005516624 0.08049121 0.02332075 0.0035650479 0.037121765 0.081099235 0.013625304
0.040543605 -0.1763174 -0.01890782 -0.015216477 0.09896736 0.014644887 0.073324785 0.025134271
0.0019514663 -0.02718394 0.12848154 -0.038306046 0.07555113 -0.082524285 -0.05893399 -0.05993024
-0.010331066 -0.050124995 -0.08929952 0.18680298 -0.076146744 0.16609296 -0.51679474 0.21363802
-0.07386839 0.19317318 -0.077159844 -0.040451545 -0.033898223 -0.03403601 -0.007165381 0.0031406097
-0.0047601527 0.03584963 0.03606356 0.031799044 -0.011138402 0.00546265 -0.0017101876 -0.016842509
-0.008890393 -0.011700063 -0.0082043735 -0.010111481 -0.0067881756 -0.028206985 -0.0050280257 -0.03321288
-0.0072209775 0.00040530038 -0.017778581 0.021702614 0.011752414 0.01579557 -0.057095926 -0.044852477
-0.014851182 -0.009523566 -0.01515366 0.005203569 0.02721212 0.015546361 0.021186937 0.007294061
0.020628681 -0.0022054773 0.011219965 0.02113638 0.022316769 -0.013040036 0.02038846 0.04195741
-0.025264654 -0.02805626 0.04118328 0.0029545303 -0.011805104 0.020837162 0.026828399 0.001955169
-0.012022566 0.004392776 0.012592991 -0.024372734 -0.043653067 -0.026142882 -0.029970521 0.006039575
0.04118201 0.017509822 0.0011800847 -0.018851783 -0.0047332295 0.003513421 0.0038513434 0.021513212
0.008193617 0.007319021 0.008839278 0.0068794214 -0.011488054 -0.0029772378 -0.0010700545 0.0011184879
0.005720442 0.0016722662 -0.0033243594 -0.015956197 0.12510252 -0.3364116 -0.019778306 0.015887981

layer_1.0.bias f4 [32]
00000000: e352 8bbe f27e 46be 5411 e3be 640c 53bf
00000010: ef38 28bf 79aa 98bb 2456 2cbf be91 3dbe
00000020: a6bc fbbc 8057 9a3e b4d0 b9be 5816 46bd
00000030: 255d 6abe abde 113f ad0b e0bc 053f 51be
00000040: ba11 6dbf f601 80be 6a01 2bbe 8684 23be
00000050: 583f 83bf 50fc 8dbf 296e bdbe bb91 fdbd
00000060: 092e fabb 7aac 0dbf 7cca 84be f9ca efbe
00000070: dd45 c8be f95f 99bf a03a be3d 13e0 86bd
-0.27211675 -0.19384363 -0.44349158 -0.8244078 -0.65711874 -0.004658994 -0.6731894 -0.18512627
-0.030729603 0.30144882 -0.3629204 -0.048361152 -0.22887094 0.5698039 -0.027349317 -0.20434196
-0.92605174 -0.25001496 -0.16699758 -0.15968522 -1.0253706 -1.1092625 -0.36998108 -0.123813115
-0.0076348823 -0.55341303 -0.25935733 -0.46834543 -0.391158 -1.1982414 0.092885256 -0.065857075

layer_2.0.0.conv1.weight f4 [32, 32, 3, 3]
00000000: 8f55 09be 2099 52be 03c8 11be cb90 cabe
00000010: 59db 69bc 1fbd 0ebd a064 e63c eeed 87be
00000020: c7e6 dc3d 5e5c 77be f85e 1abb 029f 09be
00000030: 0de6 bdbd 7cb2 42be c8eb 9dbd 3f7f 8dbb
00000040: 3a3d 303e af8d 303d cc23 82bc f323 b8be
00000050: 2df8 f4bd ecd5 333d 5df7 8d3e 5978 2c3e
00000060: 9c7d b13e 8413 c0bd 8f5e 3a3d 8a68 97bc
00000070: f267 2cbe ce8a 89be 5233 f9bb 932a 0bbe
00000080: 824f 87be 96ff c03c 8883 acbd 8ca3 95be
00000090: bf8d 28be 3e02 b6bc 84c3 fc3c 816d 8fbd
000000a0: 7e7d a3bd 35e9 9bbb e88c d8bd 1893 cfbd
000000b0: 587c 0c3d 6152 3dbc 66e2 bf3d b68d 7f3e
000000c0: 9733 cebe 9272 92bd 91e1 59be 4dd3 adbe
000000d0: d175 2abe ea3e 0dbe aeab 663b 583c e5bd
000000e0: 72bf a93d d26c 96bd 9cbd 93bd e793 5bbc
000000f0: ad4e b5bd 4363 1cbe da3d 00bd 66cb 0d3d
00000100: 2f5b 813d 41c1 68bd b043 763e 36cc c13d
00000110: cf26 83bd 3768 f3bd 9c4e 13be 448f 37be
00000120: 4a73 0e3e 7e7d e3bb 5f0a ecbd 5c50 853d
00000130: 1b3d b2bd 4232 973d 2c98 b73d 002c 033e
00000140: 014e 123e 7016 c13b 81a7 abbc 7ee2 043e
00000150: 254a b23d ed3b ad3d e6dc 883e f8ba db3e
00000160: 03a2 b83e 1ef3 babd 6988 13be 9434 71be
00000170: ef0d 12bc a2fb b2be 6d11 57be 083a acbc
00000180: 0b15 a9be 7362 43be e66c 36bd 3ab4 43be
00000190: 3825 bd3d e8e5 323e ed2f c93c c521 11bd
000001a0: 482a b13d a2c6 e4bd dd12 c1bd b8cf 3cbe
000001b0: 1d76 6cbe e5ad 43be 7200 debd 5a4f 96bd
000001c0: b724 c0bd 1c2c f2bd 82dd f83c 0260 953d
000001d0: 2ccb 10ba 0c6a 483e 21ef a43d 5aa9 413e
000001e0: a2ba 78bd 83b6 22be 4abc 563e 3434 a53e
000001f0: 588d 78bd 14c3 d23d 21a9 933d e6c3 48bd
00000200: 7ba8 0a3e a14c 8cbd cced 9f3d c783 56bb
00000210: 3651 ddbd 78fb cc3c 065a 813d 300f 86bd
00000220: 5b22 9ebb 22cd 19bd dfd6 c33d 512c 823d
00000230: 8ff8 09be 958c 323c d23c 043b 157d f7bd
00000240: 4359 63be 3eda 7bbe f474 0f3d b4e3 1bbe
00000250: 1d16 423c cbe0 3cbc a656 b1be 7eb5 42be
00000260: 7601 01bd 0279 ce3d 402d 59bc 0ef6 0abd
00000270: 3651 623e f669 c5bd 1327 013e 12e3 bc3e
00000280: 431a 84bd 3129 253d 12f6 323d a161 823d
00000290: 9aab 32be b053 d93d e562 35be bc97 473d
000002a0: bfd6 e23e 96fb 9e3e e278 3d3e 63c1 73be
000002b0: 2751 61bd 10ef 1fbe 9b78 50bd 88b0 913d
000002c0: dd17 3f3c 84a9 463c 9a78 0ebd d27c 5bbc
000002d0: c69e 263e 0c58 383e 86d3 753e 7ec3 e9bc
000002e0: b124 bfbc 306f d8bc 0be0 0a3d 9485 2fbe
000002f0: 10a4 3cbd 8f4a 3dbd b841 d3bb 6dca fabd
00000300: b715 13be 40c7 cb3c 80a4 ec3d e782 66be
00000310: 8885 54be 00c6 85bc 2e3e 7c3e 64ae 71bd
00000320: e696 543e bc53 f13c 437e 0abe f602 463e
00000330: 3b6a fabd 7b77 63be 668f 87bd 5eb0 6abd
00000340: bc7e d6bd 9771 d1bc 4110 3b3e 30be 5e3d
00000350: 016b 5fbe 3322 963b a9d5 0b3e 1e8e 06be
00000360: 4b7c 33be 7936 643d 92ef 1c3d f7cb 6bbd
00000370: 4804 c83d 4991 3d3e 4555 c3bd 0695 033d
00000380: d319 c63d 75d8 7d3e b5b1 37bd c43c e7bd
00000390: 2902 113e 6f71 8c3d 1afd f1bc 5f08 8c3d
000003a0: 9afd 56be 5d84 09be 85f7 293e 1ee9 1d3e
000003b0: 98a3 8d3d a092 0e3d 4412 053d fbb5 c2bd
000003c0: fa58 0bbe ed82 c2bd 8f62 8ebe 5d55 e43d
000003d0: 67eb 37be d532 70be bc14 6a3d 1a32 bbba
000003e0: 69bb 3fbe b20f 563e 99ce 2e3d 106f a8bd
000003f0: ff00 5e3d 9d9c ac3d 3d38 023d 5563 88be
-0.13411544 -0.20566225 -0.14236455 -0.39563593 -0.014273488 -0.03484833 0.028124154 -0.26548713
0.10786205 -0.24156329 -0.002355514 -0.13439563 -0.09272394 -0.19013399 -0.07710987 -0.0043181474
0.17210856 0.04310387 -0.01588621 -0.35964927 -0.11961398 0.043905184 0.27727786 0.16842784
0.34666145 -0.09378722 0.045500334 -0.018482465 -0.16836527 -0.26863712 -0.007604995 -0.1359046
-0.26427847 0.023559373 -0.08423525 -0.2922634 -0.16460322 -0.022217866 0.030854948 -0.07003308
-0.0798292 -0.004758025 -0.10573751 -0.10135478 0.03429827 -0.011555285 0.09369354 0.24956402
-0.40273735 -0.07150759 -0.21277453 -0.33950272 -0.16646506 -0.13793531 0.0035197544 -0.1119315
0.082884684 -0.073449746 -0.072138995 -0.013401962 -0.08852897 -0.1527224 -0.031308986 0.034617804
0.0631622 -0.056824926 0.24049258 0.09462778 -0.064038865 -0.11885112 -0.14385456 -0.17925745
0.13911167 -0.00694245 -0.11525416 0.06509468 -0.08703061 0.07382633 0.08964571 0.12809753
0.14287569 0.0058925673 -0.020953896 0.12977025 0.08705548 0.084586956 0.26731032 0.42916083
0.36061105 -0.09128402 -0.14407505 -0.23555213 -0.008914455 -0.34957606 -0.21002741 -0.021023765
-0.33023867 -0.19080524 -0.044537447 -0.1911172 0.092356145 0.17470515 0.024558986 -0.035432596
0.08650643 -0.11170699 -0.09427426 -0.18438613 -0.23091932 -0.19109304 -0.10839929 -0.07339354
-0.09382003 -0.118248194 0.03037906 0.07293703 -0.0005523439 0.19571704 0.08053423 0.18912259
-0.060724862 -0.15889935 0.20970264 0.3226639 -0.06068167 0.102911144 0.07209993 -0.04901495
0.13540833 -0.06850553 0.07809028 -0.0032732354 -0.108065054 0.025022253 0.06315999 -0.065458655
-0.004825873 -0.037549146 0.09562468 0.06356109 -0.13473724 0.010897775 0.0020177853 -0.120844044
-0.2220202 -0.24594972 0.035023645 -0.1522358 0.0118460925 -0.011528204 -0.3463642 -0.19014546
-0.031495534 0.10081674 -0.013255417 -0.033926062 0.22101292 -0.09639351 0.12612562 0.3689199
-0.064503215 0.040322486 0.043691702 0.063662775 -0.17448273 0.10611665 -0.17713507 0.04872869
0.44304463 0.3105132 0.18503144 -0.2380424 -0.055009034 -0.15618539 -0.05089627 0.07113749
0.011663404 0.012125377 -0.034782983 -0.013396459 0.16271505 0.18002337 0.24006471 -0.0285356
-0.023332926 -0.026420206 0.03390507 -0.171408 -0.0460549 -0.046213683 -0.0064470433 -0.12245641
-0.14363752 0.024875283 0.115548134 -0.22510873 -0.20754063 -0.016329765 0.24633095 -0.059004202
0.20760688 0.029458873 -0.13524728 0.19337067 -0.12227293 -0.22213547 -0.06619148 -0.057297103
-0.104733914 -0.02556686 0.18267919 0.054380596 -0.21818163 0.0045817136 0.13655724 -0.13140151
-0.17527883 0.05571601 0.03831441 -0.057567563 0.097664416 0.18512453 -0.09537748 0.03212454
0.09672894 0.24789603 -0.04484721 -0.11290887 0.1416098 0.06857573 -0.029539634 0.06837534
-0.20995179 -0.13429399 0.16598327 0.15420958 0.06915969 0.0348078 0.032488123 -0.09507366
-0.1360816 -0.09497628 -0.2780957 0.11149094 -0.17960893 -0.23456891 0.05714868 -0.0014281899
-0.18723835 0.20904425 0.042677496 -0.082243085 0.05420017 0.08428309 0.031791914 -0.26638284

layer_2.0.0.conv1.bias f4 [32]
00000000: ccd3 bcbc 8375 663d 4aa7 debc 6b5d 6e3d
00000010: 20f8 66bc d23b a43c 712f 463d 6872 85bb
00000020: 3619 d43c f275 a13c 64bd bebc 6222 e13c
00000030: 34df 5c3c 9865 e8bb 9d8c 023d 8370 f8bc
00000040: 4a30 23bd 2f3e 1abd d7bf 3f3d 6568 663d
00000050: f988 4e3d 33f0 06bd de72 873c 9aa6 b13c
00000060: 64e5 febc 7cb4 14bd 410c 6fbd 68e7 68bd
00000070: b845 36bc 63ff 4b3d e843 78bc 1e7b 1dbd
-0.023050211 0.05626441 -0.027179379 0.05819456 -0.014097244 0.020048056 0.048385087 -0.004072476
0.025890928 0.019709561 -0.023283668 0.027482215 0.01348095 -0.007092189 0.03187238 -0.030327087
-0.039840974 -0.03765696 0.046813812 0.056251902 0.050423596 -0.032943916 0.016534265 0.021685887
-0.031115241 -0.036304936 -0.058361296 -0.05686131 -0.011125021 0.049804103 -0.015152909 -0.03844749

layer_2.0.0.bn1.weight f4 [32]
00000000: 8915 453f 2901 8b3f 7b8c 833f f2d4 e23e
00000010: 76ca 0740 3869 1c3f 6bbd 863f 897a e43f
00000020: ee78 0d3f c005 f03f db79 8f3f fccb ec3e
00000030: 9340 9a3f 6b31 9c3f d50a b93f 789c ec3f
00000040: a103 ce3f 8701 703f 3eb3 553f 18d0 a23f
00000050: bec6 093f d46c da3e d8f8 6f3f a69b cc3e
00000060: f632 dc3f 8947 fa3e 6977 dc3f 1985 d63f
00000070: d52f ee3e a905 b93f 4960 be3f 12c2 ef3e
0.76985985 1.0859729 1.0277246 0.4430309 2.1217322 0.6109805 1.0526556 1.7849895
0.5526265 1.8751755 1.1209062 0.46249378 1.2050956 1.2202581 1.4456431 1.848525
1.6094857 0.9375233 0.83476627 1.2719755 0.5381888 0.42661154 0.9373908 0.399625
1.7203052 0.48882702 1.7223941 1.6759368 0.46520868 1.4454852 1.4873134 0.4682775

layer_2.0.0.bn1.bias f4 [32]
00000000: 1d0f 16bd 582a bcbe 6d52 2d3e 043e 9e3f
00000010: eab6 acbf c4f0 c93e 7e28 a0bd 7cbf 81bf
00000020: 72df a43c 4dc7 49bf 8cad 43be ded3 103f
00000030: 94b2 45be ece3 3fbf 8e13 20bf 75cb 5ebf
00000040: 8ef1 53bf 836d 16be ce3e 1dbd 4e0d fbbe
00000050: 2d39 573f 3ac9 713f 6901 5bbd 4fd1 bb3f
00000060: 1aa0 70bf 41a3 b63f 9b89 4fbf 6875 63bf
00000070: 2c60 a53f 8c63 5dbf 7e85 72bf 54e5 983e
-0.036635507 -0.36751056 0.16925974 1.2362676 -1.3493321 0.39441502 -0.07820223 -1.0136561
0.020126078 -0.78819734 -0.19109172 0.56573284 -0.19306403 -0.74957156 -0.6252984 -0.870292
-0.8279046 -0.14690213 -0.038389973 -0.49033588 0.8407162 0.9444767 -0.05346814 1.4673251
-0.93994296 1.4268571 -0.81069344 -0.8885102 1.2919974 -0.8648002 -0.9473494 0.29862463

layer_2.0.0.bn1.running_mean f4 [32]
00000000: 8968 e2c0 7493 92c1 9d6c 8ec0 c9f1 1141
00000010: e167 82c2 769f a0c0 997b fcc0 e997 84c2
00000020: a7b6 09c1 193a 79c2 11e4 08c2 ae59 1441
00000030: e304 e4c1 30ec 24c2 c52e 3fc2 c49d 6ec2
00000040: db22 03c2 6229 aec1 abde 3dc2 79ae 0ec2
00000050: 4aba dc3f 3e3f c540 2bcf b2c1 10bf 5c40
00000060: e737 46c2 1836 1f41 bf8f 6ec2 ad57 41c2
00000070: 03d4 1341 d5ed e8c1 2dfa 3cc2 5471 abc1
-7.0752606 -18.321999 -4.4507585 9.12153 -65.20289 -5.0194654 -7.8900876 -66.2967
-8.607093 -62.306736 -34.22272 9.271894 -28.502386 -41.23065 -47.795673 -59.654068
-32.78404 -21.770206 -47.46745 -35.670383 1.7244351 6.16397 -22.351156 3.4491615
-49.554592 9.9507065 -59.640377 -48.33562 9.239261 -29.116129 -47.244312 -21.430336

layer_2.0.0.bn1.running_var f4 [32]
00000000: b001 b344 00ab 8d45 03c9 ae45 bebe 9743
00000010: aa86 bc45 1576 e043 5b75 1f44 7154 1a46
00000020: a460 4a44 7661 3346 734e 7345 a783 c843
00000030: 0df9 3345 1087 8e45 557f 8845 ed0a 2646
00000040: d393 c544 4d97 0645 3b5e 6745 1540 0d45
00000050: c34a ca43 474b 6943 3c5b 0645 2d3b 7943
00000060: d3b4 0746 67dc 9e43 5aef 3a46 9733 7145
00000070: 103f 9143 32d4 8244 0d30 a845 f589 ce44
1432.0527 4533.375 5593.1265 303.49017 6032.833 448.92252 637.8337 9877.11
809.51 11480.365 3892.903 401.02853 2879.5657 4560.883 4367.9165 10626.731
1580.6195 2153.4563 3701.8894 2260.0051 404.58408 233.29405 2149.7021 249.23116
8685.206 317.7219 11963.838 3859.2244 290.49268 1046.6311 5382.0063 1652.3112

layer_2.0.0.conv2.weight f4 [32, 32, 3, 3]
00000000: 8571 4fbe a6b5 b2bd fb11 1ebe 5369 23be
00000010: ac3a c23d 2d94 6ebc e321 0bbd 553c fa3d
00000020: 632d b33b 2309 183b 2a8f 253d 86f6 d8bd
00000030: cbd4 0ebd 64cf 893d e0b4 03be c3d8 25bd
00000040: 3ab7 08bb cecb e2bd edcd 24bd 950a aabc
00000050: 7743 30bd 06c6 0fbd 06ff c73d 8a3d 6d3d
00000060: c196 543c fade cbba 443e bb3d fd57 a7bd
00000070: fb1e 06bd a2be ec3c 8def 6d3c 3cd8 d23d
00000080: 9563 e4ba 026b a1bd 9f32 f43d 5291 a63d
00000090: 5d50 e43d 98c3 bf3c 09fd ecbc 7d17 233d
000000a0: 08c0 6e3d 49c7 eebc 53e5 c13b 60e9 17be
000000b0: 9a5c b4bd ff1e b2bd a99c b73d 32a7 343d
000000c0: 02de 34be 01fe d43c eeed 1d3e f853 8d3c
000000d0: 2268 7f3c ea15 3f3d 1efc a1bd 95ad aabd
000000e0: c700 76bd ea09 ad3d 32fa 543e 168c 7bbd
000000f0: 905b c33c 920a 073e 9c58 0bbd ecf1 a2bd
00000100: 5ca0 a03b 53d3 80bd b231 86bd 6dfe bbbc
00000110: 0055 6ebd 44b0 163c feb6 563d 55bd 3cbd
00000120: 7613 f83d 81e6 3d3e 9932 343e 82ed 8d3d
00000130: 74bd 20bc ef02 00bc 3b02 69bd 25d9 11bd
00000140: f977 513d 8449 dfbd 6cdc c13b a20b 08bd
00000150: 5d8e 113d d56e 863d 6c2f 7c3d 2a2b 46bd
00000160: b9fb 103d bd27 03bd c2d0 583c fecf 7ebb
00000170: 964f 93bc ab5d 9e3d d426 54bd 9ae2 48bd
00000180: f556 0f3e 9ba0 203c 8ce7 283d b443 7dbe
00000190: 2121 97be 0ffa a0be b79e 4d3d 44bb dcbd
000001a0: 45dd 5bbe b15e 083e 6223 383e 309a a23d
000001b0: 0dac d3bd 5547 a6bd ce58 fd3c f862 81bd
000001c0: ee0e 3fbd 9ec2 68bc f75a 92bd 0c68 29bd
000001d0: 80ff 08bd d30f 18bd 41d3 0dbd 2378 71bd
000001e0: 896b abbc a6ba 5b3c 3454 933c 03ad f73c
000001f0: 65ad 683d 4dc2 113e abfe bdbd eedd a1bc
00000200: 736b 78bd bb0c a1bd ccac a43d 3b5f 8b3d
00000210: c252 bebd 93a7 763d da2a f2bc dbec 313e
00000220: 0f82 e63d db85 fe3d 9418 c43d a553 a8bd
00000230: 558f e3bd de77 eb3d 8e25 34bd 62d7 ebbd
00000240: d696 c8bd 04cc 8cbd 839c 28bd 2f0a 88bd
00000250: 9bf7 a63d b460 743c b726 55bd 1db8 b93d
00000260: 3550 12bc 2d50 ffbd cb0e 8ebd 0f41 f8bd
00000270: cf19 5c3d 64c1 323c 924c 30bd 17c4 16be
00000280: 4ca2 acbc fa7a 3abd 6b25 0f3e 99f5 253e
00000290: 2116 a33d 6c8f 513c c673 583d bdc6 06bd
000002a0: bfea ad3b ac77 fe3d 79c3 bd3d 886f 72bd
000002b0: fbc2 633d 6f1b a4ba 6712 203d f675 8c3d
000002c0: 0bcd a83d dc68 aabd da8e 6f3d 1d8b c7bd
000002d0: b640 4bbd 4065 1fbc aff7 37bd 9c25 80bd
000002e0: 2326 5e3d 9b97 1a3d d39e b93c d259 6a3d
000002f0: 9e80 8ebc 72f0 b53d 9317 013e 0b4a f13d
00000300: aeaf 17bd eff4 623d 20a6 0c3d 1552 ba3b
00000310: 8e9e 393e 2ad4 f6bc 94f7 103d 1062 48b7
00000320: 0bce 2f3d bdf8 75bd a6da 4abc 3c7b 023e
00000330: f0e1 943c e2ac a83d 6e91 853d b36f 17be
00000340: d142 673e 9337 d4bd 9346 b33d fc9e 483e
00000350: 360d 27bb 7a4a 703d 4eea 1a3e 4746 033d
00000360: 7866 d83d 7523 03bc 4a05 9bbc 346d de3b
00000370: a11a f5bb ff1d 4bbd 440b babc d16c 3c3a
00000380: e6d2 e63c dd89 dfbd 1db7 0a3e 92b2 d4bd
00000390: 45f4 a9bc c069 a53d 9d7f 37bd 6b7d fdbd
000003a0: 7ac5 5b3d 753f 10be 97f0 403e 2b4f c03c
000003b0: 7a34 153e a3e6 0d3e 65e5 a4bc d86b 183d
000003c0: d151 1d3e 8619 963b 4573 8d3d 03c9 1ebe
000003d0: 2bd9 69bd 8798 78bc 24ba 9bbc 067a 843d
000003e0: bd97 e0bb 3e13 81bd b667 f53b 7dca 6dbd
000003f0: 81a8 1abe e37d 1abb 7da5 a5bd 4b6d 03bd
-0.20258148 -0.08726053 -0.15436547 -0.15958147 0.09483847 -0.014561695 -0.033967864 0.12218539
0.005468057 0.0023198805 0.040419735 -0.105938956 -0.034870904 0.0672901 -0.12861967 -0.040489923
-0.0020861165 -0.11074029 -0.04023545 -0.020756999 -0.04303309 -0.03510096 0.09765439 0.057920016
0.012975396 -0.0015554123 0.091427356 -0.08171079 -0.03274439 0.028899495 0.014522445 0.1029515
-0.0017424697 -0.07881738 0.11923718 0.081331864 0.111481406 0.023408696 -0.02892925 0.039817322
0.058288604 -0.029147761 0.00591723 -0.14835119 -0.08806725 -0.08697318 0.089654274 0.044104762
-0.17662814 0.026000025 0.15422794 0.017251953 0.015588792 0.04665176 -0.07909416 -0.083338894
-0.060059335 0.084491566 0.20798567 -0.061412893 0.023847371 0.13187626 -0.03402005 -0.07956299
0.004901929 -0.06290307 -0.065524474 -0.022948468 -0.05818653 0.009197298 0.05242061 -0.046079
0.12113087 0.18544962 0.17597426 0.06930067 -0.009810794 -0.007813199 -0.056886893 -0.035607476
0.051139805 -0.10902694 0.005916169 -0.03321422 0.03553616 0.06564108 0.061568663 -0.04838101
0.03539631 -0.03202032 0.0132333655 -0.0038881297 -0.017982285 0.077327095 -0.051794842 -0.04904423
0.13998015 0.009803916 0.041236445 -0.24732858 -0.29517463 -0.3144078 0.05020019 -0.107779056
-0.21471126 0.13317372 0.17982247 0.07939565 -0.103355505 -0.08119074 0.030926134 -0.06317705
-0.046645097 -0.014206557 -0.071462564 -0.041358992 -0.03344679 -0.037124466 -0.034625296 -0.058952462
-0.0209253 0.0134112 0.017984487 0.030233866 0.056805987 0.14234276 -0.0927709 -0.019759145
-0.060649347 -0.07863756 0.08040771 0.06805273 -0.092931286 0.060218405 -0.029561449 0.1737551
0.112552755 0.12427875 0.095750004 -0.08219079 -0.11111323 0.11497472 -0.043981127 -0.115156904
-0.09794395 -0.068748504 -0.041164886 -0.06642567 0.08152696 0.014915634 -0.052038874 0.0906832
-0.008930256 -0.12466464 -0.06936415 -0.12121784 0.05373555 0.010910366 -0.043041773 -0.1472324
-0.021073483 -0.045527436 0.13979118 0.1620697 0.07963205 0.012790542 0.052844785 -0.032904375
0.005307525 0.12425169 0.09265799 -0.059188396 0.05560587 -0.0012520383 0.03908005 0.06858437
0.08242234 -0.083207816 0.058485843 -0.09743331 -0.04962226 -0.00972873 -0.044913944 -0.062571734
0.05423559 0.03774224 0.022658741 0.057214566 -0.017395314 0.08883752 0.12606649 0.11781701
-0.037032776 0.055409368 0.034338117 0.0056860545 0.1812689 -0.030130465 0.03539236 -1.1943761e-05
0.042921107 -0.06005167 -0.012381231 0.12742323 0.018174142 0.082361 0.06521879 -0.14788704
0.22584082 -0.103621624 0.08753695 0.19591898 -0.0025490052 0.058664776 0.15128443 0.032049444
0.10566419 -0.008004059 -0.01892342 0.0067879204 -0.007479981 -0.049589153 -0.02271045 0.0007187846
0.028176736 -0.10914967 0.13546415 -0.10385622 -0.02074636 0.08076811 -0.044799436 -0.12377437
0.053655125 -0.14086707 0.18841778 0.02347525 0.145708 0.13857512 -0.020128915 0.037212223
0.15363242 0.0045806793 0.069067515 -0.15506367 -0.057091873 -0.015173084 -0.019009657 0.064685866
-0.006854026 -0.06302498 0.00748917 -0.058054436 -0.15103342 -0.002357357 -0.08088205 -0.03208665

layer_2.0.0.conv2.bias f4 [32]
00000000: 4ae6 a73c bb76 48bd 47d2 6d3d aa54 c53c
00000010: fbe4 103d d855 1d3b dee8 f93c cd32 023d
00000020: 2165 65bd 3ed8 b73c 3d15 ffbc 6f08 8bb9
00000030: cb15 133d 88e0 a93b a0b8 aebb c123 4e3d
00000040: e7b9 483d a27a d83c 9088 b8bb 6fe8 433d
00000050: 4513 79bb fe6e 9dbc dccf 34bc 5c0c 31bc
00000060: 782c 60bc 1d35 6b3d 3f04 463a 9158 273d
00000070: ff73 6aba 1397 4f3d 5387 453d 93be 0cbd
0.020495553 -0.048941355 0.058061864 0.024088223 0.035374623 0.0024007466 0.030506548 0.03178673
-0.056004647 0.02244198 -0.031138057 -0.0002651843 0.035909455 0.005184237 -0.0053320676 0.050327066
0.049005415 0.026425663 -0.005631514 0.047829088 -0.003800587 -0.019217964 -0.011035886 -0.010806169
-0.013682477 0.0574237 0.00075537333 0.040855948 -0.00089436764 0.050681185 0.04822476 -0.034361433

layer_2.0.0.bn2.weight f4 [32]
00000000: 9229 1f40 fd7d 6640 fb22 7340 4f58 8840
00000010: 0227 6240 4717 8a40 ffee 8540 ba1c 5540
00000020: aabd 5040 b099 2640 e7ab 3940 af84 9440
00000030: 2d89 8140 1f9b a540 fe9b 9d40 e221 8d40
00000040: 8d1c 8b40 2570 8940 c8d4 9440 5a65 9c40
00000050: 27bd 9b40 c6b8 8b40 c0e2 ae40 ae94 4940
00000060: d2a8 7940 ed10 5a40 d6b9 5340 b2b3 9b40
00000070: b71c 2140 43f7 7440 e3ed 9640 55eb a240
2.4869123 3.6014397 3.79901 4.26078 3.5336308 4.3153415 4.1854243 3.3298783
3.2615762 2.6031303 2.901117 4.6411967 4.047995 5.1751857 4.925292 4.410386
4.347235 4.2949395 4.6509743 4.887372 4.86684 4.3663054 5.4651794 3.1496997
3.900929 3.407283 3.3082175 4.8656855 2.5173776 3.8275917 4.716539 5.091227

layer_2.0.0.bn2.bias f4 [32]
00000000: 0a66 0d3f 2a95 6b3f e80d b03f 416d de3f
00000010: 0dc6 6d3f a188 c73f 28b3 da3f 1227 7a3f
00000020: 64d1 933f 7771 973e eb54 073f f7ca 0f40
00000030: 3810 0040 6862 1440 4a13 d73f 4d30 0340
00000040: 7e6e e03f e929 b83f 1132 f53f a5e6 d73f
00000050: 9845 933f 9e86 ee3f 81c0 0e40 38da a83f
00000060: 468d 8f3f f1fc 5f3f 5476 523f 39cc 1840
00000070: 0e24 143f 4777 473f 4e19 e73f 0a56 ec3f
0.55233824 0.9202448 1.3754244 1.7377092 0.92880327 1.5588571 1.7085924 0.97715867
1.1548276 0.29578754 0.5286395 2.246763 2.00099 2.3185062 1.6802762 2.049823
1.753372 1.438779 1.9155904 1.6867262 1.1505613 1.8634832 2.2304995 1.3191595
1.1214988 0.8749533 0.82211804 2.3874648 0.57867515 0.7791638 1.8054597 1.8463757

layer_2.0.0.bn2.running_mean f4 [32]
00000000: 0f2e 3c3e f5c6 1d3f 6c28 263f 12a8 41be
00000010: 73fc 2dbe 5e7c 413e 1498 e43d 180f dcbd
00000020: 3f13 333f 783f 0140 bb53 2a3f 73e7 893e
00000030: ba04 023f 0fba a7be 69fd 8a3d 0da4 acbf
00000040: f51b 85bf df31 b23f 1df3 b2be 2839 9abe
00000050: 309d 93bf a639 0ec0 f40e 113f cfe8 6e3f
00000060: f2be 9abf eba2 afbe 341f 4b3e d0e6 233f
00000070: 60c6 8bbf 51a5 713e 0644 803e 159a 4b3d
0.18376945 0.6163171 0.6490543 -0.1891177 -0.16990833 0.18895099 0.11161819 -0.107450664
0.6995124 2.0194988 0.6653401 0.26934394 0.5078846 -0.3275914 0.067866154 -1.3487564
-1.0399157 1.392147 -0.34951106 -0.30121732 -1.1532345 -2.2222686 0.5666344 0.9332399
-1.2089522 -0.34303984 0.19836122 0.64024067 -1.0919914 0.2359822 0.25051898 0.04970749

layer_2.0.0.bn2.running_var f4 [32]
00000000: f54a fd3e 621f 053f 5b4c f43e 46dd 193f
00000010: 1900 e53e 5d68 0d3f 6a04 fe3e 4c58 8f3e
00000020: 01d9 a23e a333 e93e c963 373e 1b52 553f
00000030: 224a 853f e039 2c3f 4f8c 633f 5149 113f
00000040: bd75 093f e835 033f f0ea 1e3f b861 233f
00000050: bb19 1f3f 5139 4b3f c41d 933f b45c d23e
00000060: 7ee3 f03e 1f33 ba3e 5ac5 003f 697a 753f
00000070: a319 be3e 076d ac3e 526f cf3e ad89 b93f
0.4947125 0.5200101 0.47714505 0.6010326 0.44726637 0.5523737 0.49612743 0.27997053
0.31806186 0.45547208 0.17909159 0.8332841 1.0413249 0.6727581 0.8888597 0.56752497
0.5369528 0.5125413 0.62077236 0.6382098 0.62148637 0.7938433 1.1493459 0.41086352
0.47048563 0.36367127 0.50301135 0.9588991 0.37128934 0.3367693 0.40514618 1.449514

layer_2.0.1.conv1.weight f4 [32, 32, 3, 3]
00000000: aaba 1e3e 8c1a 213e 9f8d 8e3e e402 133d
00000010: 9dd2 0c3c 4102 cb3d c6bd 0dbd f1f1 cf3b
00000020: e6a1 cdbd ad95 323e 66b8 053e ec14 d13e
00000030: 8c7c b4bd 6d8d 49bd a13d 3f3d b35c 04bf
00000040: ee33 61be 5a92 e7bc 040c 1b3e 8a8f 743d
00000050: e5c8 22be e278 153e dce4 07bd 975e 2cbe
00000060: 99f9 763e d9ea faba 1ce2 b2bc 76e0 e4be
00000070: e7bb 4cbe ccca dc3c 55b4 7abe 541e af3d
00000080: 4794 193e 8948 763e 8ce1 bb3e e573 0f3f
00000090: 6031 3cbc 748d f7bd ab01 dbbe 00e7 1d3d
000000a0: ae31 b1bd 8fc4 50be 36f2 6e3e 3a29 6a3c
000000b0: f39a 6cbd edd2 ffbe 16b6 4abd 8169 ba3d
000000c0: 0c38 d4be e04a cd3d bd1e a7bd e627 0ebe
000000d0: cf9a b13d cef4 c73e be36 4dbe 2963 3cbe
000000e0: a4ae 44be 212a 1f3e e0b3 683d a595 16bc
000000f0: f5fa a83e e89b 0a3d f82e 953d fdba 883d
00000100: 74ff d63d 2842 883e 1ad5 653d 6cb9 df3d
00000110: d90c 89bd 20a1 55bd cace 51bd 5d4b 263d
00000120: 28cb e7bd 5b18 9ebd f340 8fbe 1815 22bd
00000130: a12d 01be f159 4d3d b144 a93d 5722 803c
00000140: 32d7 3f3d 214a 1c3e bb94 b03d d919 363e
00000150: f801 c8bd 88f0 3bbe 8168 bebc bf57 483d
00000160: 03b9 98bd d32f 3cbd 15c4 18be 19ae f43d
00000170: 6cdb 343e f594 04bd 1cea febd 5268 bd3c
00000180: da81 8c3c a617 c03d 5fda 1a3e 73bc 16be
00000190: 34e4 983d df44 c43e 4f72 adbe f8c8 d6bd
000001a0: 0197 333e 4766 b3be fa4a c63c b7ec ae3e
000001b0: cee4 7ebe 244b 67be 9ef8 21bf 824b d9bc
000001c0: dac2 b93d 0241 adbd db6a 003f 2f00 9a3e
000001d0: 6622 b63e a977 5e3f eb91 ba3e c7f3 ec3d
000001e0: e422 673e a073 4a3e 2473 8cbe 389c debe
000001f0: 9dff a7be c943 77bf 6765 d9bd 435b b23e
00000200: 7597 3c3f b5d2 77be c1f7 e63d 6040 8a3e
00000210: 809f 18bf 9c7b 06be 0489 4a3e 95ba c93e
00000220: b884 093e 9363 933e 5fa4 de3d 9696 03be
00000230: 5fc3 bc3d 5089 8bbe c632 3abe aa7e 1ebe
00000240: fda2 5abe a247 f53d a418 393e 8298 2fbe
00000250: 94a1 22be d895 87bd e1ae 5c3e 4cf9 3a3e
00000260: 7e0f 473e 3d19 793e ef16 533d 4b0f 01be
00000270: 5a95 6c3d ee35 223c ef11 93be 9589 ce3c
00000280: 019a dabd af6f d8be 8c23 313f 2d60 9f3e
00000290: 5611 5cbe 54eb a53e 14d9 243d b549 9cbe
000002a0: 1a4d 4e3e 5c26 38be a91f 2fbf 7742 dd3e
000002b0: b7cf f4bd 2782 98be 439d 8a3e a24b b6bd
000002c0: baff 87be 6e26 b33e 7efb 1dbe 5dfb cabe
000002d0: dd21 7c3d 5937 113e 0b50 4e3e 885c b2bd
000002e0: c1c0 d4bd 6ae1 863c c14a abbc c842 a93d
000002f0: 2875 4c3d 91bb babe 6eee c9be b9a6 58be
00000300: 15b5 a9bc 6ee2 c4bd cb1d cd3d f664 233e
00000310: f1bd 143c 9a07 853e 1589 dfbc b4f3 863d
00000320: b036 543f 5e15 2cbe 5f39 7dbd 8c35 af3e
00000330: 3b75 29bf a6dc bcbe a047 093e 56c7 1ebe
00000340: 300f 823d b46a 3b3e 7280 7a3d bc6e 133e
00000350: 18af 2d3d 3e19 d4bc c351 29bd ae17 923c
00000360: a330 d73d f586 9f3a 4e41 bc3d c129 e93d
00000370: 4c0d c1bd cf08 ad3d cdb2 6fbb f611 5fbe
00000380: 527e 32be 5d12 b8bc c4c1 e33d 561e 263e
00000390: 3378 c8bd e281 4c3e 9cad 293e d252 12be
000003a0: d804 083d 1e49 3d3d be15 90be 392a 72be
000003b0: 8ede 5abe f988 54bd fc89 67bd 9ea4 3d3d
000003c0: e4c8 56bc 9ec1 f83c 1587 843e 18a8 84be
000003d0: 9df9 d5be be9a 51bf 48b1 0c3e 79b4 1fbe
000003e0: 6095 b0bd 6714 483f 4926 9b3e 3900 cb3e
000003f0: a8f1 37be e035 f3bd 5942 26bd 6fd8 783d
0.15500894 0.15732783 0.27842423 0.03589143 0.008595136 0.09912539 -0.03460481 0.0063459803
-0.10040645 0.1743991 0.13058624 0.40836275 -0.08812818 -0.04920714 0.046689633 -0.5170395
-0.21992466 -0.028268028 0.15141302 0.059707202 -0.15896948 0.14596894 -0.03317724 -0.16832958
0.24118651 -0.0019143476 -0.021836333 -0.447025 -0.19993554 0.02695217 -0.24482854 0.085507065
0.1499797 0.24051107 0.36695516 0.56036216 -0.011486381 -0.12087527 -0.4277471 0.038550377
-0.08652054 -0.20387481 0.23334584 0.014292056 -0.05776496 -0.4996561 -0.049490057 0.091021545
-0.4144901 0.10024047 -0.0816016 -0.13882408 0.086721055 0.3905396 -0.20040414 -0.18397202
-0.19207245 0.15543415 0.056812167 -0.0091909515 0.33003965 0.03384009 0.07284349 0.0667629
0.104979426 0.26612973 0.056111433 0.10924038 -0.066919036 -0.052155614 -0.0512226 0.040599216
-0.11318046 -0.07719489 -0.2797924 -0.039570898 -0.12615062 0.050134603 0.08265055 0.015641375
0.046836086 0.15262653 0.08622118 0.17783298 -0.097660005 -0.18353474 -0.02324319 0.048911806
-0.07457163 -0.045944046 -0.1491855 0.11947269 0.17661828 -0.03236862 -0.124469966 0.023121033
0.017151762 0.093795106 0.15122364 -0.14720325 0.07465401 0.38333794 -0.33876273 -0.104875505
0.17538072 -0.3503897 0.024205673 0.34164974 -0.2489197 -0.22587258 -0.63269985 -0.026525263
0.09070368 -0.08459665 0.5016305 0.30078265 0.3557312 0.86901337 0.36439452 0.11569934
0.22571903 0.1977067 -0.27431595 -0.4347856 -0.32812205 -0.96587807 -0.10615044 0.34835252
0.73668605 -0.24201472 0.11277724 0.2700224 -0.5961838 -0.1313309 0.1977883 0.39400163
0.13429534 0.28786907 0.10871195 -0.12850413 0.092169516 -0.272532 -0.18183431 -0.15478006
-0.21351238 0.119765535 0.18075806 -0.17148021 -0.1588195 -0.06620377 0.21551086 0.18259162
0.19439504 0.24326034 0.051535543 -0.1260349 0.05775962 0.009900553 -0.2872462 0.025212089
-0.10673905 -0.42272708 0.69194865 0.31128064 -0.21490988 0.32406104 0.040246084 -0.30524984
0.201466 -0.17983383 -0.68407685 0.4321477 -0.11953681 -0.29786798 0.27073106 -0.089011446
-0.2656229 0.34990257 -0.15427968 -0.396449 0.061555732 0.1418127 0.20147721 -0.08709055
-0.103883274 0.016464908 -0.020909669 0.08264691 0.049916416 -0.36471227 -0.3943972 -0.2115735
-0.02071623 -0.096135005 0.10015448 0.15956482 0.009078489 0.25982362 -0.027287045 0.065894514
0.82895947 -0.16805026 -0.06182229 0.3422054 -0.66194504 -0.3688709 0.13406229 -0.15505728
0.06350553 0.18302423 0.06115765 0.1439771 0.04240331 -0.025890943 -0.04133774 0.017833557
0.105073236 0.0012170958 0.091921434 0.11384917 -0.09426364 0.08448946 -0.003657508 -0.21784195
-0.17431 -0.022469694 0.11120942 0.1622251 -0.09788551 0.19971421 0.16570133 -0.14289406
0.033207744 0.046212308 -0.28141588 -0.23648919 -0.2137396 -0.05188844 -0.056528077 0.04629957
-0.0131094195 0.030365761 0.2588431 -0.25909495 -0.41792002 -0.8187674 0.13739502 -0.15596189
-0.08622241 0.7815613 0.30302647 0.39648607 -0.17963278 -0.1187551 -0.040590618 0.060753282

layer_2.0.1.conv1.bias f4 [32]
00000000: be75 8fbc ca92 dc3c c93b 243d c63c e83c
00000010: c202 36bd 7c81 5c3c ba47 cf3c 2cc1 61bd
00000020: bd89 183d 6ed0 ba3c 8420 72bc 1445 9cbc
00000030: be41 33bd 8d4d 323d 8f11 fabc c780 663d
00000040: e41b 143c 8217 f1bc 3fb4 1d3d 0e24 e83c
00000050: 91b1 52bd a33d 413d 80d0 f239 ea80 a13c
00000060: cadf 05bd 92c0 a73c a46a 7e3c 0fa9 58bd
00000070: 6729 5c3d 89bf 4e3d 711d 08bd 7fd7 083d
-0.017512199 0.026925463 0.040096078 0.028349292 -0.044436224 0.013458606 0.025302757 -0.055115864
0.037240732 0.022804465 -0.01477826 -0.019075908 -0.04376387 0.04353099 -0.03052595 0.056275155
0.009039853 -0.029430155 0.038501974 0.028337505 -0.05143887 0.047177922 0.00046313182 0.019714791
-0.032684125 0.020477567 0.015528355 -0.0528956 0.05375042 0.05047563 -0.033231203 0.033408638

layer_2.0.1.bn1.weight f4 [32]
00000000: 5d16 093f a4ac 893f 1c29 923f 402b ab3e
00000010: 2245 e33e 0885 a83f eda5 bd3f 22b6 1f3f
00000020: 4d81 473f 6ad6 f03e 2f89 ca3f 83db 9a3f
00000030: 531d 903f 87c9 a93f 1062 223f 4c00 663f
00000040: 8bd3 063f dbfd 233f dd9b 063f 62a7 863f
00000050: e965 8a3f e645 e33e a391 433f 1e87 a23f
00000060: d573 a13f 44ab c03f 849b b53f b63b 443f
00000070: fa18 ad3f a7dc 8d3f 16ec 933f 75fa 4a3f
0.5354975 1.0755811 1.1418796 0.33431435 0.44388682 1.3165598 1.4816262 0.6238729
0.7793167 0.47038585 1.5823115 1.209824 1.1258949 1.3264626 0.6343088 0.89844203
0.5266654 0.6405923 0.5258158 1.0519831 1.081235 0.44389266 0.763941 1.2697484
1.2613474 1.5052266 1.4188085 0.7665361 1.3523247 1.1082963 1.1556423 0.7928842

layer_2.0.1.bn1.bias f4 [32]
00000000: 13ec a83f 7e40 92bd 38cf 87be d805 313f
00000010: b3b2 923f cccd 13be 5cb5 26bf 4108 d03e
00000020: 120b 5a3e 1724 8f3f a5c4 0bbe 537e d3be
00000030: 865b 87be 24e7 22bf 0f1c a13e 71f9 82be
00000040: 29c7 6a3f 6b8e 223f 3990 fe3e 7293 77be
00000050: 7c4f 99be 36bf 733f 09f9 063e 597b 2ebf
00000060: e754 c2be 19b5 85bf 36c3 31bf 2230 70bd
00000070: a54b 45be cd93 d6be 6589 01bf 0a79 18be
1.3197044 -0.07141207 -0.26525283 0.6914954 1.1460785 -0.14433974 -0.6512048 0.40631297
0.21293285 1.1182889 -0.13649233 -0.41307315 -0.26437014 -0.6363394 0.3146672 -0.25580934
0.91710144 0.6349856 0.49719408 -0.2417734 -0.29943454 0.9521364 0.13180937 -0.68156964
-0.379554 -1.0445892 -0.69438493 -0.058639653 -0.19267137 -0.41909638 -0.5060027 -0.14889923

layer_2.0.1.bn1.running_mean f4 [32]
00000000: cbf0 3241 e879 04c2 48e0 0ac2 327c 8541
00000010: 5cb8 05c0 60f6 32c1 8d87 49c2 c5a7 e6c0
00000020: 97ae 2bc1 f06a 6441 135d fac1 a154 34c2
00000030: fa5f 3fc2 b7d4 36c2 e413 febf 3e96 36c1
00000040: 19b3 24c0 bd67 bbc0 559e 0fc0 9003 0ac2
00000050: dcc0 86c1 bf1c 3041 44d2 06c1 23d8 41c2
00000060: b822 0dc2 553e 8ac2 03c5 7fc2 5806 b3c1
00000070: 1e3c d7c1 7043 32c2 642d ffc1 fc3c d5c1
11.183787 -33.11905 -34.719025 16.685642 -2.0893774 -11.18515 -50.382374 -7.2079797
-10.730124 14.276108 -31.295446 -45.082645 -47.843727 -45.70773 -1.984982 -11.41168
-2.5734313 -5.8564134 -2.2440388 -34.50348 -16.84417 11.007018 -8.426334 -48.46107
-35.283905 -69.12174 -63.942394 -22.378098 -26.904354 -44.565857 -31.897163 -26.654778

layer_2.0.1.bn1.running_var f4 [32]
00000000: 9005 b243 373f da44 7997 4944 c909 1644
00000010: 00f6 2a43 1532 ec44 6c15 dd44 a1c8 b543
00000020: 2792 0444 6a66 9543 6e12 8745 cd39 5f45
00000030: 8e4e 4445 959a 3645 71bd a943 9ef8 5c44
00000040: 8d9e e543 b6e6 d343 9aa8 9643 4615 0645
00000050: fafe 4444 9fd2 8043 3b55 cd43 cae0 2345
00000060: 398b 1c45 ce09 aa45 06e4 5545 d9ba a844
00000070: df61 0e45 e814 c344 d7a7 c544 2594 ab44
356.04346 1745.9755 806.36676 600.1529 170.96094 1889.5651 1768.6694 363.5674
530.2836 298.8001 4322.3037 3571.6125 3140.9097 2921.6614 339.48 883.88464
459.23868 423.80243 301.3172 2145.3296 787.984 257.64548 410.66586 2622.0493
2504.7014 5441.2256 3422.2515 1349.839 2278.117 1560.6533 1581.245 1372.6295

layer_2.0.1.conv2.weight f4 [32, 32, 3, 3]
00000000: 3f4c 3d3d 1e9e 8a3c f3fd 2b3e 97f2 13bd
00000010: b012 cdbc a4b7 80bc 74a8 6ebd 1ef2 bab8
00000020: 14dc 48be 31ab 1bbd a81e 4e3d 2581 0bbd
00000030: fe41 8ebe 7cd6 073e faf3 953d e176 d03c
00000040: 31b2 dfbc 939a 253c 2714 6ebe 2a1f d0bd
00000050: 8661 4cbe 9f60 35be c731 b0bd 0ad6 e9bd
00000060: 2267 6fbe 7bb8 b3bd cbe0 62be 90b1 2cbe
00000070: 6d36 a8bd e556 f53d a302 efbb 4a10 d93e
00000080: f3ef a53e 1e16 c4bc 6fbb 12be b19a 003e
00000090: d0f3 a0bd aa38 d7bd 3204 11be 71dc 8e3d
000000a0: a377 bf3c 800a 233d 7775 f63d 87f6 b03e
000000b0: 7ce2 b53d 58de 6d3d 80ec 693d eaee 9bbd
000000c0: c722 abbd 38e6 023e 70ce c7bd 71af d5bd
000000d0: 4f81 e6bc f442 21bd 13ce 0abe 5ebd 33bd
000000e0: 65b5 76be d4e3 ba3d 7a67 7abe f0c2 09be
000000f0: b168 b6bd fc52 a3bd f6b0 16be ff91 b73d
00000100: 852b 3c3d b915 c5bc a09f b43d 47bd a43c
00000110: d0fd bbbc 242a 1ebe 56b1 5abe 10fd 0ebe
00000120: dff8 633c a02e 303d f200 b33d 3313 b83d
00000130: 6c28 6e3e 2623 fb3d 0432 8a3d 64c4 4c3d
00000140: 1eae 843d e6b6 e0bb 036a d8bc 1662 d7bd
00000150: 1240 0ebd 9da8 6d3d 188f 3c3c 6021 17bc
00000160: 3e84 fd3c 504e a03c 8ff0 c5bd cfa1 3e3d
00000170: f280 f0bd 2f3b 1dbe 8c37 6b3e 2039 a63b
00000180: 1610 ddbd 4e81 38be 98d0 83bd 224e 0b3e
00000190: f910 9abb 0fd3 d33d 5035 923d 4f6d 3fbd
000001a0: 1595 19bd 571d 77bd ffaf eabd 73ea c8bd
000001b0: a9cc 993d a244 b03d 7e42 b23d 6b9e 8bbc
000001c0: f2b7 893d 0693 40bd ad59 b43d cfae 843d
000001d0: 277c 063d 4349 67bc 1c37 5fbd dfaf 6f3d
000001e0: 3e9c 1d3c 3444 6f3d f7c3 363e 39ab 2f3d
000001f0: f4eb d93d e2c6 653e 03dc 153c a7f0 fb3d
00000200: 5e7d e7bb 4791 a13b 1c75 873d 04ca 1f3d
00000210: afe7 b5bc 1b2a a1bc 54f1 4c3d da19 dbbd
00000220: 6fb6 d8bb c216 09bd 297e 12be c4eb 083d
00000230: ba59 b73c c7c1 adbd 1570 0dbc 2f67 2abd
00000240: c1f7 493d 3caf 5b3b 7e37 dd3c de52 a5bd
00000250: f444 96bd 2382 0dbe 2a29 77bd 4b63 f9bd
00000260: 485f 14be b7dd cf3d e70b 7d3c fd0c 4e3c
00000270: 0385 013c 5c18 383d e8c6 be3b 8020 b03d
00000280: 76c8 a83d 1619 c5bc 8320 dbbd 384b 0cbd
00000290: 511e 05bd 6f91 9abc 71a9 a6bd 1724 3fbd
000002a0: 72f5 883d 446b 2c3e da90 103e 5222 abbd
000002b0: 17f6 4dbd 224f d4bc 2c15 5dbd ecfc abbc
000002c0: 298b 1cbd ba30 733d b717 a73d ab71 d53d
000002d0: edb6 7abd d342 33be ead9 1abe 4eae e13b
000002e0: 2793 dabc c4c5 70bd 8c7e 6fbd edee b2bc
000002f0: 1701 00bd 8d28 353e 4f72 8f3d 664a 9ebd
00000300: 0edb 563d 56fa 7fbc b1be 08bd 2434 873d
00000310: 7944 a1bd 5323 b3bd e865 763c 0e25 843d
00000320: 2a54 34bd ca60 77bd e28f 883c ef2d b5bd
00000330: d551 a3bd d439 9fbd 8403 44be 7592 4d3d
00000340: a9bf 1f3d 0df5 9d3c dc4c 663d a065 a23d
00000350: 2b68 393d 0da3 b03d cb84 883d faa5 863d
00000360: 7903 30bc 34c9 23be 3075 36bb d4fc 0c3c
00000370: 8918 12be 7d64 263a 2504 2cbc f3f9 b5bc
00000380: 5099 a83d 4ba7 92bd 9797 163d ae4c 9bbd
00000390: 05de a73c c0fd 8c3d 8231 753d b620 613d
000003a0: 86b4 643e 7079 343d fb2a e7bd 2fcf cd3c
000003b0: c7d1 56bb a04a 653d 881a 813d 96b8 6f3c
000003c0: 53ae 5c3d 3ed5 3d3d 2436 923c 806a 10bc
000003d0: 385e 673d 5abc 973c d879 4abd 893e c53d
000003e0: e6e5 063d cf2c c23d 2ee4 a2bd ca2d f2bd
000003f0: 968f c83c adc0 883a 23d2 d43d 5c53 a53d
0.046215292 0.0169211 0.16796093 -0.036120024 -0.025033325 -0.015712567 -0.05826612 -8.914269e-05
-0.19615203 -0.038005058 0.050322205 -0.03405871 -0.27784723 0.13265413 0.073219255 0.02544731
-0.027306648 0.010107654 -0.23249875 -0.10162194 -0.19959077 -0.1771264 -0.08603244 -0.11417778
-0.23379186 -0.08775421 -0.22156064 -0.1686461 -0.08213506 0.119794644 -0.0072940155 0.4239524
0.3240963 -0.023936328 -0.14329313 0.1255901 -0.078590035 -0.10508855 -0.14161757 0.069756396
0.023372477 0.039804935 0.120341234 0.34563085 0.08881089 0.05807337 0.05711031 -0.076139286
-0.083562426 0.12783134 -0.09756172 -0.104338534 -0.028137831 -0.039370492 -0.13555174 -0.043881766
-0.24092634 0.09125486 -0.24453536 -0.13453269 -0.08906687 -0.079748124 -0.14715943 0.089633934
0.04593994 -0.02405821 0.088195086 0.020109786 -0.022948176 -0.15445763 -0.21356711 -0.13963723
0.013914316 0.043013215 0.08740415 0.08988037 0.23257607 0.122625634 0.06747821 0.04999198
0.06478523 -0.0068577407 -0.026417738 -0.10516755 -0.03472907 0.05802213 0.011508726 -0.009224266
0.030946847 0.019568592 -0.096650235 0.04654103 -0.11743344 -0.15354608 0.22970408 0.005072728
-0.10794084 -0.18018076 -0.064362705 0.13604024 -0.0047017303 0.103429906 0.07139075 -0.046735104
-0.03749569 -0.060330715 -0.1145935 -0.09810343 0.07509739 0.08606841 0.08704089 -0.017043313
0.06724538 -0.047015212 0.08806167 0.064786546 0.032833245 -0.014116588 -0.054495916 0.058517333
0.009619771 0.058414653 0.17848192 0.0428879 0.106407076 0.22439149 0.009146693 0.1230176
-0.0070645055 0.0049306485 0.06614134 0.039011016 -0.022205202 -0.019673398 0.050034836 -0.1069829
-0.0066135447 -0.03346897 -0.14305939 0.03342797 0.022381652 -0.08484226 -0.0086326795 -0.04160231
0.049308542 0.0033521196 0.027004 -0.08072446 -0.073373705 -0.13819174 -0.06034199 -0.12177142
-0.14489472 0.101497106 0.015444732 0.012576339 0.007905248 0.044945106 0.0058220513 0.08599949
0.0824136 -0.024059813 -0.106995605 -0.03425142 -0.032499615 -0.018868176 -0.08137787 -0.046665277
0.0668744 0.16837794 0.14117756 -0.083561555 -0.050283518 -0.02591664 -0.05397527 -0.020994626
-0.03821865 0.05937264 0.0815882 0.10422071 -0.061209608 -0.1750596 -0.1512219 0.006887234
-0.026681496 -0.058782354 -0.058470294 -0.021842444 -0.03125104 0.1769125 0.070042245 -0.07729034
0.052455 -0.01562365 -0.033384982 0.06601742 -0.07874388 -0.08746972 0.015038945 0.0645238
-0.044025578 -0.06039504 0.016670171 -0.08846652 -0.079745926 -0.07774702 -0.19141966 0.0501885
0.03900114 0.019281888 0.056225643 0.0792954 0.045265358 0.086248495 0.06665953 0.06574626
-0.010743015 -0.15994722 -0.0027840845 0.008605201 -0.14267172 0.00063473714 -0.010499035 -0.022213912
0.08232367 -0.07160815 0.03676566 -0.07582985 0.02049161 0.068843365 0.059861667 0.054962836
0.22334489 0.044061124 -0.11287495 0.025123207 -0.0032778846 0.05597937 0.063038886 0.014631411
0.053877186 0.04634594 0.017848082 -0.008814454 0.05648634 0.01852243 -0.049432606 0.09631068
0.032934092 0.09481203 -0.07953678 -0.1182514 0.02448253 0.0010433398 0.10391643 0.0807254
