checkpoints/pannet_model_WV3/pannet_model_WV3_2023_07_22-14_38_46_best_test.pth.tar (torch, 867163 bytes, 92 tensors)

layer_0.0.weight f4 [8, 8, 8, 8]
00000000: 01e8 2f3d 8f6c 353e 0c5b 673e f586 fe3e
00000010: 363a ed3e d117 023f a192 c53e af84 3b3e
00000020: bfdd 033e 0aa5 8c3d 18a7 a63e ea84 d33e
00000030: 6614 b93e 9491 e93e 1064 093e b925 5d3e
00000040: d1f1 413e 8db1 843e d025 6d3e b571 973e
00000050: 727a 1f3e 0309 3e3e ea17 503e 734c cc3d
00000060: 4a0b 003e 8b37 35bd ae84 7f3e e0df 35be
00000070: 3d89 0e3e 7dd0 09bd 9374 3c3e 00e5 493e
00000080: e4c6 6d3c 3b32 89bd 0831 44be 73c4 06bc
00000090: 78ae 39bd ca7d 293e addc 4d3d 001b a93e
000000a0: bcd6 59ba 68ad 24be 472b 12bd 46d7 77be
000000b0: 12d6 873d 2f71 c3bc 04b3 1e3e d8a7 bc3e
000000c0: 12dc 14be 7a43 89be 27ec 9fbe c659 bebc
000000d0: a618 09be c171 fe3b 698a 8a3c 2427 da3d
000000e0: b349 ecbd 14e3 0fbd ccdd 813e 68e5 df3d
000000f0: 513b de3e a524 9b3e 2c6d 4d3e 481a f33d
00000100: ccf5 c6bb e077 3d3e 57ff b93e dd7c ae3e
00000110: ef2f 833e d714 8b3e 6927 9d3d b4d8 263d
00000120: a34b 7b3c d98e 8f3d 7ef8 05be 7870 debd
00000130: dd26 bd3d f41a d2bd 7879 ed3d 2463 29bd
00000140: 8f68 5a3d 88bc 7cbd 5908 5fbe d8cb acbd
00000150: 6701 a0be bb87 393e c1dc ab3b 48f9 c83e
00000160: d310 aa3e 4279 f13d f259 41bd 16c4 a23d
00000170: 6a77 4b3e 9eb4 0b3e b68c ad3e 459e e83d
00000180: a962 1f3e 7a3e 3bbe d465 c4bd 2865 6cbe
00000190: 8390 7ebe f511 773c e846 3a3d 12b6 963e
000001a0: 6f07 133d ca54 2c3e 8ef7 bfbd 9077 ff3b
000001b0: c2f9 15bd 4a0a b7bd 790e 943e 43de 69bd
000001c0: 2130 d63e 7e5f fe3d 40eb 0d3f df3e 173e
000001d0: d4aa ba3e 09ac 733e 6c3c 943c ac5c 1a3e
000001e0: 59be 0f3e caf5 b83e 53ed a93e 3ff0 d33e
000001f0: 1e1b c63e 540e 773c 9c91 083e 65dd b1bd
00000200: 466b a13c 5c07 613c 4a7c 1cbd 4904 92be
00000210: 5a52 09bf f9f2 78be f9a4 d8be d651 a0bd
00000220: 4ee9 13bd 5b60 9bbe acd7 c2be ea0b 4bbf
00000230: 2f88 02bf 9a7e 2fbf 40ab 8cbe cdd2 fdbd
00000240: ccb2 39be c1d3 ecbe b2c1 d3be fb0d 0bbf
00000250: f314 22bf 64f4 8abe 847a c9be 23ef a63e
00000260: 25ff 2dbe ae5c a6bd aea7 22be 2f4f b0be
00000270: e49f 11bd 1ddf e2be a5e5 6c3e 51d5 90be
00000280: f3d3 23be 81bc bbbe d06c cdbb 9fbe 67bd
00000290: c48b 98bd a5f3 143e 341f b3be 8f0b 603e
000002a0: b4a1 c7be 18b5 133e 1ba9 253c c6b5 a43e
000002b0: 5abb 673e 77b7 543e b4e6 583e e13d 8c3d
000002c0: 8b8f 4d3e bde9 3ebd 2cc3 cc3e 2235 b93e
000002d0: 9e37 ae3e 19f4 0a3f 4eb8 cabd b78b 9c3e
000002e0: 3a4c 5c3d 65ea ff3e ca61 993e 2d1d 063f
000002f0: 8d76 983e 3ea9 843e 45c5 753e 95ad f4bd
00000300: 3a17 88bd cfdb 9abe 3285 a4be b73e 09bf
00000310: 4161 4cbe bf45 03bf 7364 d83d e8c0 61be
00000320: 7b30 19be 72eb 99bc 5efa cabd ce3d 233e
00000330: 1cf5 debd 7c97 223e e6c9 17be baee 2d3e
00000340: a1e6 74ba da94 aa3e c5e4 c23e 627e f43e
00000350: 6162 e13e f833 a53d f59b b73e ee86 99be
00000360: 9566 ffbd 9073 8c3d 84c9 813e eb91 db3e
00000370: d538 143e d6cb 143e c4a4 ecbd 602a a1bd
00000380: 653e adbd 7d52 b23e 91c0 b23e a746 c93e
00000390: 9a86 823e 9502 6b3d 4ec3 ce3d 990f 7bbe
000003a0: cf7d 8d3e 1737 643d 4530 aa3e 7cc1 b63d
000003b0: b9e4 1ebc 18dc d9bd 8f6b 87be df81 8abe
000003c0: 93d7 d73c 6fc5 823d 914c 25be c0d4 23be
000003d0: 1590 54be 4138 a8be 455b 89bd fa10 bdbd
000003e0: 88b5 9f3d dc0f 96be 51a1 8cbe 4fce 27bf
000003f0: 2015 ffbe aa9a 05bf 44f5 0bbe 7496 123e
0.042945866 0.17717193 0.22593325 0.4971234 0.46333474 0.5081759 0.3858843 0.18312334
0.12877558 0.06867416 0.32549357 0.41312343 0.36148375 0.4561888 0.13417077 0.21596421
0.18939902 0.2591671 0.23158956 0.2957894 0.15574053 0.18558125 0.20321622 0.09975519
0.12504306 -0.044242423 0.24952957 -0.17761183 0.1391954 -0.033646096 0.18403845 0.19716263
0.014512751 -0.06699034 -0.19159329 -0.008225548 -0.045332402 0.16551891 0.05025928 0.33028412
-0.0008309891 -0.16081774 -0.035685804 -0.24203214 0.066326275 -0.023857681 0.15497977 0.36846805
-0.14537075 -0.26809293 -0.31234857 -0.023236167 -0.13388309 0.0077650254 0.016911702 0.10651997
-0.115374945 -0.035128668 0.2536453 0.10932428 0.4340463 0.30301395 0.20061177 0.11870247
-0.0060717817 0.1850276 0.3632762 0.34079638 0.25622508 0.27164337 0.076735325 0.040734008
0.015337857 0.07009668 -0.13083073 -0.108612955 0.09235928 -0.10259047 0.11595434 -0.041354313
0.05332237 -0.061703235 -0.21780528 -0.084373176 -0.3125107 0.18118183 0.005244822 0.39252687
0.3321596 0.11790706 -0.04720492 0.07947557 0.19869772 0.13643119 0.33896416 0.113583125
0.1556498 -0.18285552 -0.09589735 -0.23085463 -0.24859814 0.015079965 0.045477778 0.29435784
0.03589576 0.1682922 -0.09373389 0.0077962354 -0.03661514 -0.08937509 0.28917292 -0.05709673
0.41833594 0.124205574 0.5543709 0.14770077 0.36458457 0.23796095 0.018095218 0.15074414
0.14037456 0.36125022 0.33188877 0.4139423 0.38692564 0.0150791 0.13336796 -0.08684806
0.019704472 0.013734665 -0.03820447 -0.28518894 -0.53641284 -0.24311437 -0.42313364 -0.07828109
-0.03611117 -0.3034695 -0.3805517 -0.79315054 -0.5098905 -0.68552554 -0.27474403 -0.12393723
-0.18134612 -0.46255305 -0.41358715 -0.5431821 -0.63313216 -0.2713958 -0.39351285 0.32604322
-0.16991861 -0.08123146 -0.15884277 -0.34435412 -0.035552874 -0.44310847 0.23134477 -0.28287748
-0.15998821 -0.36667255 -0.006269075 -0.056578275 -0.07448533 0.14546068 -0.34984744 0.21879409
-0.38990557 0.1442455 0.010111119 0.32169932 0.22630063 0.20773111 0.21181756 0.0684774
0.20074289 -0.04660963 0.39992654 0.3617335 0.34026808 0.54278713 -0.098984346 0.30575344
0.053783633 0.49983516 0.2995742 0.5238827 0.29777947 0.25910372 0.24001034 -0.11947171
-0.06645055 -0.30245826 -0.3213287 -0.5361132 -0.19958974 -0.512783 0.10566034 -0.22046244
-0.149599 -0.018789027 -0.09911035 0.15941545 -0.10886595 0.15878099 -0.14823112 0.16985598
-0.0009342228 0.3331669 0.38065162 0.47752672 0.4402037 0.08066553 0.35861173 -0.29985756
-0.12470738 0.06857979 0.25349057 0.42884764 0.14474805 0.14530882 -0.11554864 -0.078694105
-0.084591664 0.3482856 0.34912542 0.39311716 0.25493318 0.05737551 0.10095845 -0.24517669
0.27635047 0.0557166 0.33239952 0.08923623 -0.009698086 -0.10637683 -0.26449248 -0.2705221
0.026347911 0.06385314 -0.16142489 -0.15999126 -0.20758088 -0.32855418 -0.067068614 -0.09231754
0.07798296 -0.29308975 -0.27466825 -0.65549177 -0.49820805 -0.52189124 -0.1366778 0.14315206

layer_0.0.bias f4 [8]
00000000: 9c6e 4e3e f512 4ebe 1234 4fbf 89ee ab3f
00000010: 1224 a33e 88a5 d83d e3b3 603f dda0 12bf
0.20159382 -0.20124419 -0.8093883 1.343217 0.31863457 0.105784476 0.87774485 -0.5727671

layer_1.0.weight f4 [32, 9, 3, 3]
00000000: fd98 90bd daa9 f43e 30ea 08bd 37a6 603e
00000010: c52f 3abf dec5 3f3e d260 9ebd 8835 293e
00000020: c71e 6cbd 5e76 e3bb 89e0 d63c a6d8 1c3d
00000030: dfeb c2bc 5f6f f63c a5d0 b43c 53c4 603c
00000040: 08e4 6b3c 8091 4d3c f69e 06bd 0f8c a8b8
00000050: 609f 79bb 97a5 253d 7238 043c d640 58bd
00000060: f4da d73c 3833 bb3c 826c 9bbc e214 be3b
00000070: 2dea 84bc 7efb f4bc 1777 6fbd a763 8ebc
00000080: 9bea 0a3d 29ec 7dbd cf47 eabb 56e4 ce3b
00000090: 882c 393d b5bd 3a3c 6369 833b 32e5 093d
000000a0: f849 02bd bead 7ebc a5cb f03c cbe9 8abc
000000b0: a47f b7bc 0a17 86bb 1f33 2bbd d05a 4ebd
000000c0: 5a98 f13c b6f8 da3b 6489 44bc 5e98 d53a
000000d0: 5625 4ebb ed88 19bc eaa0 92bd 8c69 19bd
000000e0: 0af7 3ebd 89c7 443d edc5 893d 3ab0 5ebd
000000f0: b471 403d 9875 0a3c d074 22bd d202 c83c
00000100: c794 bc39 595d 653b 918d 1ebd 6cdc 72bd
00000110: eeb4 543c db8f aabc 9d09 44bd 16c0 353d
00000120: fd42 523c 8249 b7bc 202b 18bc f533 023d
00000130: ccd0 f13c e1c4 92bc 894b a63c 5817 223c
00000140: 7720 b7bc 6e08 b83a aec7 48bc 66dd da3c
00000150: 17f0 b5bb 49ae 1e3d ca72 933c 61c5 f53b
00000160: bc45 123a 2a99 863d 4f61 153d 6afb f53c
00000170: f861 1d3e 33a3 3b3e c0db bfbc ee58 f739
00000180: 1768 683b 6ed2 e1bc 176a 2ebd 8be0 84bb
00000190: 714a 6c3d e4d6 68bd 446c 343d 9573 0bbe
000001a0: 0757 403d 4fe2 01be 8393 95bd 63a9 00bd
000001b0: 8ac3 d2bc 464d 91bd f17b 523d 5789 e43c
000001c0: 0456 d23c 205a 663d 91b9 b4bc b935 13bb
000001d0: a890 8cbc 394e b6bb 142a 7a3c 8557 71bb
000001e0: 3136 2ebd 11bd 893d 3f9b 2e3c 7d9e d0bd
000001f0: 7dba 863d f6be 943c 45fc c33d b1ae 9cbd
00000200: 973d 74bd 6ff0 e9bd e772 3b3d a702 d63c
00000210: 9de6 823d 13ab a3bc d552 dc3c 5f14 c53c
00000220: 15f6 263e 199b a63c bce6 ad3d 7db6 bf3c
00000230: 835d ac3b f62d 263d 3201 a53d c546 9f3c
00000240: ac12 303d f082 31be 16b7 c0bc 7d55 57bc
00000250: 7db3 d83d e2a7 b23b c6ea a83d 5362 0d3d
00000260: 7698 8a3b 84ef 00bd 982a 0b3e 04ba 3bbd
00000270: d631 b13d 1662 d1bd bfd8 67bd 2421 80bd
00000280: 0644 60bc a54b 54bd 01f2 c1bd 821b 4c3e
00000290: 15e1 adbd 1d69 373e f841 0cbf 8842 6b3e
000002a0: 0e9b a2bd d233 563e 542f abbd 1ae2 33bd
000002b0: 65fb 16bd beb8 0fbd ad16 35bc cedc a53a
000002c0: 6105 9cbb 0369 1a3d 7166 1e3d 4ac6 0e3d
000002d0: 8db2 25bc fd9b c33b 5903 8cbb 14a3 98bc
000002e0: 6368 03bc 5493 75bc 7ae9 0ebc 02df 44bc
000002f0: 7625 0fbc 8503 05bd 670e fabb bc7e 06bd
00000300: 14ec 34bc 7d78 0abb a9ed 9abc 1362 c23c
00000310: 2727 1b3c f508 723c 3473 7abd b098 49bd
00000320: a8df 7abc a426 3cbc efa4 8ebc 4e1e f23a
00000330: aed5 f83c e3a3 993c a040 ac3c 94dd da3b
00000340: da15 be3c 2fd5 44bb 695a 413c bcdc ab3c
00000350: 45fb b33c 24e1 79bc 7d30 c13c 667a 393d
00000360: 9b3a 00bd 190a f5bc 0dda 2b3d 467a 14ba
00000370: 69be 3abc 36ea 8d3c 6bad db3c 2aff a63a
00000380: 2164 51bc 65ae 413b 7d1e 2d3c b852 d7bc
00000390: 818a 2bbd 6e2b f3bc 1038 05bd 5083 053c
000003a0: da99 353d c491 963c 1e34 0f3b 946b 97bc
000003b0: 9c5d 87bb 62d0 643b ad6c 743b c2dc b23c
000003c0: 0009 093c b36c 043c bc82 b93b 22e2 543a
000003d0: c344 7fbc aba9 53bb e436 2dbc 9c59 773b
000003e0: d4ef 063c 0903 27ba d225 12bc f3d2 a5bc
000003f0: 7d8e f93d ae4c aebe e67c b0bc 31cc ed3b
-0.0706043 0.47785836 -0.033426464 0.21938406 -0.7272914 0.18727824 -0.07733311 0.16524327
-0.05764654 -0.0069416007 0.026230114 0.03829255 -0.023794113 0.030082403 0.022072146 0.013718682
0.014397629 0.012546897 -0.03286644 -8.036952e-05 -0.003808938 0.040441122 0.008070098 -0.052796207
0.026349522 0.022851571 -0.018972639 0.0058008293 -0.016224945 -0.029905077 -0.058463182 -0.017381502
0.033915143 -0.061992798 -0.0071496735 0.006313841 0.045208484 0.011397769 0.004010366 0.033665843
-0.031808823 -0.015544353 0.02939398 -0.016957184 -0.022399731 -0.004092102 -0.0417968 -0.050379574
0.029491592 0.0066824807 -0.011995647 0.0016296019 -0.003145536 -0.009371025 -0.07159598 -0.037454173
-0.046622314 0.048041854 0.067272045 -0.05436728 0.046983436 0.008450888 -0.039662182 0.024415407
0.00035969002 0.0034998266 -0.038709227 -0.059292242 0.01298259 -0.020820549 -0.04786073 0.04437264
0.012833354 -0.022373918 -0.009287626 0.03178783 0.029518507 -0.017916145 0.02029969 0.009893261
-0.022354348 0.0014040598 -0.012254639 0.0267169 -0.0055523026 0.03874043 0.017999072 0.007500336
0.0005579849 0.065721825 0.036469754 0.03002711 0.15369403 0.18323974 -0.023420215 0.0004717777
0.0035462433 -0.027566161 -0.042581644 -0.004055088 0.05768818 -0.05684556 0.044048563 -0.1361831
0.046957996 -0.12683986 -0.07303526 -0.03141154 -0.025728006 -0.07094817 0.05138773 0.02789752
0.025675781 0.056238294 -0.022061141 -0.002246244 -0.017158821 -0.005563524 0.015268821 -0.0036825847
-0.04253215 0.06725515 0.010657131 -0.10186479 0.065785386 0.018157464 0.09569601 -0.07650507
-0.05962905 -0.11422812 0.045763876 0.026124312 0.06391642 -0.019979035 0.026894966 0.024057565
0.1630481 0.020337628 0.08491275 0.023402447 0.005260171 0.040571176 0.080568686 0.019442925
0.042986557 -0.17335105 -0.023524802 -0.013142941 0.1058111 0.005452142 0.082479045 0.034517597
0.0042296005 -0.03147842 0.13590467 -0.045831695 0.086520836 -0.102237865 -0.05660319 -0.06256321
-0.013688093 -0.051829953 -0.09469987 0.19932368 -0.084901966 0.17911191 -0.5478816 0.22974598
-0.079397306 0.20918205 -0.083586365 -0.0439168 -0.036860842 -0.035088293 -0.01105277 0.0012654306
-0.0047613834 0.037697803 0.038671914 0.034857072 -0.010113371 0.005969523 -0.00427286 -0.01863245
-0.008020493 -0.014988739 -0.008722657 -0.01201606 -0.008736959 -0.03247406 -0.0076311114 -0.032835707
-0.011042614 -0.0021128946 -0.018912153 0.023728406 0.009469784 0.014772643 -0.061145023 -0.04921788
-0.015312113 -0.011483822 -0.01741263 0.0018472166 0.030375328 0.018754905 0.02102691 0.006679246
0.023203779 -0.0030034294 0.011801341 0.020979278 0.0219704 -0.015251432 0.023582691 0.045282744
-0.03130589 -0.029912042 0.041955996 -0.0005663972 -0.011397936 0.017323595 0.02681609 0.001274084
-0.01278022 0.002955341 0.010566351 -0.02628456 -0.041880134 -0.029683795 -0.03252417 0.008148983
0.044336177 0.018380053 0.0021851133 -0.018483914 -0.004131032 0.0034914245 0.003729622 0.021833781
0.008363962 0.008082557 0.0056613367 0.00081208546 -0.015580359 -0.0032297175 -0.010572169 0.003774262
0.00823589 -0.00063709967 -0.00892015 -0.02024219 0.121853806 -0.34042877 -0.021543931 0.0072570075

layer_1.0.bias f4 [32]
00000000: 0b4e 96be 748e 49be 458e e3be b19c 50bf
00000010: aa8c 22bf c46c 0cbd 1715 30bf 25d5 2bbe
00000020: fc05 63bc 4895 953e 37da bebe fd99 4fbd
00000030: cb96 70be 8653 0d3f 4486 a1bc 533a 47be
00000040: fd4f 74bf 6fc3 7abe e38e 26be 1470 2fbe
00000050: 198a 86bf 242d 8fbf 893c d3be c45f 0fbe
00000060: ea4e fd3a 7bd6 0bbf 471f 94be 80a2 ebbe
00000070: a948 cbbe a508 98bf e737 b93d 2417 a0bd
-0.29356417 -0.19683248 -0.4444448 -0.8148909 -0.63495886 -0.034283414 -0.6878218 -0.16780527
-0.013856407 0.29215455 -0.3727586 -0.050683964 -0.23495023 0.5520557 -0.019717343 -0.19455843
-0.9543455 -0.24488614 -0.16265444 -0.17132598 -1.0510894 -1.1185651 -0.41257122 -0.14001375
0.0019325886 -0.54624146 -0.28930113 -0.46022415 -0.39703873 -1.1877638 0.09043866 -0.07816914

layer_2.0.0.conv1.weight f4 [32, 32, 3, 3]
00000000: e63a 15be de01 5fbe 630f 17be 7fd3 c8be
00000010: f24b 1dbc d193 33bd d651 123d 0936 8abe
00000020: 6e48 e73d 3c45 6cbe bf29 eabb 697d 00be
00000030: 7884 b5bd 5cf1 35be d315 9fbd 2c2f 48bc
00000040: 9d97 273e 997f 2b3d 1850 92bc e444 b8be
00000050: 774c fdbd 50d6 1a3d 32cf 8c3e 05eb 233e
00000060: 7620 b73e c67f babd 11b5 783d 88e1 9eba
00000070: de24 25be d77c 86be a58d 2e3b db85 05be
00000080: f639 88be 1cc1 df3c 319d bebd 0e22 9dbe
00000090: 1c28 27be 3cad f1bc 7e7e d83c f7d7 93bd
000000a0: 5b1e b5bd 4f24 52bc 8b4c e3bd 3a1b e5bd
000000b0: 2844 c63c b555 c5bb 0922 ba3d b440 803e
000000c0: 3bf9 cdbe 934a 92bd 1274 58be 1046 aebe
000000d0: b644 26be d757 06be 93e0 5bbc 0760 f6bd
000000e0: 2a72 9d3d 3f38 a2bd 0446 a5bd 75b1 54bc
000000f0: 6894 b8bd 9898 17be a00f d5bc 3ae5 223d
00000100: e6f7 833d eaa2 40bd 2dd0 803e a812 d13d
00000110: 9b64 56bd 5574 f0bd e9f0 20be e017 2cbe
00000120: 82d5 0c3e f967 5fbb a401 eabd 9666 9e3d
00000130: 80ac 9dbd 5ff4 9c3d 47f4 ca3d b0bf 0e3e
00000140: e6a3 1b3e ce1a 8c3c 5877 e9bb e7f8 0b3e
00000150: b41b b63d 1cef af3d 870b 8b3e 9a23 e33e
00000160: 3762 c13e ba23 a5bd d48c 15be e3bc 72be
00000170: 116f 93bc c62b b0be d838 5cbe 9b9b 08bd
00000180: 8afa a4be 74ca 46be 7781 64bd 5e2a 3ebe
00000190: b34d b43d 4016 403e 78b6 9c3c c63d edbc
000001a0: bf86 ca3d d614 debd 9c4b bcbd 4b42 29be
000001b0: c3e0 68be ff31 44be 864a e9bd e492 80bd
000001c0: 2e38 babd ffd4 fabd 4141 363d ddcd a13d
000001d0: 5db1 68ba 1836 4c3e 4e2d ae3d 8a28 333e
000001e0: 8328 47bd 0f87 1cbe 5223 473e b43d ac3e
000001f0: 65f6 86bd 674e d03d 10b9 803d b8fb 55bd
00000200: f66d 003e 3992 91bd 34ae 883d 4c98 02bc
00000210: 85fa e3bd 4bce 853c c500 873d 1fb7 8fbd
00000220: 1b14 bcbb a90a 20bd 20e7 bf3d aa98 7e3d
00000230: 6d9d 07be 2755 cd3b 91a2 b43a 4b88 f9bd
00000240: 07b2 5abe 2f2e 7cbe a535 0a3d e410 27be
00000250: 8def 233c 2921 9bbc aed2 adbe cea3 44be
00000260: d0d1 bebc d633 b13d d17b 82bc ff6e e1bc
00000270: 2aff 513e eea6 c3bd ab32 f73d b09e b73e
00000280: c0d9 83bd dfff 513d 6842 fd3c 4342 463d
00000290: f946 3dbe cb97 d23d 0383 3bbe b990 1c3d
000002a0: 87d3 de3e f9da 9a3e 8d2f 2f3e 2894 76be
000002b0: 6f8e 8abd 7059 23be db48 5ebd 9b5d 7c3d
000002c0: f7d9 683c fde8 993b 81bb 28bd 68e0 76bc
000002d0: 7a10 203e 3b11 353e 620d 753e 6234 08bd
000002e0: f7ba 06bd 34d5 ccbc 92c3 313d 962a 28be
000002f0: 28a3 3dbd 02b0 03bd cc1e 223c bf85 edbd
00000300: 542c 07be f922 0a3d ad5d ec3d 2101 5cbe
00000310: 959c 4cbe 7d2a edbb ad23 6e3e 27e9 86bd
00000320: b2ea 4c3e 2a3d 033d 147c 05be f656 423e
00000330: e7f4 02be a97a 5dbe 8521 87bd 14f5 49bd
00000340: fdc0 c7bd d322 d8bc 46a3 353e cf06 1d3d
00000350: e29b 63be be19 18bb a27c 103e ebb0 03be
00000360: 4bc4 2dbe 5cd5 703d c1e5 163d 2ac3 44bd
00000370: 37f2 d03d 6edb 393e a0d4 a9bd c37b 1a3d
00000380: 9375 c53d 0762 6f3e ca54 3abd 7f4b e3bd
00000390: b6bb 043e eff8 893d 4164 1dbd a774 813d
000003a0: a735 56be 0b83 08be 1d38 323e 9f3f 263e
000003b0: 2211 8f3d 037c b43c 3a75 363c 274a d9bd
000003c0: bec4 0dbe 8991 b4bd 06c7 87be 586e e53d
000003d0: a312 36be 8283 81be f41a 8c3d b178 b138
000003e0: e474 41be f98e 513e a3f3 4d3d 9eaf afbd
000003f0: 6041 e83c 955c 9a3d e3bd 1b3d 7252 83be
-0.14573249 -0.21778056 -0.14751963 -0.3922386 -0.009600626 -0.04384214 0.035722576 -0.2699435
0.11293112 -0.23073286 -0.00714609 -0.1254784 -0.08863157 -0.17767853 -0.077678345 -0.012218278
0.1636643 0.041869733 -0.017860457 -0.3599006 -0.123681 0.03780204 0.27501827 0.16007622
0.35766953 -0.09106402 0.060719553 -0.0012121657 -0.16127345 -0.2626712 0.002663472 -0.13039343
-0.2660672 0.027313761 -0.09307326 -0.30690044 -0.16323894 -0.02950155 0.026427504 -0.072189264
-0.088436805 -0.012826039 -0.11098584 -0.11186834 0.024202421 -0.00602218 0.09088523 0.25049365
-0.4022921 -0.0714313 -0.21138027 -0.34037828 -0.16237149 -0.13119446 -0.013420242 -0.120300345
0.07687791 -0.07920884 -0.08069995 -0.012981762 -0.09012681 -0.14804304 -0.026008427 0.03976939
0.06443767 -0.047030367 0.25158826 0.102086365 -0.05234204 -0.117409386 -0.157169 -0.16805983
0.13753322 -0.0034089072 -0.11426094 0.077344105 -0.076989174 0.076637976 0.099098735 0.1394031
0.15199241 0.017102625 -0.0071248226 0.13669167 0.08892003 0.08590528 0.27157232 0.443631
0.37770244 -0.08063455 -0.14604503 -0.23704867 -0.017997297 -0.34408396 -0.21506059 -0.033351522
-0.32222396 -0.19413167 -0.05578753 -0.1857085 0.088038824 0.18758488 0.019129977 -0.02896012
0.09888982 -0.10843818 -0.09194109 -0.16529195 -0.2274199 -0.19159697 -0.11391167 -0.06278017
-0.09092747 -0.12247657 0.044495825 0.079005934 -0.0008876527 0.1994251 0.08504735 0.17495933
-0.04862262 -0.15285896 0.19447067 0.33640826 -0.06589965 0.10171204 0.06285298 -0.05224201
0.12541947 -0.07107968 0.066738516 -0.007970881 -0.11131767 0.01633372 0.06591944 -0.070173495
-0.0057397014 -0.039072666 0.093702555 0.06215731 -0.13243647 0.0062662545 0.0013781359 -0.12184199
-0.21356975 -0.24626993 0.033742566 -0.16315037 0.010005844 -0.01893671 -0.33949798 -0.19203112
-0.023293406 0.08652465 -0.01592818 -0.027518747 0.20507494 -0.09553324 0.12070211 0.35863256
-0.06438017 0.05126941 0.030915454 0.048403036 -0.18484105 0.102828585 -0.18311696 0.038223956
0.43520758 0.30245188 0.17107983 -0.24079955 -0.06765448 -0.15952086 -0.0542687 0.061612707
0.014212123 0.004696964 -0.041194443 -0.015068151 0.15631285 0.17682354 0.23930886 -0.03325308
-0.032893147 -0.025004007 0.0433994 -0.16422495 -0.046298176 -0.032150276 0.009895038 -0.11597776
-0.13200504 0.03372476 0.11541305 -0.21484806 -0.19981606 -0.007237731 0.23255797 -0.06587439
0.20011404 0.032040752 -0.13035613 0.18978485 -0.12788735 -0.21628822 -0.0659819 -0.04930599
-0.097536065 -0.026383793 0.17738065 0.03833657 -0.22227433 -0.0023208703 0.14110044 -0.12860458
-0.16969411 0.058797225 0.036840204 -0.048037685 0.10202449 0.18150112 -0.08292508 0.037715685
0.09641566 0.23377238 -0.045491017 -0.11098384 0.12962231 0.067369334 -0.038425688 0.06321078
-0.20918904 -0.13331239 0.17404218 0.16235207 0.0698569 0.02203179 0.011136347 -0.106098466
-0.13844582 -0.08816821 -0.2651903 0.11202687 -0.17780547 -0.25295645 0.068410784 8.462498e-05
-0.18892246 0.20464696 0.05028118 -0.08578418 0.028351486 0.0753719 0.038022887 -0.25648838

layer_2.0.0.conv1.bias f4 [32]
00000000: ccd3 bcbc 8375 663d 4aa7 debc 6b5d 6e3d
00000010: 20f8 66bc d23b a43c 712f 463d 6872 85bb
00000020: 3619 d43c f275 a13c 64bd bebc 6222 e13c
00000030: 34df 5c3c 9865 e8bb 9d8c 023d 8370 f8bc
00000040: 4a30 23bd 2f3e 1abd d7bf 3f3d 6568 663d
00000050: f988 4e3d 33f0 06bd de72 873c 9aa6 b13c
00000060: 64e5 febc 7cb4 14bd 410c 6fbd 68e7 68bd
00000070: b845 36bc 63ff 4b3d e843 78bc 1e7b 1dbd
-0.023050211 0.05626441 -0.027179379 0.05819456 -0.014097244 0.020048056 0.048385087 -0.004072476
0.025890928 0.019709561 -0.023283668 0.027482215 0.01348095 -0.007092189 0.03187238 -0.030327087
-0.039840974 -0.03765696 0.046813812 0.056251902 0.050423596 -0.032943916 0.016534265 0.021685887
-0.031115241 -0.036304936 -0.058361296 -0.05686131 -0.011125021 0.049804103 -0.015152909 -0.03844749

layer_2.0.0.bn1.weight f4 [32]
00000000: f1b0 453f 50d6 893f 07d0 823f af8c df3e
00000010: d456 0740 3f73 173f 3854 873f 0c4d e53f
00000020: 215a 0c3f b618 f03f 8539 8f3f ab44 e03e
00000030: 8f70 993f f5ec 993f ec55 b83f 36bb ec3f
00000040: 9804 cd3f 494b 6e3f cd8b 513f 53bb a13f
00000050: 11e7 073f 9e7c dc3e 373f 6c3f 7efe cc3e
00000060: 0645 df3f d904 f33e 7ce8 dd3f db99 d63f
00000070: 45e8 ec3e 71f1 b73f 457c bf3f 0733 ef3e
0.77223116 1.0768528 1.0219735 0.4366202 2.1146746 0.59160227 1.0572577 1.7914138
0.54825026 1.8757541 1.1189429 0.4380239 1.1987475 1.2025439 1.4401221 1.8494632
1.6017027 0.93083626 0.81853944 1.2635292 0.53086954 0.43063825 0.9228396 0.40037912
1.7442939 0.47464636 1.7336574 1.6765703 0.46270958 1.4370557 1.4959799 0.46718618

layer_2.0.0.bn1.bias f4 [32]
00000000: 285c 27bd b49d c4be 674e 283e 8a23 9a3f
00000010: dcb4 aebf 70af bf3e 3118 cebd b193 7fbf
00000020: 75bc 98bb 2ab5 4fbf d7f4 54be abae 083f
00000030: 90b9 50be ded0 42bf 8021 26bf 4ac5 62bf
00000040: 4b0e 59bf 9c00 19be 0fef b2bc 758b 04bf
00000050: ce5b 493f 78d1 6f3f 5fbf 56bd a89e b63f
00000060: 42b2 6ebf 183e b33f 5b40 55bf 3182 68bf
00000070: aaef a33f 9a7f 63bf 99bf 74bf 7dec 983e
-0.04085937 -0.38401568 0.16436158 1.2042096 -1.3648944 0.37438536 -0.10063208 -0.99834734
-0.0046611377 -0.8113581 -0.20796524 0.5339152 -0.20383286 -0.76099956 -0.64894867 -0.8858229
-0.84787434 -0.14941639 -0.021842508 -0.51775295 0.7865571 0.93679 -0.0524286 1.4267168
-0.9324075 1.4003325 -0.83301324 -0.90823656 1.2807515 -0.8886658 -0.95604855 0.29867926

layer_2.0.0.bn1.running_mean f4 [32]
00000000: f70c 05c1 a480 adc1 b25f 1ac1 be91 2641
00000010: 1d08 a2c2 1afd cec0 859f 2fc1 6739 a1c2
00000020: 0003 3dc1 a7b1 94c2 deec 20c2 41be 2841
00000030: 6b8d 0cc2 50c4 40c2 f330 69c2 aa28 93c2
00000040: 63c8 20c2 2544 eec1 7324 69c2 488b 30c2
00000050: 9ace bf3f d9c7 ee40 11a8 d2c1 b39c 5c40
00000060: d4e1 78c2 404a 2641 054b 8fc2 1c15 73c2
00000070: a122 1041 9f68 06c2 1310 59c2 0c61 c9c1
-8.315665 -21.687813 -9.648363 10.410582 -81.01585 -6.468396 -10.976445 -80.612114
-11.813232 -74.34698 -40.231316 10.546449 -35.138103 -48.19171 -58.297802 -73.57942
-40.19569 -29.783274 -58.285595 -44.136017 1.4984925 7.4618955 -26.332064 3.4470642
-62.220535 10.393127 -71.64652 -60.770615 9.008454 -33.60217 -54.265697 -25.172386

layer_2.0.0.bn1.running_var f4 [32]
00000000: 29f2 f344 ae58 cc45 92ba 0246 a3fd c643
00000010: a485 0e46 c395 1244 95cb 6244 a57c 6e46
00000020: 4bee 9544 6ec6 8446 9a80 b945 e222 0244
00000030: ce48 8545 008e c145 3f60 c645 cc90 7346
00000040: cfbc 0945 8a89 4745 18f0 b445 d795 5145
00000050: 86ea 0d44 d97e a143 78c5 2c45 af8b a143
00000060: d0ed 5146 96f2 d743 86e1 8e46 6ca8 c045
00000070: 8118 b943 ebd1 b144 bfa2 0246 6ce9 0345
1951.5675 6539.085 8366.643 397.98154 9121.41 586.34 907.18097 15263.161
1199.4467 16995.215 5936.075 520.54504 4265.1006 6193.75 6348.031 15588.199
2203.8005 3192.5962 5790.0117 3353.365 567.6644 322.991 2764.3418 323.09128
13435.453 431.8952 18288.762 6165.0527 370.19144 1422.5599 8360.687 2110.5889

layer_2.0.0.conv2.weight f4 [32, 32, 3, 3]
00000000: 73e4 4bbe 0b3b babd 9464 20be 8716 2cbe
00000010: 576d c23d 52f1 5abc e85b 2abd b403 f43d
00000020: 243b 123c 05e4 6fba d05c 273d c957 dabd
00000030: 8d57 00bd bcec 8f3d e1f4 f8bd 53e9 2abd
00000040: d32c 7f3b 5fd6 d6bd ce1b 0cbd e847 6bbc
00000050: 53fa cdbc dd4d 2abd 819e c33d bf03 833d
00000060: d7e8 563c 3010 0a3c 778a df3d 2b0b 86bd
00000070: ab36 08bd 981c 1f3d a168 833c 0eca bc3d
00000080: 6168 ca3a f905 a3bd e18e e33d 2c27 bb3d
00000090: 7c67 e03d 3c97 b43c 59f0 b1bc 6ecb 203d
000000a0: ea50 833d 72b7 78bc c064 c53a aec4 12be
000000b0: 1c51 99bd 5d71 cabd 7f34 b53d c993 3b3d
000000c0: 7b5a 3abe 6cd0 d73c 1f96 2e3e 9539 883c
000000d0: ca27 bf3c cf58 5f3d 03e2 b4bd 20c0 cdbd
000000e0: 6ed2 85bd d780 ae3d b7de 563e 80e2 75bd
000000f0: bcb8 a03c d9dd 043e 4e68 12bd 283f b8bd
00000100: 308a 743b 01fa 7cbd 8b0d 91bd 1026 d0bc
00000110: ab18 5ebd 10cc 25bc f90a 0f3d 355e 6fbd
00000120: 5791 053e 0bd9 453e fad3 403e 7657 983d
00000130: 945d 17bc a892 8ebb acdd 52bd d4e0 20bd
00000140: 968c 4b3d c2a5 e4bd ea5b 063b 5bcd 1ebd
00000150: d188 003d 1f94 863d 0057 643d 2500 68bd
00000160: 236b 083d 8793 22bd ee7b c53c 602b 6b3b
00000170: 31ef 5ebc c124 b03d 8657 56bd 0609 32bd
00000180: 6cb3 153e 735b 4b3c 3f60 363d f59a 79be
00000190: 031a 97be 3694 9abe d664 4a3d 2fb6 ecbd
000001a0: 5bd1 5abe c0f5 073e d9a9 313e 2d7f 973d
000001b0: 256c a6bd 6506 87bd d39e 103d 9138 5dbd
000001c0: 590a 32bd a44a a1bc d9e4 80bd b357 2abd
000001d0: 4d1a 1cbd bce4 3fbd 35b5 1ebd 61f4 44bd
000001e0: 4179 00bd f7b0 dc3a 0f64 b13c cd17 073d
000001f0: 4def 7a3d 752d 173e c7b0 c5bd 8973 08bd
00000200: b550 82bd fd67 a7bd e0d3 8b3d 5f1d 803d
00000210: 3e3d b9bd 813c 833d 35a7 f7bc a273 3b3e
00000220: b032 043e 1e03 153e f7ea c93d ec6e 95bd
00000230: fe16 c4bd 08a0 e53d 7aab 0cbd d4a7 c6bd
00000240: 1e4e b0bd 487c 7cbd 03b3 0fbd fa5d 7bbd
00000250: 774b 993d f3d5 1f3c d461 34bd 98b8 b93d
00000260: 3ba4 99bb b358 ecbd 2f16 89bd 0813 f6bd
00000270: a0ad 863d 43cb a73c 8b30 34bd 7d3b 0dbe
00000280: 33c3 89bc de75 21bd f468 123e e3d0 2e3e
00000290: a369 ab3d 57af b13c 1491 5d3d 7fa2 e1bc
000002a0: bb4d 133c 87ad 033e b84d b93d 9307 68bd
000002b0: 31de 413d d868 5e3a 0f72 2d3d 72e0 863d
000002c0: abcc b73d 5e15 8fbd 0c18 7d3d 78d2 bfbd
000002d0: 3cd6 5dbd e0e3 42bc bd9f 2ebd cff4 96bd
000002e0: 9282 443d d848 0d3d 46ba 973c 17b7 803d
000002f0: 1c9f 84bc b7f2 a73d 8bb4 f13d 4da3 e53d
00000300: 498f 16bd 27c2 593d b899 073d f0e6 b1ba
00000310: c21e 303e 2ac4 32bd 5274 323d ba9a 403c
00000320: d2be 613d ef96 53bd ef04 4b3a c64d ff3d
00000330: f179 823c d811 9d3d 8efe 773d 3c96 09be
00000340: 2442 603e 0b4c d7bd e2e5 ac3d 3bc8 393e
00000350: fc18 9abb 6c4f 5e3d ee0f 0c3e eeb6 023d
00000360: d5f4 d73d 7635 01ba 5d22 1ebc 9075 2f3c
00000370: d57e edba 8d8c 1bbd c30e 84bc 6770 ac3b
00000380: d067 233d b957 d1bd 8005 0f3e b7c1 bcbd
00000390: b54e 46bc abce 9b3d e318 14bd beab ecbd
000003a0: 0f9d 493d b036 10be a1b9 493e 0ddc 093d
000003b0: 2cb7 263e ed09 153e 270c c7bc f994 413d
000003c0: 9b09 253e 08ce 1a3c 8716 a93d f3e2 2bbe
000003d0: eb45 94bd 78e1 03bd c755 e5bc 61e0 823d
000003e0: 5661 84bc 0c94 8fbd 5653 a83a 1fbc 8fbd
000003f0: 2dfb 1bbe 7acf 95bb 403f 89bd 5e30 febc
-0.19911365 -0.09093293 -0.15663368 -0.16805468 0.09493511 -0.013363199 -0.041591555 0.11914769
0.008925233 -0.0009151104 0.040859997 -0.10661275 -0.031333495 0.070275754 -0.12156082 -0.04172642
0.003893663 -0.10490107 -0.034206204 -0.0143604055 -0.025143778 -0.041578162 0.095517166 0.06397199
0.013117037 0.008426711 0.10915082 -0.06545099 -0.03325526 0.03884563 0.016041102 0.092182264
0.0015442484 -0.079601236 0.11111236 0.09138331 0.10957238 0.02204477 -0.021721052 0.039256506
0.064119175 -0.0151804555 0.0015059933 -0.1433284 -0.074861735 -0.098849036 0.088479035 0.045795236
-0.18198578 0.0263445 0.17049454 0.01662902 0.023334403 0.054528054 -0.08832171 -0.100464106
-0.06534277 0.08520668 0.20983396 -0.06003046 0.019619338 0.12975253 -0.035744004 -0.08996421
0.0037313811 -0.06176186 -0.07082661 -0.025408775 -0.054222744 -0.010119453 0.034922574 -0.058439452
0.13043724 0.19321077 0.18830863 0.07438557 -0.009238619 -0.004350979 -0.051480934 -0.039276913
0.04969462 -0.11164428 0.0020501562 -0.03877006 0.03138048 0.065712206 0.055747032 -0.056640763
0.0333053 -0.039691474 0.024106946 0.0035884008 -0.013606832 0.0860076 -0.052329563 -0.043465637
0.14619225 0.01241194 0.04452538 -0.24375518 -0.29512033 -0.301912 0.04941257 -0.11558186
-0.21368925 0.1327734 0.17349948 0.07397304 -0.08126096 -0.065930165 0.035307717 -0.054009024
-0.0434669 -0.019688912 -0.06293649 -0.041587543 -0.03811102 -0.046848997 -0.03874703 -0.04808462
-0.031365637 0.0016837408 0.021654157 0.032981683 0.06126337 0.14763434 -0.09652858 -0.033313308
-0.0636305 -0.08174131 0.06827521 0.06255602 -0.09044884 0.064080246 -0.030231098 0.18305829
0.12909961 0.1455197 0.09859269 -0.07296547 -0.09574698 0.11212164 -0.03434322 -0.096999794
-0.0860865 -0.06164196 -0.03508283 -0.06136892 0.07485097 0.009755599 -0.04403861 0.090684116
-0.0046887673 -0.115403555 -0.06693684 -0.12015349 0.06576085 0.020482665 -0.043991607 -0.13792224
-0.016816711 -0.039419048 0.14297849 0.17071871 0.08369758 0.021690054 0.054093435 -0.027543304
0.0089907 0.12859164 0.09048027 -0.05664785 0.04733104 0.0008484251 0.042345103 0.06585778
0.08974584 -0.06986497 0.06179051 -0.093663156 -0.054159388 -0.01189515 -0.042632807 -0.07370912
0.047976084 0.034493297 0.01852144 0.062849216 -0.01618915 0.08200591 0.11802014 0.11212788
-0.03675774 0.053163674 0.033105582 -0.0013572853 0.17199233 -0.043644108 0.043567963 0.01175564
0.05511362 -0.051657613 0.00077445706 0.12466006 0.015927287 0.07669419 0.060545497 -0.13436216
0.2190023 -0.10512551 0.08442284 0.18142788 -0.0047026854 0.05427496 0.13677952 0.031912737
0.10544745 -0.0004928926 -0.0096517475 0.010709181 -0.0018119464 -0.037975837 -0.01612032 0.005262423
0.039893925 -0.1022181 0.13966942 -0.09216636 -0.012103726 0.07607778 -0.036156546 -0.11556195
0.04922205 -0.14083362 0.19699718 0.033657122 0.16280812 0.14554568 -0.024297787 0.047261212
0.16116945 0.009448536 0.0825625 -0.16785793 -0.07239898 -0.032197446 -0.027995003 0.06390453
-0.016159695 -0.070106596 0.0012842219 -0.07018303 -0.15232535 -0.0045718523 -0.06701517 -0.031028923

layer_2.0.0.conv2.bias f4 [32]
00000000: 4ae6 a73c bb76 48bd 47d2 6d3d aa54 c53c
00000010: fbe4 103d d855 1d3b dee8 f93c cd32 023d
00000020: 2165 65bd 3ed8 b73c 3d15 ffbc 8208 8bb9
00000030: cb15 133d 88e0 a93b a0b8 aebb c123 4e3d
00000040: e7b9 483d a27a d83c 9088 b8bb 6fe8 433d
00000050: 4513 79bb fe6e 9dbc dccf 34bc 5c0c 31bc
00000060: 782c 60bc 1d35 6b3d 3f04 463a 9158 273d
00000070: ff73 6aba 1397 4f3d 5387 453d 93be 0cbd
0.020495553 -0.048941355 0.058061864 0.024088223 0.035374623 0.0024007466 0.030506548 0.03178673
-0.056004647 0.02244198 -0.031138057 -0.00026518485 0.035909455 0.005184237 -0.0053320676 0.050327066
0.049005415 0.026425663 -0.005631514 0.047829088 -0.003800587 -0.019217964 -0.011035886 -0.010806169
-0.013682477 0.0574237 0.00075537333 0.040855948 -0.00089436764 0.050681185 0.04822476 -0.034361433

layer_2.0.0.bn2.weight f4 [32]
00000000: 1842 2140 3c46 6640 9c61 7440 7936 8840
00000010: d799 6240 15d8 8a40 f2c1 8640 69ee 5340
00000020: b95f 5040 e27f 2940 6bc1 3740 30f1 9440
00000030: 290b 8240 2346 a640 fde1 9d40 c768 8d40
00000040: c451 8b40 f78d 8840 c1c2 9440 316f 9c40
00000050: d387 9b40 8656 8b40 7185 ae40 b7cf 4840
00000060: 855e 7840 3f71 5840 6c14 5640 6d21 9c40
00000070: 0e90 2340 74e1 7240 be1c 9740 0984 a440
2.519659 3.5980368 3.8184576 4.2566495 3.5406396 4.338877 4.211175 3.3114264
3.2558424 2.6484303 2.8711803 4.654442 4.0638623 5.1960616 4.9338365 4.41904
4.353731 4.2673297 4.6487737 4.888573 4.86033 4.354312 5.453789 3.137678
3.880769 3.381912 3.3449965 4.8790803 2.5556674 3.7950106 4.7222586 5.1411176

layer_2.0.0.bn2.bias f4 [32]
00000000: b506 153f 4090 6e3f 6ac5 ac3f 7221 dd3f
00000010: 602d 703f 84d7 c63f dc72 da3f 6caf 793f
00000020: 1eda 913f 4dc3 ac3e de03 043f a763 1040
00000030: de49 0040 528b 1440 d01d d83f d463 0240
00000040: c6b5 df3f 9c14 b63f cf3a f53f ddc1 d73f
00000050: 0417 963f ffb7 ed3f 61f6 0e40 f27c a63f
00000060: 9954 903f d6ea 5b3f fb09 593f 4bc1 1840
00000070: 5f0a 193f beda 4a3f 738b e73f b2e4 ed3f
0.5821336 0.9318886 1.3497746 1.7275832 0.93819237 1.553452 1.7066302 0.975333
1.1394689 0.33742753 0.515684 2.2560823 2.0045085 2.3210034 1.6884098 2.037343
1.7477348 1.422504 1.9158572 1.6856037 1.1725774 1.8571776 2.2337878 1.300688
1.1275817 0.85905206 0.84780854 2.3867977 0.5978145 0.79240024 1.8089432 1.8585417

layer_2.0.0.bn2.running_mean f4 [32]
00000000: dc81 873e e512 253f e1ec 2c3f 63f4 c4bd
00000010: e042 1dbe 904e d53e 62a4 5d3e 4194 37bd
00000020: 2822 4b3f 4dce fe3f 9171 3f3f 5305 ae3e
00000030: 4df5 043f 38e6 5bbe 14fa 413e 3ae8 9bbf
00000040: c9f2 80bf 4bfd a63f a3c1 2fbe 27c8 00be
00000050: 5d5f 86bf 1198 0ac0 cf02 143f 4e9c 763f
00000060: 2b33 77bf e816 febe 3ae9 233e e973 0d3f
00000070: d8b9 6cbf bdd4 203e 50a9 b63e a9d8 bf3c
0.26466262 0.64481956 0.6754895 -0.096169256 -0.15357542 0.416615 0.21644738 -0.04481912
0.79348993 1.9906708 0.74782664 0.33988437 0.519368 -0.2147454 0.18943053 -1.2180245
-1.0074092 1.3046049 -0.1716371 -0.12576352 -1.0497853 -2.1655314 0.57816786 0.9633225
-0.9656245 -0.4962685 0.16006938 0.5525499 -0.92471075 0.15706153 0.3567605 0.023418741

layer_2.0.0.bn2.running_var f4 [32]
00000000: 053a d83e ec33 fb3e 0245 db3e 2930 163f
00000010: c293 ce3e 0b88 053f 2923 ea3e 962d 803e
00000020: df37 993e c0db d33e aef6 283e c782 493f
00000030: 1d93 773f 0b20 283f b0e5 5f3f 8f68 fb3e
00000040: f08f 033f 07aa f53e 45ee 1b3f 719f 1b3f
00000050: 2778 1e3f 19ba 413f 62a1 813f f876 b93e
00000060: 145f d33e 5489 ae3e de5f ee3e aebd 623f
00000070: f541 ad3e 03a9 a53e 01e9 d13e dcda ac3f
0.42231765 0.4906305 0.42826086 0.58667237 0.40347105 0.5216071 0.4572995 0.2503478
0.2992544 0.41378593 0.16500351 0.78715175 0.9670885 0.65673894 0.8745985 0.4910321
0.51391506 0.47981283 0.60910445 0.60790163 0.6190209 0.7567459 1.0127375 0.36223578
0.41283476 0.34089148 0.46557516 0.8857068 0.33839384 0.32355508 0.4099808 1.350429

layer_2.0.1.conv1.weight f4 [32, 32, 3, 3]
00000000: 1305 183e 5070 1a3e c692 843e 3346 f73c
00000010: e570 413c 11b4 ae3d 90a7 25bd 021f 0d3c
00000020: 6359 d7bd a5ed 2e3e 0fe9 f73d 5d8b cd3e
00000030: 3e74 b1bd 8361 51bd b2f9 583d 285a 02bf
00000040: 5361 5fbe fa2e a1bc 137f 0e3e 5239 743d
00000050: 2e67 25be 77af 0f3e 3135 efbc 1bae 2fbe
00000060: cf35 6e3e 76dd b5bb e487 10bd 520d e3be
00000070: 53ab 4abe 9f89 f03c 55a9 7ebe f86f 9b3d
00000080: 5cc9 1b3e 0da2 713e b59b bc3e 0f8a 0d3f
00000090: c03b 09bc 1130 02be 806d ddbe 90d6 373d
000000a0: 0a2c acbd 22de 48be cac8 6e3e 22f5 a53c
000000b0: 6c39 61bd f39a febe fb3c 55bd 3530 bf3d
000000c0: 56a7 d6be a26b c43d 5e48 9dbd f18f 12be
000000d0: 8be9 b03d 01bd ca3e bdf1 50be 40fc 43be
000000e0: 80d5 3fbe b8c3 1b3e cf6d 383d 88b7 8cbc
000000f0: b18a ab3e 4e68 153d 29e1 853d 56d4 8f3d
00000100: 18aa de3d 58ae 803e 45c1 3f3d 179f eb3d
00000110: 6e41 8fbd b742 5ebd 36f5 33bd 8337 183d
00000120: 0780 d7bd 7e87 a0bd 17ab 8ebe 4478 13bd
00000130: 7b77 05be 9e92 263d dcf6 a93d 4dcd 333c
00000140: ca05 293d 10dc 1a3e cbb7 b23d bc44 323e
00000150: fd2a e7bd b37f 3fbe 80cc 0ebd 5f2b 583d
00000160: 7a5d 84bd 214e 3fbd efc6 0cbe af63 fe3d
00000170: e639 323e 22be cebc 067b 00be 5fc1 7d3c
00000180: 2dbb 023c 6e77 b13d 2c7c 1a3e 6fc8 14be
00000190: 23ca a83d 809d cc3e 54d0 aebe c5a7 d0bd
000001a0: fdf5 423e e98f aebe c426 c53c 2053 af3e
000001b0: 506e 79be febb 68be bb88 1fbf 6604 3fbc
000001c0: a2e4 d03d 7022 a7bd 5e43 033f 9a99 9c3e
000001d0: 0046 b53e e06b 5b3f 40fd b93e 7553 003e
000001e0: beb0 643e 04db 433e 0cd7 8cbe 03ef dfbe
000001f0: 6e7f acbe c231 77bf 7781 d3bd 26df b63e
00000200: 20e0 3b3f e5cd 87be 24df d53d c4cf 8b3e
00000210: 1bad 1bbf 8760 0bbe eb38 4f3e 3a6d c83e
00000220: 1373 fe3d 6177 8b3e 619a e83d e7de 03be
00000230: 91d3 d13d e97e 8cbe 816b 39be 3735 12be
00000240: 54c2 5dbe fea9 e93d 8120 263e 9e67 31be
00000250: dd11 25be fdcf a9bd 6349 663e 75e0 3a3e
00000260: 7d35 4a3e 5783 6d3e 111d 7a3d 6448 e7bd
00000270: 89de 6c3d 5aed e63b 7eee 90be 62e6 603c
00000280: 6d52 e1bd c1dc d4be d66d 2f3f 2e51 9c3e
00000290: 955a 54be f0eb a53e 76a1 163d e363 9ebe
000002a0: 44dc 3c3e cc49 47be 64e0 2dbf 0004 dd3e
000002b0: 9a85 f0bd c200 98be 71c4 8e3e f0da 9cbd
000002c0: 72d2 8abe e08e b53e 5c8b 17be 7bda c7be
000002d0: 8fce 823d fb9c 153e 6d18 483e 1b32 a5bd
000002e0: faea c9bd a0e9 8e3c d3b2 0dbd 49ab 843d
000002f0: 4af4 023d 6896 babe 6c0b c8be a55c 59be
00000300: c791 b8bc abeb b8bd 6301 d33d eca3 243e
00000310: 9b22 af3c 2719 863e 1e5a e2bc bfa4 953d
00000320: 808d 523f 4f6d 32be 0059 83bd cdeb ad3e
00000330: 90bc 28bf d0eb c1be 03ed 093e 31de 28be
00000340: 9671 4f3d c73f 243e 285e 883d 5e52 173e
00000350: 1855 1c3d d703 d3bc 6417 22bd b18a 803c
00000360: ae02 da3d 6f14 7a3b 6d36 c23d f863 e33d
00000370: b584 cebd 844d 963d f28a 1bb8 767b 63be
00000380: ffe1 35be eb62 01bd e41c e63d 446f 2b3e
00000390: d91f c8bd a5a7 4a3e 0056 263e dea0 12be
000003a0: 5a1c 253d cb60 233d 0ee8 90be f7eb 66be
000003b0: d6a6 58be d89f 4ebd 67bf 58bd 034e 4d3d
000003c0: 4264 3ebc a222 0d3d 217b 833e 6ea5 87be
000003d0: f6ce d8be fac0 52bf 7474 1c3e 30fa 14be
000003e0: 8425 a0bd 072c 493f bdf7 9e3e 6021 cd3e
000003f0: c8a6 38be 88e8 fcbd 116a 18bd 75b5 8e3d
0.14845686 0.15081906 0.2589323 0.03018484 0.011806701 0.08530439 -0.040443003 0.00861335
-0.10515096 0.17082842 0.12104999 0.40145388 -0.086647496 -0.051118385 0.052972503 -0.5091882
-0.2181447 -0.01967572 0.13915662 0.059624977 -0.16152641 0.14031778 -0.029200168 -0.1715626
0.23262714 -0.005550082 -0.035285845 -0.443461 -0.19791918 0.029362498 -0.24869283 0.07589716
0.15213531 0.23596974 0.36837545 0.55288786 -0.008376062 -0.12713648 -0.43247604 0.044882357
-0.08406837 -0.19615987 0.23318782 0.02025849 -0.054986402 -0.49727592 -0.05206011 0.09335367
-0.41924542 0.09590842 -0.076798186 -0.14312722 0.08638295 0.39597324 -0.20404716 -0.19139194
-0.18733788 0.1521138 0.045026597 -0.017177358 0.3350425 0.036476426 0.065370865 0.07022922
0.108722866 0.25133014 0.046815176 0.11504953 -0.069949016 -0.054262843 -0.043935023 0.037162315
-0.10522466 -0.07838343 -0.27864906 -0.036003366 -0.1303386 0.04066717 0.08299038 0.0109742405
0.041265287 0.1512301 0.08726462 0.17409033 -0.11287496 -0.18701057 -0.034862995 0.052775737
-0.06463142 -0.04670537 -0.13747762 0.12421357 0.17404899 -0.025237147 -0.1254693 0.015487998
0.0079791965 0.086653575 0.1508643 -0.14529584 0.082416795 0.39963913 -0.34143317 -0.101882495
0.1903915 -0.3409417 0.024066336 0.34243107 -0.24358487 -0.22727963 -0.6231801 -0.0116587635
0.10199858 -0.08160865 0.5127467 0.3058594 0.35404968 0.8571148 0.36326027 0.12531836
0.22333047 0.19126517 -0.27507818 -0.4373704 -0.3369097 -0.965603 -0.10327428 0.35717124
0.7338886 -0.26524273 0.10442951 0.2730695 -0.60811013 -0.13611041 0.20236556 0.39145833
0.124242924 0.27239516 0.113575704 -0.12877999 0.10245431 -0.27440575 -0.18107416 -0.14278112
-0.21656162 0.114093766 0.16223337 -0.17324683 -0.16120096 -0.08291624 0.22488932 0.18249686
0.19746967 0.23194633 0.061062876 -0.11293104 0.057829414 0.0070473375 -0.28306955 0.013726803
-0.110020496 -0.41574672 0.6852697 0.30530685 -0.2073768 0.3240657 0.036775075 -0.30935583
0.184434 -0.19461745 -0.6792052 0.43167114 -0.117442325 -0.29688078 0.27884248 -0.076589465
-0.27113682 0.35460567 -0.14799255 -0.39033875 0.06387054 0.14610665 0.19540568 -0.080661975
-0.09859271 0.017445385 -0.03459437 0.064779826 0.031971253 -0.36442876 -0.39071214 -0.21226747
-0.02253045 -0.09029325 0.10302999 0.16078156 0.021378806 0.26191065 -0.027630862 0.073068134
0.8224716 -0.1742451 -0.0641346 0.33968964 -0.65912724 -0.37875223 0.13469319 -0.1649101
0.050645433 0.16039954 0.06658584 0.14777514 0.03816709 -0.025758667 -0.03957309 0.015691133
0.10645042 0.0038159152 0.09483037 0.11103052 -0.100839056 0.07339004 -3.7084283e-05 -0.22215065
-0.17761992 -0.031588476 0.11235979 0.16741663 -0.097716995 0.19790514 0.16243744 -0.14319178
0.04031024 0.03988723 -0.28302044 -0.22550951 -0.21157393 -0.050445408 -0.05291691 0.050123226
-0.011620583 0.034456857 0.25679877 -0.264934 -0.423454 -0.8232571 0.15278798 -0.14548564
-0.078196555 0.78582805 0.31048384 0.40064526 -0.18032372 -0.12349039 -0.037210528 0.06968204

layer_2.0.1.conv1.bias f4 [32]
00000000: be75 8fbc ca92 dc3c c93b 243d c63c e83c
00000010: c202 36bd 7c81 5c3c ba47 cf3c 2cc1 61bd
00000020: bd89 183d 6ed0 ba3c 8420 72bc 1445 9cbc
00000030: be41 33bd 8d4d 323d 8f11 fabc c780 663d
00000040: e41b 143c 8217 f1bc 3fb4 1d3d 0e24 e83c
00000050: 91b1 52bd a33d 413d 80d0 f239 ea80 a13c
00000060: cadf 05bd 92c0 a73c a46a 7e3c 0fa9 58bd
00000070: 6729 5c3d 89bf 4e3d 711d 08bd 7fd7 083d
-0.017512199 0.026925463 0.040096078 0.028349292 -0.044436224 0.013458606 0.025302757 -0.055115864
0.037240732 0.022804465 -0.01477826 -0.019075908 -0.04376387 0.04353099 -0.03052595 0.056275155
0.009039853 -0.029430155 0.038501974 0.028337505 -0.05143887 0.047177922 0.00046313182 0.019714791
-0.032684125 0.020477567 0.015528355 -0.0528956 0.05375042 0.05047563 -0.033231203 0.033408638

layer_2.0.1.bn1.weight f4 [32]
00000000: 1ff1 0c3f f454 893f 9193 923f 81c7 aa3e
00000010: 25c8 e73e 2661 aa3f ee7a bc3f d0df 1d3f
00000020: 41ef 4a3f 3e53 f63e e84b c93f 144e 993f
00000030: aab1 913f e5bf a83f 0b1b 273f d713 673f
00000040: 57d5 023f 3190 243f 9f5b 083f c92d 883f
00000050: 08d5 883f 663f ed3e 9c7e 453f 7b43 a23f
00000060: d0ac 9e3f 00fb c23f fce0 b63f df15 463f
00000070: e623 ab3f 3433 8f3f 6e00 933f 69cf 513f
0.5505542 1.0729051 1.1451284 0.33355334 0.45269886 1.3310897 1.4725015 0.61669636
0.7927132 0.48110384 1.572629 1.1976953 1.1382344 1.3183562 0.6527564 0.9026465
0.5110678 0.6428252 0.532648 1.0638973 1.0690012 0.46337432 0.77146316 1.2676843
1.2396488 1.5232849 1.428741 0.7737712 1.337033 1.1187501 1.1484506 0.8195711

layer_2.0.1.bn1.bias f4 [32]
00000000: 10ac a83f b864 8bbd bdc3 85be 2780 2c3f
00000010: 6753 8f3f adeb 1ebe fd3a 27bf 2a06 ca3e
00000020: a56e 3b3e 8e56 8d3f e8aa 17be ef91 e4be
00000030: 6643 92be c308 22bf f0d0 903e fe82 89be
00000040: 58ad 5e3f e8b4 163f 7f81 013f e814 82be
00000050: b0b3 9ebe 3f4f 713f b1e0 023e 38a8 2dbf
00000060: db32 c7be b585 83bf e34b 37bf 217e 78bd
00000070: 1b94 4abe 705f e6be e82d 06bf 5485 22be
1.3177509 -0.0680632 -0.261259 0.67383045 1.1197327 -0.1551959 -0.65324384 0.39457828
0.18303926 1.1042039 -0.1481129 -0.44642588 -0.28567046 -0.6329462 0.28284407 -0.26857752
0.8698325 0.5886979 0.5058822 -0.25406575 -0.30996466 0.94261545 0.12781025 -0.67834806
-0.38905987 -1.0275179 -0.7160017 -0.06066716 -0.1978306 -0.44994688 -0.524138 -0.15871173

layer_2.0.1.bn1.running_mean f4 [32]
00000000: 5b46 3041 b660 0ec2 0087 1dc2 b6e6 8b41
00000010: 6d98 21c0 73da 82c1 c6c2 5bc2 1e8e f8c0
00000020: 49ac 5ac1 4a05 5d41 baf3 10c2 56fe 4fc2
00000030: 75cd 5bc2 ea32 52c2 870a 55c0 7236 61c1
00000040: 9a71 60c0 cd63 d2c0 6764 dfbf 034f 21c2
00000050: 2205 a0c1 9f9f 3941 3dbf 16c1 b4a1 59c2
00000060: a421 22c2 a525 9bc2 080c 99c2 5dca bfc1
00000070: 4718 f3c1 4a98 4fc2 805c 16c2 499a 03c2
11.017177 -35.594444 -39.381836 17.487652 -2.5249283 -16.356665 -54.94021 -7.7673483
-13.667062 13.813791 -36.238014 -51.998375 -54.95064 -52.54972 -3.3287675 -14.075792
-3.5069337 -6.5746827 -1.7452515 -40.32716 -20.002506 11.60147 -9.421689 -54.407913
-40.532852 -77.573524 -76.5235 -23.97381 -30.386854 -51.89872 -37.590332 -32.90067

layer_2.0.1.bn1.running_var f4 [32]
00000000: bd2b d243 fb44 0045 7aa3 9044 026b 3044
00000010: e029 5943 42cb 3245 59dc 0b45 6a9b d343
00000020: 2f6a 3944 2836 ab43 4f11 a645 a15f 9345
00000030: b96c 8245 938d 6145 3da4 cd43 f92b 9f44
00000040: e401 1344 05d7 1444 93b6 a943 587c 2845
00000050: 61b8 7f44 5464 9c43 9c21 0844 cb99 6845
00000060: 4a5c 3d45 a0b3 e745 9e36 9945 1425 c444
00000070: 867c 2945 6aa8 1945 3cc3 0b45 3552 ef44
420.3417 2052.3113 1157.1086 705.672 217.16357 2860.7036 2237.7717 423.21417
741.6591 342.4231 5314.1636 4715.9536 4173.5903 3608.8484 411.2831 1273.3741
588.02954 595.3597 339.42636 2695.7715 1022.8809 312.7838 544.52515 3721.612
3029.768 7414.453 4902.827 1569.1587 2711.7827 2458.526 2236.2021 1914.569

layer_2.0.1.conv2.weight f4 [32, 32, 3, 3]
00000000: a6a6 663d 4b34 033d 2661 2b3e 1e0b 0abd
00000010: 5cbc a7bc 9e55 07bc 7b34 83bd f0b4 5cbb
00000020: e099 47be 823b edbc 205c 6d3d 37d9 febc
00000030: 92a7 87be c467 103e e854 b33d 694d dd3c
00000040: 1817 b2bc dbba 313c 21a4 64be 2168 c2bd
00000050: 00ee 44be 3ecb 29be c37e aabd 5308 cebd
00000060: 0327 68be e920 a2bd b3da 5ebe dbcf 2fbe
00000070: ad8a acbd bdc7 fc3d 2a17 a1bc 42e1 dc3e
00000080: 35bd a43e ce85 27bd 3fd3 1ebe 5e7a 003e
00000090: 48ed 93bd f648 ccbd 0ebd febd dc1b 7a3d
000000a0: dcfb 823c b75f eb3c 6ad4 e73d 39fb ac3e
000000b0: 62a6 b93d 03d5 663d c81b 503d df3c 8cbd
000000c0: 86a2 bfbd 0e5a e83d c337 bfbd 96e2 ddbd
000000d0: 9cc0 1fbd 96e1 2ebd ae07 01be 3a94 12bd
000000e0: da5b 72be cb19 d03d afe3 83be 8952 07be
000000f0: cac1 a7bd 9708 97bd b022 0cbe 9320 c33d
00000100: 5845 723d fd13 bdbc 29e3 973d cbb5 b13c
00000110: 217d c7bc 0ca3 35be cf25 64be 99da 18be
00000120: 29b2 48bb 2027 0f3d 1f14 a33d ba0c b03d
00000130: 58b0 633e 8e40 033e 25b2 7c3d ad9b 893d
00000140: 7942 883d 9487 3c3b de8d e6bc ba48 eabd
00000150: ae03 aabc 0fc7 673d e59f 03bc 73b7 02bb
00000160: 9c10 b93c 8546 7a3a 983a c7bd ad37 223d
00000170: e572 02be 27d6 1abe 5cbd 693e bf64 3b3c
00000180: f515 e2bd 5aa8 32be 85be 90bd e610 0e3e
00000190: 543b 633a ada4 e93d 9c77 923d 87d9 52bd
000001a0: 1200 dfbc e515 80bd d9ab f2bd ec6f b4bd
000001b0: de02 b53d a83f a53d f878 be3d a393 a6bc
000001c0: 41bc 633d c20b 5fbd 9af4 c13d bcc6 793d
000001d0: 4790 493d 1d7c aabc 9387 79bd 1ab0 463d
000001e0: 7ec4 783c 9909 793d a7bb 323e bcda 073d
000001f0: 773e cb3d 5731 603e 6c07 8d3b a138 f83d
00000200: 2b59 cbba b33d 94bb 60c2 6a3d 2cbe 233d
00000210: 4891 dfbc 21a8 aebc df32 7a3d 004d ddbd
00000220: bdf3 b83a 7cfd 10bd 635e 17be 208d 093d
00000230: 1202 d53c 9ec8 b3bd d859 24bc 82c4 1bbd
00000240: 8060 6c3d 6afd 5dba 5900 283d 7323 b3bd
00000250: c19c b0bd 9535 05be f7a8 42bd 5129 f5bd
00000260: aade 06be 4d7d c43d c6d8 813c a34d 3ebb
00000270: 6ef3 883c 0f91 2e3d 7c19 62bb 588b b33d
00000280: db55 a53d 2db3 1bbd 7261 cdbd 31c4 e8bc
00000290: ef7e cbbc a4ee a6bc db61 9dbd 6c34 ffbc
000002a0: f588 933d 2603 3a3e 7ad2 153e 8622 b4bd
000002b0: 9ca0 3abd 0734 97bc 4f14 5abd 8e7e f3bb
000002c0: dc12 f2bc 9bf9 4a3d f09f 9c3d 4667 e03d
000002d0: d1a2 91bd a4da 33be 4b52 1ebe f93c dd3a
000002e0: 0176 d1bc e6de 7bbd 826b 6fbd 4d4c f5bc
000002f0: 8f7e 25bd bd6a 3e3e 878d 983d ffe8 9fbd
00000300: 0bff 6c3d 5acb 06bc bef9 16bd ec33 953d
00000310: 1f91 acbd 3d7b c8bd d910 063c 0542 6f3d
00000320: 2757 48bd 6aaa 7abd f407 8e3c 0e0a b0bd
00000330: c7b8 a8bd 71ac 93bd b5e5 40be 26cc 553d
00000340: b606 163d 8e7f 863c a978 553d 6e20 a23d
00000350: b832 423d 3cb0 a43d 3c26 8b3d 9d94 8a3d
00000360: 5e7c e2bb b223 18be 6ad5 373b 97d9 0b3c
00000370: 5b21 16be eaa7 7cbb 466c 4ebc dbce f0bc
00000380: 08c8 9c3d 4f2c 94bd b681 203d a4db 8abd
00000390: 0326 913c 3452 833d 95bf 803d 4ab8 2a3d
000003a0: df26 5f3e 12f1 3f3d dd9d f4bd e013 a03c
000003b0: 747a 26bc 67a3 543d c310 863d fe4f 993c
000003c0: f4e5 253d 2dd8 343d 6d9d 813c 9cda 94ba
000003d0: a6e2 873d 27a7 903c bb65 5bbd 6df3 e43d
000003e0: 1a9e 023d 8eff a43d 91de b1bd 06f9 f5bd
000003f0: d959 d93c b81a 9ab9 08fb d63d 490a 933d
0.056311272 0.032032292 0.16736278 -0.03370201 -0.020475559 -0.008260159 -0.06406494 -0.0033677183
-0.19492292 -0.02895904 0.057949185 -0.031109435 -0.26495034 0.14102083 0.08756429 0.027014451
-0.021739528 0.0108477725 -0.22328235 -0.09492517 -0.19231415 -0.16581437 -0.08324959 -0.100601815
-0.22671132 -0.07916433 -0.21763115 -0.17169134 -0.08424888 0.123427846 -0.019664366 0.43140608
0.32175604 -0.04089909 -0.15510271 0.1254668 -0.07222992 -0.09974854 -0.12438403 0.061061725
0.015989237 0.028732164 0.11319812 0.33785418 0.09064938 0.056355488 0.050807744 -0.06847548
-0.09357171 0.113453016 -0.093368076 -0.108342335 -0.039002046 -0.042695604 -0.12600586 -0.03578589
-0.23667851 0.101611696 -0.25759646 -0.13215078 -0.08191259 -0.07374685 -0.13685107 0.095276974
0.059148163 -0.02308082 0.07416374 0.021693131 -0.024351658 -0.17737979 -0.22280048 -0.14927138
-0.003062377 0.034949422 0.07962822 0.085961774 0.22235239 0.12817594 0.06169333 0.06719146
0.06653304 0.0028767334 -0.02814382 -0.11439653 -0.020753708 0.05658632 -0.008033727 -0.001994577
0.022590928 0.00095472514 -0.09727973 0.039603878 -0.12739141 -0.15120755 0.22826141 0.011437594
-0.11039344 -0.17447034 -0.07067589 0.13873634 0.00086682034 0.114083625 0.0715172 -0.05147698
-0.027221713 -0.06254176 -0.118491836 -0.0881041 0.088384375 0.08068782 0.09300417 -0.02033407
0.055599455 -0.054454572 0.09470482 0.060980543 0.04920986 -0.020811135 -0.06092031 0.048507787
0.015183566 0.06080017 0.17454396 0.033167586 0.099240236 0.21893822 0.0043038633 0.12120176
-0.0015514245 -0.0045239567 0.057314277 0.039976284 -0.027290955 -0.021320404 0.06108367 -0.10805702
0.0014110726 -0.03539799 -0.147821 0.033581853 0.026001964 -0.08778499 -0.010031186 -0.0380292
0.057709217 -0.00084682426 0.041015957 -0.08746996 -0.086236484 -0.13008721 -0.04752442 -0.11970771
-0.13170877 0.09594212 0.015850436 -0.0029037974 0.016717639 0.042618807 -0.0034500053 0.08766812
0.08073016 -0.038012672 -0.10028352 -0.028413864 -0.0248408 -0.020377465 -0.0768468 -0.031152926
0.07203857 0.18165264 0.14631072 -0.08795647 -0.045563325 -0.018457426 -0.053242024 -0.007430858
-0.029550008 0.04955445 0.07647693 0.10957198 -0.07111133 -0.17563874 -0.1546108 0.0016879133
-0.025568964 -0.06149187 -0.058452137 -0.02994361 -0.0404039 0.18595405 0.07448869 -0.07808112
0.057860415 -0.008227194 -0.036859266 0.07285294 -0.08426117 -0.09789131 0.008182728 0.05841257
-0.04891124 -0.061197676 0.017337777 -0.08595668 -0.082383685 -0.07210625 -0.18837626 0.052196644
0.036627494 0.016418245 0.052117024 0.07916342 0.04741165 0.080414265 0.06794402 0.06766627
-0.0069117984 -0.14857367 0.0028050789 0.008535764 -0.14661162 -0.0038552233 -0.012599057 -0.029395511
0.076553404 -0.07235014 0.039186202 -0.067801744 0.01771832 0.064121634 0.062865414 0.041679658
0.21792172 0.046860762 -0.119441725 0.019540727 -0.010161031 0.051913645 0.06546166 0.018714901
0.040502504 0.044151474 0.015822137 -0.0011356655 0.06635027 0.01765783 -0.053563815 0.11179242
0.03188906 0.08056556 -0.08685029 -0.12010388 0.0265321 -0.00029393076 0.10497099 0.07179696
