checkpoints/pannet_model/pannet_model_2023_07_19-18_16_37_best_eval.pth.tar (torch, 803715 bytes, 92 tensors)

layer_0.0.weight f4 [4, 4, 8, 8]
00000000: cb2e c0bd be09 a63b 5585 c7bc 4c46 9e3e
00000010: 9944 913d 8307 c43d 64f4 5e3b e8e8 a7bd
00000020: f764 1c3d b1fe afbd 4e69 473d a0d9 4fbd
00000030: 27a3 353d fa80 8ebd 0421 153b 6f42 ba3c
00000040: 56e9 393e adf4 923c 7964 59be 7f12 06be
00000050: 7e17 7dbe e9f1 d4bd 7c68 103e 2c40 a13d
00000060: 40cc 183e f6d0 2e3a ac49 03bd 5bcc b0bd
00000070: d4f7 bcbd fe90 e6bc b460 f5bb d154 203e
00000080: 2b59 453e 4c23 b5bd fc0a 47bd b87f 56be
00000090: 79f0 12bd cf6b 14be 4cf0 0f3e 4058 b03d
000000a0: 7f6f a83d a851 823c 8864 38be e9dd 3b3d
000000b0: 6363 62be 5318 383c 1e46 493c 863a 97bb
000000c0: fbef 7cbd 5a10 923a 4126 c83d 5b32 e93d
000000d0: 6455 ee3d 4db0 c63d ab08 f73c 6105 bfbd
000000e0: 7ab6 a8bd 655c 913b 8921 5b3d 644a ea3d
000000f0: b56c ac3d e523 a23a 7a05 05bc 6a70 b7bd
00000100: 6c8a 1b3d ac55 d0bc 2796 ab3b 251e 03bd
00000110: 8b81 323d 1beb d83c 9336 d23d d1f9 143d
00000120: 2e1d 4f3d 68d5 8e3d e6e2 5ebd 9f9e 5ebd
00000130: d376 20bd b529 91bd f168 103d 17f6 4c3d
00000140: cd23 74bd 01dc 053d b848 bf3c b8f9 b63d
00000150: 4976 fd3c afb1 e53c 68bf f03b 1db6 18bd
00000160: ffbc e8bc bc53 afbc d488 bf3d f0ef 143e
00000170: cc01 5d3e 744f 9c3c dc16 793d 0ab0 ddbd
00000180: a224 bcbc 6c43 aa3d fabf 44bd 0b28 313e
00000190: ba78 8fbd 6040 9e3d 9fa2 89bd 5165 84bd
000001a0: 783c cb3b 3b3b 88bd c94d a53d e95a a73d
000001b0: 41c1 1f3d 0860 c23c 5424 7d3c ae26 edbd
000001c0: 8f3e 083d 12a4 883c e274 83bc 16bf 4f3d
000001d0: b7a9 8d3b fe04 8e3d 0ca7 a63c 1927 3ebc
000001e0: 71e6 313d 0347 a9bc f20a 47bd 6c1b 42bd
000001f0: 3429 b4bd 7872 6cbd 474b 6a3c 5700 ee3c
00000200: 51e1 a93d 42f4 d53c a8db 423d e996 323d
00000210: 923c bbbd b24a c7bd 08fd 83bd 81a0 b2bd
00000220: 83df 0d3d e033 0abd 0549 86bc 881f 5ebd
00000230: e26e 69bb e8ee e5bd e82f 33bb 1824 12bd
00000240: 709d 083d 4b0e c6bc 83a6 68bd 56c1 13bd
00000250: fa72 833d 034d 3fbd bdc0 0d3e 8e2a 6fbc
00000260: 3e5d 38bd 6994 973d e186 00be 85cb 003e
00000270: 17fd 4dbc da95 a43c b211 913d d116 d43c
00000280: 823c a3bd 39fe 433d a898 48be e860 683d
00000290: f8a0 f6bb 0ff7 6c3d 323e b53d 8d9b b73d
000002a0: b5e3 b23b 93fd b03c 2f05 ffbd 9108 d63d
000002b0: 5ab7 b3bc 4cf7 ca3d d4a7 8c3d 56b1 893d
000002c0: cdba 773c a78f 14bd 2c54 a53d 3b01 333c
000002d0: 34e0 503d a6fe 043d 3247 f73b ac4b 44bc
000002e0: 330a 443d 8e8e 0e3c c2cb 7e3d 15a6 a43c
000002f0: fc2f a5bd 5150 94bd 2c11 50bd 4997 c7bd
00000300: 5da4 03be 33ea 0c3d 27b0 5b3c 2d64 0e3e
00000310: 3554 ac3d 0fa9 923d a0c2 203d 4855 52bd
00000320: f79f 8f3d 3fce abbc 88f0 d73c e04f c4bb
00000330: 1da3 8e3c f687 c43c 5e48 cc3c b484 633d
00000340: 232d 933d 02d3 97bc ca52 c7bb 2d2d c5bd
00000350: e290 6cbd 0424 7ebc ef41 8bbd bced 413d
00000360: 7373 e43d f161 31bd 4f79 95bd a691 61be
00000370: 894c 80bd f01c efbd 320c 14bd a1cd 193e
00000380: 9ee8 173e a637 3d3d 4722 84bd 1814 95bd
00000390: c77d 3fbd 9a6c f7bc 8b46 84bd 18d8 ea3d
000003a0: 6c46 a13d 6846 cfbc e919 b1bc 0198 59bc
000003b0: 8dc6 d3bd e0fd d5bd 75bc 7cbc 3c92 6c3d
000003c0: bf3f 823c b900 3d3d 7d73 a2bd a1d1 f0bd
000003d0: ad2c 92bd b2b4 a9bd 4c51 04bd c0e2 213d
000003e0: d864 a7bd 50f8 5c3c 625b 873d d4bd 4e3e
000003f0: 6876 3b3e 5e91 983d 136a 873d 0258 ffbd
-0.09383925 0.0050670793 -0.02435557 0.30913007 0.07093162 0.09571745 0.003402018 -0.0819872
0.038182225 -0.085935004 0.04868441 -0.050744653 0.044345047 -0.06958194 0.0022755275 0.022736756
0.18155417 0.017938936 -0.21229734 -0.13092993 -0.24715993 -0.10397703 0.14102358 0.07873568
0.14921665 0.0006668711 -0.03205268 -0.08632728 -0.09226957 -0.02814531 -0.0074883346 0.15657355
0.19272296 -0.08844623 -0.04859446 -0.20947158 -0.035873864 -0.1449425 0.1405651 0.08610582
0.08224391 0.015908077 -0.180071 0.045865927 -0.22108226 0.011236268 0.012284784 -0.004615131
-0.0617523 0.0011143789 0.09772921 0.11386558 0.11637381 0.097015955 0.0301555 -0.09327198
-0.0823793 0.004436063 0.05349878 0.1143997 0.08419172 0.0012370317 -0.0081189815 -0.08956988
0.037973806 -0.025431477 0.0052364054 -0.03201117 0.043580573 0.026479295 0.102643155 0.036371056
0.050564937 0.06974298 -0.054415606 -0.05435049 -0.03917582 -0.07088033 0.03525633 0.050039377
-0.059604455 0.032680515 0.023350105 0.08934349 0.030940192 0.028038828 0.007347036 -0.03728305
-0.028410433 -0.021402232 0.0935227 0.14544654 0.21582717 0.019080855 0.060812816 -0.108245924
-0.022966687 0.08313641 -0.048034646 0.17300431 -0.07005449 0.07727122 -0.06720471 -0.06464637
0.006202277 -0.06651922 0.08071477 0.081716366 0.03900266 0.023727432 0.015450556 -0.11579643
0.033262786 0.016679797 -0.016046945 0.050719343 0.00432321 0.06934546 0.020343326 -0.011606001
0.043432657 -0.020663744 -0.048594423 -0.047389433 -0.08796921 -0.057726353 0.014300174 0.029052896
0.08294929 0.026117448 0.04757276 0.04360095 -0.09142412 -0.09731044 -0.06444746 -0.0872202
0.034636986 -0.033740878 -0.01639224 -0.05422929 -0.003561907 -0.112272084 -0.0027341787 -0.035678953
0.03335327 -0.024176737 -0.056799423 -0.03607305 0.064184144 -0.046704303 0.13843055 -0.014597548
-0.045010798 0.07401354 -0.12551452 0.12577637 -0.012572548 0.020090986 0.07083453 0.025889786
-0.07970525 0.047849867 -0.19589484 0.056733042 -0.007526513 0.0578528 0.088497534 0.08965216
0.0054592737 0.021605289 -0.124521606 0.10450853 -0.021938015 0.099104494 0.06867948 0.06723277
0.01512022 -0.03626981 0.08072695 0.010925586 0.050995067 0.032469414 0.007546329 -0.011980932
0.04786129 0.00870098 0.062206037 0.020098725 -0.08065793 -0.07241882 -0.050797626 -0.09745652
-0.12855668 0.034403037 0.013408697 0.13905402 0.08414499 0.071611516 0.03924811 -0.05135086
0.07012933 -0.02097237 0.026359811 -0.005990967 0.017411763 0.023990612 0.024936851 0.055546477
0.071863435 -0.018533234 -0.0060828673 -0.09627757 -0.05775536 -0.0155115165 -0.06799685 0.04734586
0.11154833 -0.043306295 -0.072985284 -0.22028217 -0.06264598 -0.11675441 -0.036144443 0.15019847
0.1483483 0.04619565 -0.064518504 -0.07279223 -0.04675081 -0.030203152 -0.064587675 0.11466998
0.0787476 -0.025302127 -0.0216188 -0.013280869 -0.10340605 -0.104488134 -0.015425791 0.057756647
0.015899537 0.046143267 -0.07932184 -0.117587335 -0.071374275 -0.08286418 -0.032304093 0.039522886
-0.08173531 0.013486937 0.06609227 0.20189601 0.18306887 0.074496016 0.06612029 -0.12467958

layer_0.0.bias f4 [4]
00000000: c6eb 8ebd 40f7 54bd ce79 303d 9ed1 45be
-0.06978564 -0.05199361 0.043084912 -0.19318244

layer_1.0.weight f4 [32, 5, 3, 3]
00000000: 486f 3abc 1463 1a3c 9ba4 07bc dc87 613b
00000010: 25bd d6bc d8de a9bb 51fa 53bb 13f5 4f3d
00000020: 749d e8bb bbca 2c3d 5bab ed3c 1329 b83c
00000030: 644d 223d 65b7 443d c3b4 123d fdf2 043c
00000040: 9158 873c 55a2 423d b429 893a 085d 64bc
00000050: 7f1f e9ba 1d1d c33c a1bf 173c 7ef3 b73c
00000060: c5c3 033d 31c8 d33c f195 9d3d 5f60 093d
00000070: 1cf6 28bd 8b61 20bb d121 403c bf44 82bc
00000080: fa8e 21bd 28ba 2f3d 78fc 58bc 2b77 0abd
00000090: bae7 993c b03b a43c 2372 863c 729d a33c
000000a0: 7aab e9bb 31c3 ae3c 4ae6 f63b 6ddf 2abc
000000b0: 0018 0f3d d1d8 0eb9 7f64 c43a 8280 23ba
000000c0: 55aa 1c3a ac6c 4eba 14b1 953a f7fe 06bb
000000d0: d6cd 0dba 65b2 12ba e4f7 d7bd 9b29 19be
000000e0: 1615 cfbd 567d 9bbd 29e3 3b3d 3c8b 68bd
000000f0: d07f 36bd 9f96 983d 4cc1 9e3c a245 db3c
00000100: ecdd 953c a129 ac3c 8005 1fbe 21a3 2cbe
00000110: 3605 10be 8109 063d 1e3c 4e3e 5a12 8b3d
00000120: 15da 2d3d df88 0b3d 85b5 3a3d 5552 563b
00000130: f4b7 90bd 5a6c 963b 3b04 363d 665c 083d
00000140: 1ee3 983c 399e 073e 49ea 313d 0e95 323e
00000150: 492b e23d 7e36 97bc 9f44 1c3e 8d7a 6f3e
00000160: 9464 db3d e4f7 563d 0ce3 103a dad1 a13b
00000170: f671 e4ba 4407 583b 249a 0ebb 17b5 78bb
00000180: 6232 c1bb fb3b aeba fa93 0fbc c7c9 19bc
00000190: f933 c83b 7d19 863c 09ba adbd 13f2 e8bb
000001a0: 11e8 7cbd 4b95 99bc b0d0 9dba ecd2 8c3c
000001b0: 1f1b 5bbd f257 75bc 8965 e8bc d687 d93c
000001c0: 2943 1abc 6d57 babc 581b 08be 9674 f9b9
000001d0: 9ac8 ddbd f0af a1bb 1b9a d4ba 1420 193c
000001e0: 8b26 6abc 045a 2e3d 6216 37bd e5e7 0cbd
000001f0: 048f e13c b853 923c f083 bcbc 60cb a6ba
00000200: 301b 633c d474 82bc 4970 47bb 80c3 92bc
00000210: b2f4 1abc 37c9 423c be7e 6e3c 60e9 8a3a
00000220: e2ec 653b 719b 6fbc a0a8 58ba 14d3 e4ba
00000230: 990a 5d3b 78b6 36bc 12b7 a33b 42db a8bc
00000240: 8286 8a3b 14c6 dc3c 659d c7bc c83a 01bc
00000250: 98b7 c23d 7978 19bc 26c3 b63c c66a 0f3d
00000260: cd64 103e aac6 053e 5d82 74bd 24fe b2bd
00000270: cfb0 ebbc 0712 cfbc 496b f8bd eef4 0a3d
00000280: 506c 64bb caab b93d 2149 7abd d861 983d
00000290: 4672 edbd 98fb 8dbc ca92 55bb ac25 99bd
000002a0: 7b50 54ba eee6 81bb 2d2c d4bd f08e ab3c
000002b0: 6d17 253c 2bec f7bb d045 7bbc 31ab 0b3c
000002c0: a5a6 313d c1bb de3c 3019 7e3c 25c9 013d
000002d0: 31f9 32b9 1ba1 23ba 5ccf 013b 2489 23ba
000002e0: c8b1 6b3b a112 52bb ecb8 9d39 f387 46ba
000002f0: 094f 9f3a 728f ae3d 1c9c 1cbe 9b28 473d
00000300: ca0a 0f3c b255 b73e cee1 86bd aec4 2c3d
00000310: 53db 9dbd 8ec5 513d bee3 7ebd 39c6 d7bc
00000320: e474 e1bd 7fae c83d f484 443d ed93 0bbe
00000330: b3e3 c33d 6608 833c df6c 32bc fddf 0bbe
00000340: c15d 403e 7e95 c3bd 82b4 20be 10df 6e3e
00000350: e294 5bbc 1f63 03be 0a7a 0b3e b9e1 173d
00000360: 7860 503d 80c6 96bc a8b9 023d 20f4 f43c
00000370: 3bd8 da3d 5260 3e3a 1ff4 263d 443e 04bd
00000380: 0492 c03c 7d7e 443c 6956 d93c b16b 66bc
00000390: 3ff2 e23c b80d 67be 7ed0 3a3d eda9 29bc
000003a0: 5bcd 813d 66a2 723c 3325 8f3a 0bbc 13bd
000003b0: a3ba 553c e30e 063c 801b f83b 87f6 07bd
000003c0: 1c58 ad3c 0f06 b2bc 46e8 e2bc 4669 c9bc
000003d0: 36fd 383c 414e 323c 0824 1fbd 3938 1e39
000003e0: 1364 693b bf8f 213d 2a0d 0b3b 5428 8ebc
000003f0: d835 64bd 688a 613d 3cfc 223c 518b c1bc
-0.011379071 0.009423036 -0.008278991 0.0034413254 -0.026213238 -0.0051840357 -0.0032345245 0.05077083
-0.007098848 0.042185526 0.029012373 0.022480523 0.039624587 0.04802646 0.03581692 0.008114574
0.016521724 0.047518093 0.0010464699 -0.013938196 -0.0017785876 0.023817593 0.0092619965 0.022454973
0.032169122 0.025852295 0.07694615 0.033539172 -0.041250333 -0.0024472203 0.011726812 -0.015901921
-0.039442994 0.04290214 -0.013243787 -0.033805054 0.018787254 0.020047992 0.016411847 0.019972537
-0.0071310373 0.021333309 0.007534777 -0.010429245 0.034934998 -0.00013622946 0.0014983563 -0.00062371057
0.0005976309 -0.000787447 0.0011420571 -0.0020598748 -0.0005409395 -0.0005596041 -0.10545328 -0.14957277
-0.10111444 -0.07592265 0.045870934 -0.05677341 -0.044555485 0.07450604 0.01937928 0.026766602
0.018294297 0.021015944 -0.15529442 -0.16859104 -0.14064488 0.032723907 0.2014012 0.0679061
0.042444307 0.034066077 0.045583267 0.0032702882 -0.07066336 0.004590553 0.04443763 0.033291243
0.018662985 0.13243951 0.043436322 0.17439672 0.11043412 -0.018458601 0.15260552 0.23386593
0.10712543 0.0524825 0.00055269967 0.0049383463 -0.0017428983 0.0032963315 -0.0021759355 -0.0037949735
-0.0058958987 -0.0013293022 -0.008763308 -0.009386486 0.0061097112 0.016369576 -0.08482749 -0.0071089356
-0.061744753 -0.018747946 -0.0012040343 0.01719042 -0.05349266 -0.014974581 -0.028368728 0.02655403
-0.009415426 -0.022746766 -0.13291681 -0.00047579844 -0.10829277 -0.0049343035 -0.0016220243 0.009346027
-0.014291416 0.042566314 -0.04469908 -0.03440084 0.027534015 0.017862186 -0.023012131 -0.0012725405
0.0138614625 -0.015924849 -0.0030431917 -0.017915487 -0.009457754 0.011888794 0.014556585 0.0010598116
0.003508382 -0.014624462 -0.0008264873 -0.0017457926 0.003372824 -0.011151902 0.004996189 -0.020612363
0.0042274604 0.02694992 -0.024367044 -0.00788755 0.09507674 -0.009367102 0.02230985 0.035013936
0.14100952 0.13064066 -0.059694637 -0.0873988 -0.028770832 -0.02527715 -0.12129838 0.03392499
-0.0034854598 0.09065969 -0.061104897 0.07440537 -0.115940616 -0.017331883 -0.0032588714 -0.074778885
-0.0008099151 -0.0039642965 -0.10359988 0.020942181 0.010076386 -0.007565995 -0.015336469 0.008524702
0.043371815 0.027189137 0.015508935 0.031685967 -0.00017068234 -0.0006241963 0.0019807434 -0.0006238392
0.003596412 -0.003205456 0.0003008315 -0.00075733586 0.0012154292 0.08523454 -0.15293926 0.04862271
0.0087306 0.35807568 -0.065860376 0.042179756 -0.077078484 0.051213793 -0.06222891 -0.026339637
-0.11008623 0.097989075 0.047978356 -0.13630648 0.095649146 0.015995216 -0.010890215 -0.13659663
0.18785764 -0.09549998 -0.15693858 0.23327279 -0.013402196 -0.1283078 0.13620773 0.0370805
0.05087325 -0.018405199 0.031915337 0.029901564 0.10685774 0.00072622776 0.040760156 -0.032285944
0.023507126 0.011993048 0.026530461 -0.014063762 0.027703403 -0.22563827 0.04560899 -0.010355455
0.063379966 0.014809227 0.001092112 -0.036068004 0.013044986 0.00818226 0.0075716376 -0.03319409
0.021160178 -0.021731405 -0.027698647 -0.024586331 0.011290839 0.010882915 -0.03885272 0.00015088999
0.0035612627 0.039443728 0.0021217563 -0.017353214 -0.055715412 0.055063635 0.009947833 -0.023626002

layer_1.0.bias f4 [32]
00000000: 1a0f fb3c 8f08 4e3c b2b0 c93b 21ea a33e
00000010: 21e6 beba 7726 ce3d f6d5 9a3e 8c1d b43e
00000020: 2e9e c13d a0f5 4c3d b975 0b3d 8be7 403e
00000030: 4d0f a03d c2ea 803c cadc ae3e 9082 373c
00000040: 80ce b7bc e102 0f3e c00e 8abd 93ac f93d
00000050: bb2d a23d 4e8b 6bbd 8c61 04be 68af 43bd
00000060: 6c06 1f3e 4efd 943c 715a 543d b24a a53d
00000070: b86a 20be e207 28be 6cd2 20bd 67fb 923d
0.03064685 0.012575283 0.006155097 0.32014564 -0.0014564433 0.1006593 0.30241364 0.35178792
0.094539985 0.050038934 0.034047816 0.18838327 0.078154184 0.015736941 0.34152824 0.011200562
-0.022437334 0.13965942 -0.067410946 0.12191119 0.07918879 -0.0575059 -0.12927836 -0.047774702
0.15529794 0.018187191 0.051844064 0.080708876 -0.1566571 -0.16409257 -0.039263174 0.071768574

layer_2.0.0.conv1.weight f4 [32, 32, 3, 3]
00000000: 366e 8e3d 782f 22bd 099b aebc 3fc0 d53c
00000010: 1b28 f9bc 0904 3bbd 48c5 983d c010 d6bc
00000020: 5e71 d3bb d2ca e03d 519e cbbd 6b41 e3bc
00000030: f16e 563d 9762 f7bd b906 b9bd 9074 c8bc
00000040: 569c e1bd 2ac6 99bd f462 0f3d 0d43 293c
00000050: 74ef 2a3d 9989 683c e711 263d 0c76 d6b9
00000060: bdd8 fe3c 4d19 58bd 7e0a 05bd f7cc 1f3c
00000070: 3f30 5dbc 5ff6 053c 200d 2b3d 5d61 83bc
00000080: a713 663c e460 80bd 2673 a4bd d968 f0bd
00000090: 5c66 953d 5a88 0abd f59a 613d 7ade c53c
000000a0: 746c 32bb fdfe c33b b4f1 143e 2999 a03d
000000b0: c6c0 aa3d 73fe 853c 22da 963d 18fc 103d
000000c0: d0bd 0cbb da03 2e3a d8c7 b8bb 4667 debb
000000d0: 021a e13c 761c ba3b bdb2 003c 7044 dfbd
000000e0: 08a3 183d 735d 7fbd 0907 b2bd 19c8 f4bc
000000f0: 6406 c63d d579 90bd 5f04 88bc aaa7 983c
00000100: 354c e63c e6a5 583d 20a9 32bd d5f1 13bd
00000110: 4b18 6abd a58b 053c ad3b 94bc 857e 0b3b
00000120: 9a68 443d a5a1 3ebd 7f01 64bc b3a1 e8bb
00000130: 4d1b 94bd 0478 d03c 5112 cf3d 3134 67bd
00000140: ae59 813c 143f 5bbc a26e 3ebd d743 10bd
00000150: 6122 1d3d 8aae 0dbd 4aeb 4d3d 1975 6b3c
00000160: 6a0c c8bc 72d0 1dbc ffc0 d53c f7b0 9d3d
00000170: be04 03bd c440 7abd 7f00 1c3c 0ec7 84bc
00000180: e13f 04bd 8405 933d 2241 c23c f5f6 47bd
00000190: cd17 12bd 77f6 69bc b87c 303c 9143 6d3c
000001a0: 2235 673c 772f 82bd 1473 e0bd 468d 48bd
000001b0: 9767 1e3d 6b6d dabc b42e 03bd ce16 07bd
000001c0: eb65 2f3d 8f3b e2bc b9e9 d0bd feec b7bc
000001d0: 13e1 32bd 25a7 88bc e370 8fbc ca85 71bd
000001e0: c634 25bd 3b30 ef3b e0d0 01bd 0001 65bd
000001f0: c771 8abd 4fea e4bd c7f5 9ebd 95c9 d63c
00000200: a14a 873b bf4b 42bd f43e e03d ab5f 7b3d
00000210: 9897 0fbb 263f 2c3e ffb8 743e ddf6 ab3b
00000220: 9d3c 913c 65a9 253d 0f78 81bc 8604 b8bd
00000230: cd70 b6bc 000e 6d3a 1ff0 8fbc 9722 8cbd
00000240: 981b 6abc f5f6 56bd f761 87bc 3be7 86bd
00000250: d42d 013d c242 b7bd e3f6 043c 1748 1b3d
00000260: c822 263d f446 d0bd 5f75 cfbd 5576 483d
00000270: 5190 1cbd 1fb2 91bb 68fb b93d 80ae 4fbc
00000280: 76d7 9d3b 374a 823d 0cd4 e03c e9af c33b
00000290: 3ad1 1b3d b9d7 893c 94db 933c 8831 b13d
000002a0: e454 d03c 63b7 22bd ae25 ff3d 9f3b a4bd
000002b0: dd2f babb 79cf 423d fa45 c23c 96ba 3a3d
000002c0: 5bde 1b3e 9090 69bd d09d dcbb efa4 0e3d
000002d0: f02c 653d 2395 91bc 500d 9a3c 72d4 843c
000002e0: 9074 60bd 2e39 88bb 1d11 943d d5f2 b03c
000002f0: cb48 033d 25ac a93d 844a 17bd f35d 4f3d
00000300: 1207 f93c e280 55bd 9dd8 863d 2530 733c
00000310: 98e3 85bd dd11 523d 069a 73bc a5ce 7d3c
00000320: 39e8 733c 42dd 15bc d50d 8dbc e439 62ba
00000330: 84eb 84bc 617f ae3d a587 25bd 53ec ac3d
00000340: cb93 343d 9c68 ec3c 13c9 a63a 5456 36bd
00000350: b6b6 0abd 9e33 d83d 89c6 b33c 423c a53c
00000360: f842 e23b 9a38 1dbd ee14 3fbc 86d4 3c3c
00000370: 3d4b e3bc f720 a5bd b3e3 a03d 7212 743c
00000380: 5cc8 f63d 7809 37bd 69b6 cebc cbfd 9abd
00000390: 231f 403b a118 e63c 0640 713d 2fa7 be3d
000003a0: ab5c cb3c 6c17 d5bc 714d 9f3c 16fc 0fba
000003b0: bb9a 16bc b0b1 0d3d 1bc2 4abd 9f53 50bd
000003c0: 8baa d53c 4c99 323b 5783 eabb 6bfc 3e3d
000003d0: 170f 5abd a0af 2ebc 77b2 313d 3883 c3bc
000003e0: ad11 013d cde6 8fbc 1cdb 27bd 8ba3 79bd
000003f0: 1296 893c 291e b2bc dd1c 53bb 7837 5c3c
0.06954615 -0.03959605 -0.02131416 0.026092647 -0.030414632 -0.045658145 0.074595034 -0.026131034
-0.0064527234 0.10976185 -0.09942306 -0.027741155 0.052351896 -0.120793514 -0.09034485 -0.024469644
-0.11016147 -0.075085 0.03500648 0.010330928 0.041732267 0.014192962 0.040544417 -0.00040905213
0.031109208 -0.052758504 -0.03248071 0.009753457 -0.013500272 0.008176415 0.041760564 -0.016037637
0.014042771 -0.062684804 -0.08029775 -0.11738748 0.07294914 -0.03382144 0.05507942 0.024153937
-0.0027225288 0.0059813247 0.14545327 0.07841713 0.0833755 0.016356682 0.07365824 0.035396665
-0.0021475442 0.0006638147 -0.0056390576 -0.0067872135 0.027478222 0.0056796623 0.0078551145 -0.10901725
0.037264854 -0.06234498 -0.08692748 -0.02988057 0.09669188 -0.070544876 -0.016603647 0.018634636
0.02811251 0.052892588 -0.04361832 -0.0361193 -0.057152074 0.00815097 -0.018094862 0.0021285128
0.04795132 -0.046540875 -0.013916372 -0.007099354 -0.0723177 0.025447853 0.101109155 -0.056446258
0.015789833 -0.013381738 -0.046492226 -0.035220947 0.038362864 -0.03459028 0.050273217 0.01437118
-0.024419982 -0.009632217 0.026093004 0.07699769 -0.031986944 -0.06109692 0.009521603 -0.016208198
-0.032287482 0.071787864 0.023712698 -0.0488195 -0.03566723 -0.014279953 0.010771923 0.014481441
0.014111789 -0.063567095 -0.109594494 -0.048962854 0.03867301 -0.026663503 -0.03202696 -0.032980733
0.042821806 -0.02761629 -0.10200829 -0.022451874 -0.04367168 -0.016681263 -0.017509883 -0.05896548
-0.04033353 0.0072994507 -0.03169334 -0.055909157 -0.067599826 -0.11177503 -0.07761722 0.026219169
0.0041287695 -0.04743552 0.10949507 0.061370533 -0.0021910425 0.16820964 0.23898695 0.0052479343
0.017729098 0.04044475 -0.015804319 -0.08985238 -0.022270584 0.00090429187 -0.017570553 -0.06842535
-0.014288805 -0.05248161 -0.016526205 -0.065870725 0.031537846 -0.0894828 0.008115503 0.037910547
0.040560514 -0.10169783 -0.10129809 0.048940975 -0.03822357 -0.0044462825 0.09081155 -0.012675881
0.0048169447 0.063618116 0.027444862 0.005971898 0.03804133 0.016826497 0.018049039 0.086520255
0.025431104 -0.039725672 0.12458359 -0.08019184 -0.0056819753 0.047561143 0.023715008 0.0455881
0.1522154 -0.05702263 -0.00673268 0.03482526 0.05595106 -0.01777131 0.018805176 0.016214583
-0.054798663 -0.004157207 0.072298266 0.021600166 0.032051843 0.08284787 -0.036936298 0.050626706
0.03039888 -0.052124865 0.065842845 0.0148430215 -0.06537551 0.051286567 -0.014868265 0.015491162
0.014886909 -0.00914699 -0.01721851 -0.0008629842 -0.016225584 0.08520389 -0.040412564 0.08443513
0.04408626 0.028858475 0.001272472 -0.044515923 -0.033865653 0.1055672 0.021945255 0.020170335
0.006904956 -0.038384058 -0.011662705 0.011525279 -0.027745837 -0.08062928 0.0785593 0.014896976
0.12049934 -0.044686764 -0.025233464 -0.075679384 0.0029315434 0.028087916 0.058898948 0.093092315
0.024824461 -0.026012145 0.019446107 -0.0005492581 -0.009192164 0.034593284 -0.04950152 -0.050860997
0.026082298 0.0027252017 -0.00715677 0.046627443 -0.053237047 -0.010661989 0.043383088 -0.02386628
0.031510998 -0.01756611 -0.040980443 -0.060946982 0.016795192 -0.021742897 -0.0032213249 0.013440959

layer_2.0.0.conv1.bias f4 [32]
00000000: 2e74 bc3c a315 41bd c1fd 34bd 0366 2cbd
00000010: edf1 e2bc d2d5 d03c 02dc a63c 0130 5cbd
00000020: 687c c3bc 811a 663d 15d1 173d 04ec cbbc
00000030: 1bf4 513d 72e0 a03c 2999 61bd 71b7 273d
00000040: df02 683d b613 dfbc d39a 653d e93e 153d
00000050: ea63 64bd 4244 ad3c 423f 36bd 9ba5 ffbc
00000060: 03bf 4a3d 20a6 3bbd 3b22 e3bc 41ae 403d
00000070: 69b9 08bd d854 2dbd 318b 463d fed7 04bd
0.023004618 -0.047139775 -0.04418731 -0.042089473 -0.02770325 0.025492582 0.02036858 -0.053756718
-0.023863032 0.05617762 0.03706463 -0.024892814 0.051258188 0.019638274 -0.055077706 0.040946428
0.056643363 -0.027231079 0.056055855 0.03643695 -0.055759348 0.021150712 -0.04449392 -0.031206897
0.04949857 -0.045812726 -0.027726283 0.04704118 -0.033379946 -0.04231724 0.048472587 -0.03243255

layer_2.0.0.bn1.weight f4 [32]
00000000: b326 713f adfc 483f 71b2 7f3f 7875 703f
00000010: a88c 5b3f a623 8b3f 0f16 7d3f c355 843f
00000020: 3b6e 793f f5fb 543f 75ec 5b3f 11d3 823f
00000030: c6de 803f 5d3b 933f bc6b 843f 1bdf 803f
00000040: 7f64 863f 5b1f 8f3f 4f3a 733f 69e6 833f
00000050: 33e3 823f 714f 773f 89a9 6a3f a85f 773f
00000060: f0c7 873f 315a 753f f714 7d3f b147 803f
00000070: 7fb6 8e3f 3c8e 853f 15e9 653f a1e0 823f
0.94199675 0.7851055 0.99881655 0.93929243 0.857615 1.0870254 0.98861784 1.0338672
0.97433823 0.83196956 0.8590768 1.0220662 1.0067985 1.1502491 1.0345378 1.0068086
1.0499419 1.1181444 0.95010847 1.0304691 1.0225586 0.9660559 0.9166494 0.96630335
1.0607891 0.95840746 0.98860115 1.0021878 1.1149443 1.0434031 0.8980878 1.0224801

layer_2.0.0.bn1.bias f4 [32]
00000000: 4c7f 2d3e b1d5 683e ffc7 3bbe 30ed bd3d
00000010: 5508 133e 9136 5ebe a10f 083e c7bb 383d
00000020: 85c8 6c3c 26ef 213e 4c63 0c3d 4da7 5ebd
00000030: 3331 423e 832f 21bb 1a30 51bd 3d24 523d
00000040: ac5a b4bd 0a3c 04be 51c5 183e 691a 27be
00000050: 4875 763d 6ca1 3c3e 1554 6b3e ef61 86bd
00000060: e993 c53b 7277 0d3e d498 98bd 8657 113e
00000070: da7b 32be 742f e3bc 271e 4c3e 289a 11be
0.16943091 0.22737767 -0.18338011 0.092737556 0.14358647 -0.21700503 0.13287212 0.045100953
0.014452104 0.15813884 0.034274384 -0.05435877 0.1896408 -0.002459497 -0.051071264 0.05130409
-0.08806357 -0.12913528 0.1491902 -0.16318668 0.060170442 0.18420953 0.22981293 -0.06561648
0.006029595 0.13815096 -0.07451025 0.14193544 -0.17430058 -0.027732588 0.19933377 -0.14218962

layer_2.0.0.bn1.running_mean f4 [32]
00000000: 05c1 3bbe a16b 573e ef95 0abf 3c00 58bf
00000010: 2095 8bbc 8bb7 68bf 2c3d 23bf b9e1 f1be
00000020: 5d6e cabd 799e f33e ad83 563d db6b 99be
00000030: a3d5 1c3d ed18 1abf abe0 31bf ab4b afbe
00000040: b808 30bf ec40 c4bf c7c1 253e 41e3 cdbf
00000050: 1074 d9be e363 68be a943 353e 16bc 47be
00000060: dd46 0bbf 899c 7fbe d930 28bf 8efa b0be
00000070: 2f2d ccbf 6215 e3be 7acd de3d 558d f1bf
-0.1833535 0.21037151 -0.5413503 -0.8437536 -0.017038882 -0.90905064 -0.63765216 -0.47242525
-0.098843314 0.47581843 0.05237167 -0.299651 0.038289677 -0.60194284 -0.6948344 -0.34237418
-0.68763304 -1.5332313 0.16187201 -1.6084977 -0.4247136 -0.22694354 0.17701592 -0.19505343
-0.54405004 -0.24962057 -0.65699536 -0.34566158 -1.5951289 -0.4435225 0.10879035 -1.8871256

layer_2.0.0.bn1.running_var f4 [32]
00000000: 70a5 e53f 7e55 cb3f df74 4040 abcb 0740
00000010: 5ad6 c53f df06 5940 3efa 8f3f 94be 0f40
00000020: 8c40 bd3f 0413 c53f 4512 0540 e3c6 ef3f
00000030: 0c3c e33f 1e59 0d40 6c5e a23f 921a dc3f
00000040: 3a93 a03f e801 d840 85f9 be3f 4bab bc40
00000050: ca7e 8f3f cdcc a43f 0274 cf3f 0954 e93f
00000060: a46a 993f fdd3 b73f 980a a13f ae6b f23f
00000070: 99c3 9840 3d7c b83f 5778 e73f 3edb 7540
1.7941113 1.5885465 3.0071332 2.121806 1.545604 3.3910444 1.1248243 2.246007
1.4785323 1.5396428 2.07924 1.873257 1.77527 2.2085643 1.2685065 1.7195609
1.254493 6.7502327 1.4919897 5.89591 1.1210568 1.2875 1.6207278 1.822877
1.1985669 1.4361569 1.2581358 1.8939111 4.7738767 1.4412915 1.80836 3.8415065

layer_2.0.0.conv2.weight f4 [32, 32, 3, 3]
00000000: bf2f 0c3c cfd8 edbc 6db8 99bd 7d60 063d
00000010: 4b4d 07bd fa6d e1ba d857 303c 5def 413c
00000020: cbf1 45bd 6dd6 b83d 314a 6e3c 71ce a73d
00000030: a312 6f3d a78c 1c3d 6f2c 7c3d 345f 463c
00000040: a971 21ba de73 69bd 8770 a6bc 5d1f bfbc
00000050: c5c0 673c 78f8 943c e3d2 15bb 6469 273d
00000060: e17d 10bb 7213 20bd ba5a 073d 83f5 cabc
00000070: 7f4b 88bd 48b6 863d 26e8 9ebc c06c 9f3c
00000080: 0e20 523d 199d 443c 674b 853c 4345 043e
00000090: d1b0 83bc addc 4ebc 7144 c83d 2eb8 b83c
000000a0: 9a07 5c3d cee3 363d 5f6a a63b 3148 e5bc
000000b0: eb9f 903d 486c abbc 3e3a d8bc e7c8 f0bc
000000c0: 9a13 27bd f4d8 93bd bcbb 4cbd 394b 523d
000000d0: da2c 293d 0948 8a3b 6136 bbbc ab87 72bd
000000e0: f704 5ebd 8ba5 833c 3ec6 57bc 5d0f d7bc
000000f0: c76d 0abd a37f 88ba 5515 8fbd 9379 013d
00000100: 2eed 573d e2e5 8e3c e100 ac3c 0478 6c3d
00000110: 3d6e bf39 17b7 97bd cf69 383c 3358 21bd
00000120: f481 8c3d c592 49bb d943 223d 446e 59bc
00000130: f410 51bc b9cb b13b fc0a 8abd b8aa 2abc
00000140: fac9 2fbd 72aa 2abc 2a25 203c 0f04 ed3d
00000150: 1932 9dbd 459a 793c b9a3 6dbc c7b8 b1bd
00000160: f2cf 06bd c3ec 11bd 4125 cfbb e0fc 363c
00000170: 8b4c 253d 20b7 853b eaa2 0cba 6795 903d
00000180: ce0f 44bd 284c ec3a 6125 853d ba21 a43c
00000190: 5382 bebd af39 19bd 2e06 2b3d 1875 413d
000001a0: 7c65 85bc c563 91bc 4f2f abbd 2d07 793c
000001b0: 6651 bc3b 6439 63bb 3a5f 9d3d 30b7 b2bc
000001c0: 8286 53bc 5033 2b3d 90c1 0c3d ea0f 40bd
000001d0: c65b 7f3d d142 b4ba 3da6 ca3c 29a3 ac3b
000001e0: 630e 703d 1fb7 4f3c 7ad5 443d fa11 9a3d
000001f0: a3aa 383d 1c10 5dbd ee91 1fbc 5d09 f9bc
00000200: 6cec 00bd 1612 3fbc aa24 89bc 1a2e dfbc
00000210: 25a0 383c 445b 243c 9cba 28bd d717 683d
00000220: 5091 97bc 8af2 683d faee 283d 9291 803c
00000230: 2357 8f3b fbcf 863c 9e7a abbc 512d cb3c
00000240: 3b54 dabb 4e25 f3bc 220b 493d cc48 98bc
00000250: 6b3a 02bd 77bf 95bc 57bc 00bd dcea 79bc
00000260: 60b6 0a3d 93b2 c53c d721 343d a2d4 ccbc
00000270: eff0 833c 0e58 173d 2da7 903c 757c 11bc
00000280: e3e4 ae3c 4483 0d3d 305e 3bbd f477 c33c
00000290: 2115 6ebd c451 b73c dd8c 063d e0f5 463d
000002a0: 62ee 34bc 8f42 023d bb7f da3c 1f97 d83c
000002b0: 77a2 80bc e68f c0bb 94db 443c 6853 4c3d
000002c0: 3a3f 8bbc 0d7a 4dbd ef3e d7bc d56d 58bd
000002d0: 8ef1 f6bc 391a 213c d0bd 1abd 4c7c 4a3d
000002e0: ab2b 0f3c 2df4 033d 1196 b0bc 98bf 1b3d
000002f0: a908 4dbd 3faa 8cbd dac0 08bc 039a 0fbb
00000300: 32c3 40bc 53e9 1abd 28c1 a63b f23e 18bd
00000310: 8927 4fbc 8b5a 61bb 5e46 f4bc 91fc 10bd
00000320: c795 913d 3df2 783c f731 53bc 765f 4ebb
00000330: f105 b0bd 48c3 6b39 df54 263d 5487 c4bc
00000340: 2bf1 38bc 4020 56bd 8053 8b3d fd20 183d
00000350: 4deb 03bd 8ff5 27bd dde0 3abd d36d 1abd
00000360: 82b1 a9bc 4b2c eabc 56b9 dc3c df57 873a
00000370: e235 a63c 5d25 903d 9916 86bd 4336 6fbc
00000380: f785 013d 3366 393b 1dba 9dbc 8096 343d
00000390: 0cc7 24ba 1c9b 033d 32c2 313d b25a 08bd
000003a0: 77e7 47bd cf1a 1dbd 91e7 903d 0b91 f13c
000003b0: 5d6c 22bd 405b 0a3d 8c6d a5bc 340c 563c
000003c0: 9050 02bb 2d7d 053d 33e7 32bd 6101 37bd
000003d0: 01b1 6b3d 8161 dc3c 4fa8 133b 1ee3 81ba
000003e0: ebc2 92bc 043e 60bc f480 5cbc 893e d83c
000003f0: 8d8a b73d db5d d73b 35bf 1e3e 8a7c 2cbd
0.008556305 -0.029034046 -0.075058796 0.032806862 -0.033032697 -0.0017198913 0.010763131 0.011836854
-0.048326295 0.090252735 0.014544056 0.081936724 0.058367383 0.038220074 0.061565813 0.012107659
-0.0006158599 -0.056995265 -0.02031733 -0.023330385 0.014145081 0.018184885 -0.0022861294 0.040871993
-0.0022047686 -0.039081044 0.033045508 -0.024775272 -0.06655025 0.06577736 -0.019397806 0.019461036
0.0513001 0.012000346 0.016271306 0.12917046 -0.016075524 -0.012625855 0.09778679 0.022548761
0.053718187 0.044650845 0.0050785984 -0.027988525 0.07061752 -0.020925656 -0.02639496 -0.029392673
-0.040790178 -0.07219115 -0.049983725 0.05134127 0.04130254 0.004220013 -0.022853078 -0.059211414
-0.054203954 0.016070148 -0.013169823 -0.026252443 -0.033796098 -0.0010414015 -0.06986491 0.031610083
0.052716427 0.017443601 0.020996513 0.057731643 0.00036512493 -0.074079685 0.0112556955 -0.039390754
0.06860724 -0.0030757647 0.039615486 -0.013270918 -0.01276039 0.005425897 -0.06740376 -0.010416679
-0.04291723 -0.010416614 0.009774486 0.1157304 -0.07675571 0.015234535 -0.014504367 -0.086778216
-0.032913156 -0.035626184 -0.0063215797 0.011168689 0.0403562 0.004080668 -0.0005364852 0.07059746
-0.047866635 0.0018028067 0.0650127 0.020035613 -0.09302201 -0.037408527 0.04175394 0.04723081
-0.016283743 -0.01774777 -0.08358633 0.015199465 0.005747008 -0.0034671659 0.07684179 -0.021815866
-0.012910487 0.041796982 0.034364283 -0.046890177 0.06234338 -0.0013752823 0.024737472 0.0052684736
0.05860747 0.012677937 0.04805515 0.0752296 0.045084607 -0.05397044 -0.009739382 -0.030399973
-0.03147547 -0.011662027 -0.016741116 -0.027243663 0.01126865 0.010031525 -0.04119359 0.05666336
-0.018501908 0.05687193 0.04124353 0.015694413 0.004374401 0.016456595 -0.020932492 0.024801882
-0.006662873 -0.029680874 0.049082883 -0.0185894 -0.031793993 -0.018279774 -0.031429615 -0.015253749
0.033865333 0.024133002 0.043977585 -0.025003735 0.016106097 0.03694921 0.01765784 -0.0088797705
0.021349376 0.034549013 -0.04574412 0.023860909 -0.05812562 0.022377856 0.03284918 0.04857433
-0.011043163 0.031801756 0.026672235 0.026439248 -0.01570247 -0.005876529 0.012015242 0.04988423
-0.016997922 -0.050165225 -0.026275126 -0.05283912 -0.03014448 0.009832912 -0.037778676 0.049434945
0.008738439 0.032215286 -0.021555932 0.038024515 -0.050057087 -0.06868409 -0.008346761 -0.0021911866
-0.011765288 -0.03782017 0.005088944 -0.037169404 -0.012643703 -0.0034386243 -0.02981871 -0.035397116
0.07108646 0.015194473 -0.0128903305 -0.0031490005 -0.08594883 0.00022484094 0.040608283 -0.02399031
-0.011287968 -0.05227685 0.06803036 0.037140835 -0.032206822 -0.041005667 -0.045624603 -0.037702393
-0.020714525 -0.028585574 0.026943844 0.001032587 0.020289365 0.070383765 -0.06547279 -0.014600339
0.0316219 0.0028289675 -0.019253785 0.04408884 -0.0006285764 0.032130346 0.04339809 -0.03328962
-0.048804726 -0.038355645 0.07075418 0.029488107 -0.039654125 0.03377843 -0.020193838 0.013064433
-0.0019884445 0.03259008 -0.04367752 -0.04467905 0.05754185 0.026901962 0.002253074 -0.0009909605
-0.01791521 -0.013686661 -0.013458479 0.026397007 0.08961973 0.0065724677 0.15502627 -0.042110957

layer_2.0.0.conv2.bias f4 [32]
00000000: 352e 6abd 7cd0 c6bc 5e3a 9e3c a5e7 223d
00000010: 88b6 9abb 0078 30bd 80dc 41bb 21fb 44bd
00000020: be9b 30bd c7e0 223d 3db2 463d 60b7 8bbc
00000030: 0cf4 7c3c cc19 413c 941b 3c3c 62e8 a3bc
00000040: 45ba 213d 30ad febb 9a37 ad3c b05a 95bb
00000050: 088a 2fb9 62f8 8f3c fd84 143d 6715 0e3d
00000060: 3cbe 0ebd f43b 52bd f6a8 ef3c 947a 5b3c
00000070: 1cbc 52bd 8134 173d bc29 a8bc 822d ff3c
-0.057172973 -0.024269335 0.019314941 0.039771695 -0.0047214665 -0.04308319 -0.002958089 -0.048091058
-0.043117277 0.039765146 0.048509825 -0.017055213 0.015439045 0.011785936 0.0114811845 -0.02000827
0.03948428 -0.0077721104 0.021144677 -0.00455793 -0.00016740721 0.017574493 0.03625964 0.03468838
-0.03484939 -0.051326707 0.029255372 0.013395924 -0.051448926 0.036915306 -0.020527713 0.03114963

layer_2.0.0.bn2.weight f4 [32]
00000000: 29ab 9d3f 4eca 943f 470b a03f f370 9e3f
00000010: 9d83 b23f 2cb9 873f b68d 9e3f 76ad a53f
00000020: f8cc 9b3f 1034 9e3f 7b17 b43f 6e72 9b3f
00000030: 39e0 803f b9ad ae3f 6f2a bf3f 6b7a a43f
00000040: 2a24 9e3f 9bc9 923f 4e3b 913f d23d ba3f
00000050: 04c7 993f a644 ac3f d455 af3f 341e 863f
00000060: 4e45 943f 65f3 9f3f 4295 bc3f ca10 a73f
00000070: e549 b13f aae6 993f eb42 b93f 1a32 ad3f
1.2317859 1.1624238 1.2503442 1.2378219 1.3946415 1.0603385 1.2386997 1.2943561
1.2171926 1.2359638 1.4069666 1.2144296 1.0068427 1.3646766 1.4934825 1.2849859
1.2354786 1.1467775 1.1346223 1.4550116 1.201386 1.345845 1.3698068 1.0477967
1.158365 1.2496153 1.473305 1.3051999 1.3850676 1.2023518 1.4473547 1.3530915

layer_2.0.0.bn2.bias f4 [32]
00000000: a109 863e b45e 973e 3cd0 b93e 0c5d 8a3e
00000010: ef77 973e 706e a53e 125a cb3e 09e7 543e
00000020: 4365 bf3e d2c5 c63d 1900 d53e a73a 343e
00000030: 4e53 6f3e fbe7 7a3e c417 b63e afb8 4b3e
00000040: e6d8 653e 91a5 903e 768f 933e 53e3 673e
00000050: d4c4 9a3e 73a3 833e 2a60 be3d 92e4 5c3d
00000060: 7bf0 293e fc81 2b3e 1235 7c3e b40d 903e
00000070: 8473 bd3d 59d2 bd3e f621 633e 2a3e bb3e
0.2617922 0.2956444 0.36291683 0.27024114 0.2958369 0.3231082 0.39717156 0.20791258
0.37381944 0.097057 0.41601637 0.17600499 0.23371622 0.24502556 0.35565007 0.1989467
0.22446021 0.28251317 0.2882039 0.22645311 0.30228293 0.2571064 0.092956856 0.05392892
0.16595642 0.16748804 0.2462962 0.28135455 0.092505485 0.37074545 0.22180924 0.36570865

layer_2.0.0.bn2.running_mean f4 [32]
00000000: 0350 ac3d 1d5f 99bd 31b7 933e 76c8 34be
00000010: 8f20 253e 30f4 863e d525 14be 14d1 883c
00000020: 449f 83be 0b1a 0e3f 60aa a23d b736 71bd
00000030: a547 93bd 11d7 dd3d 2cb9 14bd 8b83 20be
00000040: 8e87 63be ca88 123f d70d 8ebe f01a 17be
00000050: 0ea5 63bd 8d43 fdbd bbf5 6f3d a055 093d
00000060: eb59 5bbe 0b56 36be f7ea 8d3d e4b2 973e
00000070: a6e7 97bd 18f8 26be b215 743c 5c74 023e
0.084136985 -0.074888445 0.288507 -0.17654595 0.16125701 0.26358175 -0.14467557 0.016701259
-0.25707448 0.5550849 0.07942653 -0.05889007 -0.071913995 0.10832036 -0.036309406 -0.1567518
-0.22219679 0.57239974 -0.27744934 -0.1475637 -0.05557733 -0.123664 0.058583956 0.033528924
-0.2142102 -0.1780626 0.069295816 0.2962867 -0.0741723 -0.16305578 0.014897751 0.127397

layer_2.0.0.bn2.running_var f4 [32]
00000000: 0888 453e 4c3a 2c3e a7ad 4e3e 9699 353e
00000010: 4891 333e 768d 713e 4d80 293e 2972 363e
00000020: fbe4 553e 03ab 7b3e d43d 613e 2758 303e
00000030: 06c9 493e 7854 113e 13bc 1e3e 1bc0 103e
00000040: d19d 3f3e edbf 463e b777 2b3e 7bfa 783e
00000050: 98c6 3f3e ccef 523e aad8 623e 7f07 863e
00000060: 267f 213e 004c 063e a18e f03e 1b04 213e
00000070: 0f12 7e3e 57e5 3f3e 5e71 643e 38aa 523e
0.19290173 0.16819113 0.2018343 0.1773437 0.17535889 0.2358912 0.16552849 0.17816986
0.2088813 0.24576955 0.21996242 0.17221127 0.1970559 0.14192379 0.15501432 0.14135782
0.18712546 0.19409151 0.16744886 0.243143 0.18728101 0.20599288 0.22152963 0.26177594
0.1577116 0.13114929 0.46983817 0.15724222 0.24811576 0.1873983 0.22308871 0.20572746

layer_2.0.1.conv1.weight f4 [32, 32, 3, 3]
00000000: 1db0 953d eaad 123e dd8b 4e3e addf 053d
00000010: 97f3 ac3d e2c8 0d3e 95eb a1bd 42f1 35bd
00000020: 45c3 e93b a234 6ebd 8a7a 013b 8eb3 1e3c
00000030: b295 e8bc 8807 7fbd 3572 fdbb 51ff 27bd
00000040: ca2a 4c3d d294 9bbd 8295 a23d 7ed3 fb3d
00000050: 1556 003e e549 013b d306 c53b 2be0 b4bb
00000060: f979 c9bd c590 72bc 36a6 9bbd f70a e93b
00000070: 32c5 89bb 2b0c d53c 981d 8cbc 5baf 92bd
00000080: 5470 84bc ed29 31bd fea6 783d 4bd3 30bc
00000090: 93cc d93c 2a04 c03c 9a6f 2b3c 45fd f03c
000000a0: 5f06 073d a7b2 ab3c f2f7 c33d 22bc 9d3d
000000b0: 912d 403d 0f7a 89bc b0b9 0bbc a68f c2bd
000000c0: bc93 0f3d 9d1e 76bc 1afb d9bd 14e6 03bd
000000d0: 9d24 a53c 442d 53bd 7d36 053e e586 ab3a
000000e0: 1e1e 50bd 5a91 1b3d 51c1 dabc 1765 943c
000000f0: f1fb ec3c aa52 76bd bf42 86bb 3130 d4bd
00000100: 3345 9fbd e2e0 38be f341 13bd 7b89 99bb
00000110: 8fff b1bd f51a 84bb 1b6f 8c3c b7d4 24bd
00000120: 5747 5d3d 28cf de3c 6a56 db3d 9d63 e13b
00000130: 8de8 ab3c 8dab 4d3d 9ce1 3cbd 41b8 dbbd
00000140: bd11 81bd 46eb 733d 336e a13d 767d e03d
00000150: 2a96 463d 039c a3bb b4f4 813d cce3 313d
00000160: a18e 3abc 361f 663d 12e5 15bd f736 613c
00000170: 29a0 acbc 2980 00bd b6b5 023d 38ad 6b3c
00000180: 10b7 b9bd 85b3 853c ee10 2f3d 089c b63c
00000190: 6f59 a83d 84fe abbd 7c9d 103c 18f8 823c
000001a0: 00dc 5abd 8d6a 363d 2ce0 e93d ae4f 9bbc
000001b0: ca28 d3bc 72f6 dabc 956a 92bd 2355 e2bc
000001c0: a097 7e3c 1e2c 04bd 5362 8bbd 1659 3cbd
000001d0: 7a4e 61bd ca6a f23b 291b 25bd c6df 2f3d
000001e0: 7734 e4bc 5ed3 6bbd aa66 963c 7363 9b3d
000001f0: 2eb4 89bd d397 a03d 8beb 1f3c f9d6 32bc
00000200: 8875 00be ab21 323d 6396 093c 4013 3fbd
00000210: 40d1 d73d 3795 823d 757d cb3b 50e4 b8bc
00000220: 00dd 8bbc d263 04bd 4904 62bc 4bf8 13bc
00000230: e643 9ebc 9f21 a6bd a9ec afbd e384 6ebd
00000240: 45e4 73bb 0f00 28bc a3db 883d c6a0 9d3c
00000250: eed8 4d3d 96f5 263d 6ec8 10bd 70ad 083b
00000260: 65fd d13b 7551 9c3c e0b2 d33d 2340 453d
00000270: b362 5d3d 3a57 f13d 6dba 953d 08f2 cd3a
00000280: 7858 833d 99ae 803d 8943 973d ba1a a43d
00000290: 2822 47bd 3217 933c 27c7 ae3c d236 47bd
000002a0: 119f afbd 8de5 96bd 55ce d4bd 804d 20be
000002b0: 70db c1bd 2475 6abe f9c0 0a3c 142d b2bd
000002c0: d174 12be 6a86 2d3c f2c7 47bd a7b0 13be
000002d0: 7db1 45bd 633d 53bc a041 bebd cc9d 3b3d
000002e0: 135c c83c 6b45 23bd 815e a93d 27fc 0c3d
000002f0: 5efb 21bd ff34 14bd 3647 79b9 d88e 45bd
00000300: d669 ecbc 5b0c 493d 8ae5 3fbc 7b90 cabd
00000310: 2adb 1cbd 3737 adbd 8be9 3b3d f0fe 663d
00000320: eea2 913d c058 9f3d 2fe6 363d 6d3c 923d
00000330: 2df0 263c ec96 0dbb 4ade de3c 36be 583b
00000340: abb8 e7bb a733 8ab8 b473 27bd e155 4ebd
00000350: 560b e5bc 1e34 433d 85f6 0bbc 1365 153c
00000360: 7822 d5bd cb76 9dbd 9ebc cbbd 4e98 a5bd
00000370: c133 5a3c bf5c 2fbd 6c09 e2bd 340c 2fbd
00000380: f17b d8bd 9bb3 6ebd 0fed 0ebd acd3 2abb
00000390: 81a2 10bd 6abd 55bd 4cf3 933d 32a9 7d3d
000003a0: 9ca4 a83d e75c e43d 546b ef3c c536 683c
000003b0: f6cc 48bd 8823 dd3d 40f0 cf3d 3e8f 5b3d
000003c0: d9c0 a73d 406f 173d a19a c23d 2810 503b
000003d0: 63ab a23c b847 d3bd 32d0 6dbb 16a4 b63b
000003e0: a5fb fcbd e345 babc 383f f83a 1115 d0bd
000003f0: 4ce3 38bd 3988 0ebd f7e2 033d 3cda 6bbd
0.073089816 0.14324155 0.20170541 0.032684017 0.084448986 0.13846162 -0.07906262 -0.044419535
0.0071338736 -0.058155663 0.0019756877 0.009686364 -0.028391693 -0.06226304 -0.007734562 -0.041014973
0.049845494 -0.075967446 0.079386726 0.12296198 0.12532838 0.0019727882 0.0060127764 -0.005519887
-0.098377176 -0.014805024 -0.076000616 0.007111903 -0.0042044157 0.026006779 -0.017103955 -0.07162353
-0.016166843 -0.043252874 0.06070613 -0.010792564 0.026586806 0.023439486 0.01046362 0.029417643
0.03296506 0.020959212 0.09568776 0.07701899 0.046918456 -0.016781835 -0.008528158 -0.09500055
0.035053 -0.015021947 -0.10643597 -0.03220184 0.02015906 -0.05155684 0.13009067 0.0013086466
-0.050809972 0.037980415 -0.026703509 0.01811461 0.028928729 -0.06013743 -0.004097312 -0.10360754
-0.077768706 -0.18054536 -0.035951566 -0.0046855784 -0.08691322 -0.004031534 0.017142823 -0.040241923
0.054023113 0.02719839 0.107098415 0.00687833 0.020984912 0.05021243 -0.046113595 -0.10728503
-0.063022114 0.059550546 0.07882347 0.1096143 0.04848305 -0.0049929633 0.063455015 0.043430135
-0.011386544 0.05618211 -0.03659541 0.013746015 -0.021072464 -0.031372223 0.031911574 0.01438456
-0.090681195 0.016320953 0.042740755 0.022291198 0.08220183 -0.083981544 0.00882661 0.015987441
-0.053432465 0.04453521 0.114197105 -0.018958893 -0.025776286 -0.026728842 -0.07149235 -0.027628487
0.01553908 -0.032268636 -0.06805863 -0.045983396 -0.05500648 0.007397984 -0.040309105 0.042938016
-0.027857048 -0.057574622 0.0183595 0.07587328 -0.0672382 0.07841458 0.009760748 -0.010915511
-0.12544835 0.04348914 0.008397671 -0.046649218 0.10537958 0.06376117 0.006210024 -0.022569805
-0.017073154 -0.03232176 -0.013794967 -0.009031366 -0.019319486 -0.081118815 -0.08590061 -0.0582322
-0.0037214917 -0.01025392 0.066825174 0.019241702 0.05025571 0.040761553 -0.035347395 0.002085533
0.006408381 0.01908181 0.10336852 0.04815687 0.054049205 0.11784215 0.073109485 0.001571239
0.064133584 0.06283302 0.07385928 0.0801291 -0.04861656 0.017955396 0.021335198 -0.048636265
-0.085752614 -0.07368002 -0.10390917 -0.15654564 -0.094656825 -0.22896248 0.00846886 -0.08700004
-0.14302374 0.010591129 -0.048774667 -0.14422856 -0.04826497 -0.012893054 -0.09289861 0.045804784
0.024457967 -0.039861124 0.08269978 0.03442016 -0.039546363 -0.036183354 -0.00023773019 -0.04823193
-0.02885906 0.04908405 -0.011712441 -0.09890839 -0.03829495 -0.08457797 0.04587702 0.05639547
0.071111545 0.077805996 0.044653114 0.071404316 0.010189098 -0.002160485 0.027205605 0.003307236
-0.0070715747 -6.589974e-05 -0.040881827 -0.05037487 -0.027959507 0.047657125 -0.008542662 0.009118336
-0.10406965 -0.076886736 -0.09948085 -0.080856904 0.013318003 -0.04281306 -0.11036953 -0.042736247
-0.10570515 -0.058276754 -0.034894045 -0.0026066108 -0.035311226 -0.052182592 0.072241396 0.061928935
0.08234522 0.11150532 0.029225983 0.014173214 -0.04902359 0.10797793 0.10153246 0.053603403
0.0819108 0.03697133 0.095021494 0.003174791 0.019857114 -0.10316414 -0.0036287424 0.00557376
-0.12352685 -0.022738403 0.0018939739 -0.10160268 -0.045138642 -0.03479788 0.032198872 -0.05758117

layer_2.0.1.conv1.bias f4 [32]
00000000: b84e 74bc 867d 843c 8013 d4bc 8d75 263d
00000010: 58e4 973b bc85 4bbd 3303 663d ce3f 8c3c
00000020: 3d2b 023d 30e5 84bc 5688 dd3c 46c8 8bbc
00000030: fb52 433d 5663 d13c 5a5f a13c e0af bcbb
00000040: 6708 6f3d d809 6bbd 0407 063c da6c 893c
00000050: fa75 32bd e3c5 343d e073 f6ba 50dd b7bc
00000060: 27c1 383d 6a47 b9bc 9ae0 a73c 46f9 60bd
00000070: dba4 0d3d 0276 893c 8750 403d bc90 073c
-0.014911346 0.016173135 -0.025888205 0.04063945 0.004635375 -0.049688086 0.056155395 0.017120268
0.031779516 -0.016222566 0.02704255 -0.017063271 0.04768656 0.025560062 0.019698787 -0.0057582706
0.058357622 -0.057382435 0.008180384 0.016775537 -0.043569542 0.044134032 -0.0018802844 -0.022444397
0.04510608 -0.02261706 0.02049284 -0.054925226 0.034581047 0.016779903 0.046951797 0.008274253

layer_2.0.1.bn1.weight f4 [32]
00000000: 8575 833f 3d58 753f 71d5 8f3f cfff 833f
00000010: 2d1e 843f 0cb5 923f fa46 833f 482e 833f
00000020: 60de 6a3f 36fe 7c3f d619 843f cc1c 753f
00000030: 522d 7f3f 9bb4 723f d56b 853f 8403 853f
00000040: 7f8c 903f 3f01 793f 3e0f 723f c1b7 7d3f
00000050: 97d4 413f dfec 6f3f 69fe 833f 56c8 873f
00000060: a816 633f f649 6c3f 2c6b 733f 3b66 713f
00000070: 0c07 893f 3387 4d3f ae2c 763f da73 6f3f
1.0270239 0.95837766 1.1237012 1.0312442 1.0321709 1.1461501 1.0256035 1.0248499
0.9174557 0.98825395 1.0320385 0.95747066 0.9967853 0.9480683 1.0423533 1.0391698
1.1292876 0.97267526 0.9455451 0.9910851 0.7571501 0.9372081 1.0312015 1.0608013
0.88706446 0.92300355 0.95085406 0.94296616 1.0705276 0.8028442 0.96161926 0.9353615

layer_2.0.1.bn1.bias f4 [32]
00000000: 0dc0 b0bd b875 613e 7c74 1abd c8ed f0bd
00000010: 27f9 c63d 9338 9ebd a14f 823d 9835 763d
00000020: 651e 8dbd a549 a23d 1852 033e 1b2a ab3d
00000030: e1c7 c73d 038a ba3d 4474 e23d 0713 cfbd
00000040: e182 eebd 8d4a f83c 92bd db3d d007 7fbd
00000050: c309 803e 1e71 273e cbc0 ce3d 7a13 a73d
00000060: 8eee e63d 6c63 963e b552 2f3e ea12 733e
00000070: 7a2f 523d 5fa7 993e 4b85 703e 9c11 de3d
-0.08630381 0.22017562 -0.037708744 -0.11764103 0.09715491 -0.077256344 0.06362844 0.060109705
-0.06890563 0.07924203 0.12824285 0.0835764 0.09754921 0.09108355 0.11057332 -0.10111051
-0.11646057 0.030308986 0.10729517 -0.06226331 0.25007448 0.16351745 0.10095366 0.08158012
0.112759694 0.29372728 0.17121394 0.23737684 0.05131481 0.30010507 0.23488347 0.108432025

layer_2.0.1.bn1.running_mean f4 [32]
00000000: 9b26 94bf d115 793c e79d 5fbf 682c 99be
00000010: 49a7 7cbf 2ee0 f6be df2f 58be c7fe 6abf
00000020: 49b3 793e dc6f 7cbf 4dbd 03bf 3aed 94bc
00000030: e91d 56bf df20 673e fd6c eabe e4f7 32bf
00000040: bf60 a8bf 99de f0be 329e 27be e67c d33d
00000050: df24 4b3e ad2e 7fbe 6883 0fbf 8fce 23be
00000060: e94f 85be 66c8 9e3e b80e 233c c085 c73d
00000070: 5edb 51bf 17d1 d33d b751 7e3e 2595 2d3c
-1.1574281 0.015202955 -0.87350315 -0.29916692 -0.98692757 -0.4821791 -0.21112011 -0.9179501
0.24384798 -0.98608184 -0.51460725 -0.018179525 -0.8363939 0.22571133 -0.45786276 -0.699095
-1.3154525 -0.4704483 -0.1636894 0.10326557 0.19838284 -0.24920149 -0.56059885 -0.15996765
-0.2603753 0.31012267 0.00995224 0.09742308 -0.8197535 0.10342615 0.24835859 0.010594641

layer_2.0.1.bn1.running_var f4 [32]
00000000: e59d 9d40 ad7c ef3f 049f 8b40 d37b 1540
00000010: 3ad6 b340 5dbb ec40 3008 6140 aebe ae40
00000020: 85e4 2a40 1b5a f93f a3da 6640 9354 ba3f
00000030: effa 2040 0dfd 933f 2e84 d23f 1fe3 7840
00000040: b87e e340 2afc aa3f 318b 3740 cfb8 0840
00000050: 29bf 933f f97a df3f 520a f13f ae27 de3f
00000060: 03a7 dc3f 2373 6f3f 3000 c23f c1c0 ab3f
00000070: 873f a740 94ec c73f a625 c43f 7064 ce3f
4.925524 1.8709923 4.363161 2.3356826 5.6199007 7.3978715 3.5161247 5.4607763
2.6701977 1.9480623 3.6070945 1.455706 2.5153158 1.15616 1.6446588 3.8888624
7.1092186 1.3358204 2.8678706 2.1362798 1.1542712 1.7459403 1.8831275 1.7355859
1.7238468 0.9353506 1.5156307 1.3418199 5.226505 1.5619073 1.5323989 1.6124401
