checkpoints/pannet_model/pannet_model_2023_07_19-18_16_37_best_test.pth.tar (torch, 703235 bytes, 92 tensors)

layer_0.0.weight f4 [4, 4, 8, 8]
00000000: a102 73bd 7224 ef3c 4447 bebc d877 723e
00000010: 21e5 513d c4bb 9f3d 4227 fdbb eb5f 84bd
00000020: 47f2 543d 4401 9fbd 0dd0 013c 99f5 bbbd
00000030: 5fd8 ab3b 7451 46bd ad9b a43c 2eed d23c
00000040: 3121 da3d bbe6 efbb be01 1abe 11e8 e8bd
00000050: 8d41 1ebe da87 b5bd e009 8c3d 0261 c93d
00000060: 9e26 2a3e 68e1 b6bc e682 43bd 2140 a1bd
00000070: 43d9 aebd cdcc 13bd 9297 d43c c4a2 083e
00000080: 7dcc e43d 3c59 0fbd f254 06bd 7551 33be
00000090: 1fd8 9abd 8aa5 adbd fbc4 813d 417b fd3d
000000a0: b1b6 123d 8754 9dbb 56c2 ebbd 0e99 ab3b
000000b0: 09b8 f7bd f8cd babb 4202 27bc ca0d 843c
000000c0: 91c9 30bc 0aa7 20bc 5484 af3d 8a88 b73d
000000d0: d006 b83d 7513 663d 40cf 223c 4d5b 9dbd
000000e0: d4ba 78bd b339 613a 1747 123d 8419 ce3d
000000f0: 25f0 4b3d 0621 173d 8692 823c c8cd abbd
00000100: 1664 d53a 16b2 52bc d40a 94bc 2783 61bd
00000110: 8b6d 6e3d db6f 493b 65e2 823d 3745 653d
00000120: 4615 fb3c 24e3 ac3c 1282 01bd 0b2b cabc
00000130: 2133 37bd 7993 37bd 180a c13c 2fd8 343c
00000140: 10b6 12bd 52d2 293c b189 923c 8f28 c43d
00000150: 65aa 003d 721f 8c3d db18 783c c688 1ebc
00000160: 0c70 50bd 19c4 85bb 8f40 c93d f014 163e
00000170: 526a 1a3e 2a36 3d3d 2574 923c 78f0 01be
00000180: 4296 b3bc c21c a13c 8fb0 783b 65ca 103e
00000190: 340b 2fbd 35a0 d03d 8685 60bd 7c15 acbd
000001a0: f9ee 44bc 9d9c 38bd fdf8 1a3d 0fab 973d
000001b0: d94b 253d 2664 323d 1013 c4bc 7fba d1bd
000001c0: 8573 34bc 771c c43c 74a3 323c ef56 3a3d
000001d0: 5687 193d 9287 e63c 1684 593c ea1c 6f3b
000001e0: 462f 7f3c 9259 d9bc 5517 7ebd e6b8 77bd
000001f0: d15c 9ebd 18fa adbc f823 b4ba 797f 173d
00000200: e900 1c3d 5466 233c a82f 273c 0e74 183d
00000210: cb40 05bd 68ca bfbd 6e91 1dbd 8472 fcbd
00000220: 9b93 c438 e15e 5fbc fadf 40bd d7b8 35bd
00000230: bc0b 2fbb 984f 6abd c4f8 1fbc ccb2 e83c
00000240: ed2d 643d f745 b6bc c6d4 bdbc 83b0 91bc
00000250: 6f80 bebc 2757 57bd a561 a53d efca f6bc
00000260: 8182 1cbd 30fe 583d 5995 debd 3be4 a83d
00000270: 73ad 43bd 2c46 c5bc 27c6 963d fd0c c03c
00000280: b7e0 95bb 3fce 0c3d 2d87 e6bd 91b0 313d
00000290: 8e18 f4bc 344b 143d 3bef 4f3d 90be 893d
000002a0: 305f e8bb 80f2 933c 2e1c 6cbd 31ba e63d
000002b0: 4085 92bb 5070 453d 717e ab3d 20c6 663c
000002c0: c5b6 c1bc 5713 113c dd4b 02bc 7668 843d
000002d0: 8e76 1b3d 90db 453d a690 5b3d 85c4 a1bc
000002e0: 423c 973c c62d 98bc 66f4 bdba e537 b73a
000002f0: dc87 5cbd d1c9 cebc c4c6 0bbd 670a a2bd
00000300: 39a9 d8bd 3c8c ed3c 2d2f 4a3d bc55 233d
00000310: e156 f33d fa7e 5b3d 1652 b73c 7ad0 5bbd
00000320: 8e84 563c f70a 0b3b 9f3e c9bc 81b7 6dba
00000330: 129a 76bc cf35 87bc ad4c 6abb d899 903c
00000340: 38f2 aa3d 04db 51bc 229a f239 6618 eebc
00000350: fc84 02bd 18c6 73bc 244e 3cbd 5d83 8e3d
00000360: 8aba 773d 1fda f2bc 8944 c9bd 55e7 1abe
00000370: c98c 85bd 7c0b a7bd e645 81bc f826 0f3e
00000380: 1761 ea3d 8d21 403b 2bba 75bd 80b5 b7bd
00000390: 2e21 90bd 5e18 90bd e795 6abd f22d cb3d
000003a0: 2369 e23c 469e 9f3c d1b0 d8ba 70c5 69bd
000003b0: f6dc 10bd f670 42bd 68eb a23c 6562 2b3d
000003c0: eecb 493c 4230 b23b 4d8f 5fbd ee0e d1bd
000003d0: e48d 65bd da6e 45bd 1eb4 2dbd 4c04 503d
000003e0: 2bc2 afbd e1cd e13c 9e05 a93d d895 2b3e
000003f0: fe2d 203e fb13 6a3d df39 d83c a031 dcbd
-0.05932868 0.029192183 -0.023227341 0.2367853 0.051243905 0.07799485 -0.007725627 -0.064636074
0.051988866 -0.07763913 0.007923138 -0.091777034 0.0052442993 -0.048417524 0.020093763 0.025747862
0.10650862 -0.0073212064 -0.15039727 -0.11372388 -0.15454693 -0.08863802 0.06837821 0.09832956
0.16616294 -0.022324279 -0.047732256 -0.0787356 -0.08537533 -0.036083985 0.02595118 0.1334334
0.111718155 -0.03499721 -0.032795854 -0.17511542 -0.07560753 -0.0847884 0.06336399 0.123770244
0.03581876 -0.004801336 -0.11511676 0.0052367514 -0.12095649 -0.005700823 -0.010193409 0.016119856
-0.010790245 -0.00980545 0.085701615 0.0896159 0.089856744 0.0561709 0.009937108 -0.0768343
-0.06072505 0.00085916667 0.035712328 0.100634605 0.049789567 0.036896728 0.015939008 -0.08388859
0.0016280438 -0.012859842 -0.01807157 -0.055056717 0.058209937 0.0030736837 0.063908376 0.05597421
0.030649792 0.021104403 -0.031618185 -0.024678728 -0.044726495 -0.044818375 0.023564383 0.01103787
-0.03581816 0.010365086 0.017887922 0.095780484 0.0314125 0.06841935 0.015142645 -0.009676164
-0.050888106 -0.0040822146 0.09826767 0.14656425 0.1507962 0.046194233 0.017877648 -0.12689388
-0.021922234 0.019667033 0.0037947034 0.14139707 -0.042735294 0.10186807 -0.054814838 -0.08402535
-0.012019866 -0.045071233 0.03783511 0.07405674 0.040355537 0.04355254 -0.023934871 -0.102406494
-0.01101387 0.023939354 0.010903228 0.045493063 0.037482582 0.028140817 0.013276121 0.003648574
0.015575236 -0.026531968 -0.06203397 -0.060479067 -0.07732547 -0.021237418 -0.001374363 0.0369868
0.038086805 0.009973127 0.010204233 0.037220053 -0.032532495 -0.09364778 -0.03846877 -0.123265296
9.373502e-05 -0.013633461 -0.0470886 -0.04436573 -0.0026709875 -0.057204813 -0.0097639 0.02840557
0.05570786 -0.022250159 -0.023172747 -0.017784363 -0.023254601 -0.05257335 0.08075265 -0.030126063
-0.038210396 0.052976787 -0.108683296 0.082466565 -0.047772836 -0.024081312 0.07362013 0.023443693
-0.0045739072 0.03437638 -0.112562515 0.043381277 -0.029796865 0.03620453 0.050765257 0.067258
-0.0070914254 0.018059969 -0.05764406 0.11265982 -0.004471451 0.048202813 0.08373726 0.014085323
-0.023646722 0.008854709 -0.0079526575 0.06465237 0.03795486 0.048305094 0.053604744 -0.019747028
0.01846135 -0.018576514 -0.0014492392 0.001397845 -0.053840503 -0.025242718 -0.034125105 -0.0791214
-0.10579152 0.028997533 0.049361397 0.039876685 0.11881805 0.05358789 0.022378009 -0.053665616
0.013093127 0.0021216252 -0.024565993 -0.0009068177 -0.015051382 -0.01650515 -0.0035751269 0.017651483
0.08346981 -0.012808565 0.00046272675 -0.029064368 -0.031865105 -0.014878772 -0.04597296 0.06958649
0.060480632 -0.029645024 -0.09827525 -0.15127309 -0.06520993 -0.08156487 -0.0157804 0.13979709
0.114443 0.0029316873 -0.059991997 -0.08970165 -0.070375785 -0.07035898 -0.057271864 0.09920873
0.027638024 0.01948465 -0.0016532188 -0.057073057 -0.035366975 -0.04747101 0.019887641 0.041841883
0.012316687 0.0054378817 -0.05458002 -0.10207926 -0.05604352 -0.04820142 -0.0424081 0.050785348
-0.085819565 0.027563991 0.082530245 0.1675638 0.15642545 0.05714796 0.026394783 -0.10751653

layer_0.0.bias f4 [4]
00000000: bb27 f93c e146 c6bc 261e 9a3d b1b0 04be
0.030414453 -0.02420372 0.075252816 -0.12958027

layer_1.0.weight f4 [32, 5, 3, 3]
00000000: f1e8 28bc f9f9 c5ba ac8a a83a d63b 0cbc
00000010: 90a9 88bc 1f81 95bc 4c1b 4ebc 2ae5 8d3d
00000020: 2660 79bc 6a0c 97bb 5b79 e03d 6058 403d
00000030: c7b2 4b3d 1932 86bc 562e 6cbc 2148 9fbc
00000040: e0fd f23c 092a 7b3d 69b8 21bd d312 5e3d
00000050: e458 323d 481c 4d3c 2790 4a3d e311 cb3b
00000060: 7198 e13c bad4 503d a574 44bb 08ab 3b3c
00000070: 2352 5bbd 24d6 8fba af14 103d ef2a 4fbd
00000080: bd6e 7abc cd01 e13c 08f6 6fbd d095 94bd
00000090: dd37 e83c 58df 773d b181 a93c 68bd 143d
000000a0: e36e 7bbc cc32 1f3d dc32 ce3c 70e5 2ebc
000000b0: f619 c53c 4a3f 88bb fe67 dbba 19e1 42ba
000000c0: d0ea 833b 5076 dbba 3d0f 10bb 2c27 533a
000000d0: f28c d8ba 57c0 2aba 5b65 d8bd b85f 4ebe
000000e0: 1079 01be 48a3 a9bd 5ad8 743d 2fab a2bd
000000f0: b933 a4bd 7ff7 dd3d 3821 8d3c f2f1 60bb
00000100: 1647 c13b c720 7039 4f25 05be b4a0 e1bd
00000110: f0ec b8bd 21ef 963d b379 583e c1de d43c
00000120: 341b cb3d 60c7 843b 38b3 a23c 763e bcbc
00000130: db38 b4bd 636e 2d3d 8776 9c3c 93ea f33d
00000140: 52d3 2ebc 4f0b 703e 3f78 b43d b640 5f3e
00000150: 57cc 393e 908d 773d d4b8 3a3e c230 9e3e
00000160: a2c9 e13d 5930 6dbc 0e83 653b 6e39 683b
00000170: e7c6 51bc 0675 a2ba b284 5b3c 8fe2 ddbc
00000180: 82e7 16bc d429 cabb 66d2 80bc c092 d13c
00000190: fbae b0bd 9cf3 22bd ce65 0bbe 9c9b 773c
000001a0: 23aa 88bd 64a7 1ebd 549c 5cbc b8d7 773a
000001b0: d400 57bd 06d3 30bd 0a8e 97bd 9ff8 cc3c
000001c0: 7bb8 9abd ab3b 78bd 0c7e 12be b7fc f6bc
000001d0: f294 b1bd 123a ba3b 3127 9dba 2783 a5bc
000001e0: 6240 6c3c 7c80 2b3d 75f4 9cbd bd0f 0ebd
000001f0: d817 e63c d493 08bc efb1 a3bc e28e cabc
00000200: 7588 203d d633 dfbb 4a62 003d b357 acbc
00000210: 3767 793c c17c 9aba 63dc 8a3d fb90 b6ba
00000220: a225 0f39 993e e4bc ea39 87ba 7921 f5bb
00000230: 43a8 3d3c a0ac b5bc 3438 80ba 47e0 fdbc
00000240: a3d8 1cbd a709 ad3b a077 a03c e14e 87bd
00000250: 05af 083e ddf4 83bd 6a11 fc3a f977 4b3d
00000260: 916a ab3d 0ad6 2c3e 8226 c1bd bc5e 84bd
00000270: 2444 233c 1527 bb3c abcb d5bd 7fa3 92bb
00000280: b2c7 fbb9 e2b7 aa3b e84e fdbd 7f88 883d
00000290: f6bc 0dbe 28a3 6fbd a117 8f3d ff31 b7bd
000002a0: 909a d2bd 453c e1bd 8798 dabc 4245 ba3c
000002b0: 5c0d 3e3c 2090 cc3c 63cb d13c 4a13 943c
000002c0: eb8c 803d 899d 633d 9e4b 783d c981 453d
000002d0: 0321 f639 f74d 71bb 97ad 5a3b 7f7e 2abb
000002e0: 4b8e da3b b2e1 8bbb 59f3 e23b 6586 3cbb
000002f0: 8177 be3b ba0f 3f3e 9ebf 67be f969 923d
00000300: 199e 953c 9eda b43e abf9 c4bd 6461 f0bc
00000310: e82b 65bd c461 a93d fc51 adbd a8cf 3b3d
00000320: 3b11 3ebe a0d0 c03c 2111 983c c206 9abd
00000330: 97e2 163e 497d 9cbd d322 793b ed7a 1fbe
00000340: 5426 2a3e 30f9 c5bc 1c50 3abe 5297 283e
00000350: 3956 a83c a54e 2ebe 6b7c fe3d c660 c53d
00000360: 142e a63d 1ce0 d13c 58a5 013d 97de 0d3d
00000370: 3414 d03d 72c9 0c3d 289c a23c 88ec bbba
00000380: 0e84 233d 645e 7d3c cd0d bb3b 1a33 82bc
00000390: 1cdb 41bb b07e 1ebe 5e31 933c 230e 45bc
000003a0: fb05 e33c a215 5d3c 6811 3b3c acec 9cbd
000003b0: e7a0 b93d 0d27 c53d a217 903d 4430 86bd
000003c0: 2a7d f13c 9964 9a3c 54f0 02bd e312 31bd
000003d0: f09d 8abd 6c3b 993c 7ae3 b5bd 4059 a73a
000003e0: 7dc3 503d 7578 863d 50aa d33c 3f9e fabc
000003f0: ae70 7cbd cbd3 ae3d d71c 2cbd 26d8 17bd
-0.010309444 -0.0015104405 0.001285871 -0.008559188 -0.016682416 -0.018250046 -0.01257975 0.06928475
-0.0152206775 -0.004609634 0.10960647 0.04695928 0.049731042 -0.01638131 -0.014415344 -0.019443573
0.029662073 0.061319385 -0.039482508 0.05421717 0.043541804 0.01251895 0.04945388 0.0061972006
0.02753851 0.05098412 -0.0029976752 0.011454351 -0.05354513 -0.0010973853 0.035175975 -0.050578054
-0.015285191 0.027466679 -0.058584243 -0.07255137 0.02834695 0.06051573 0.020691724 0.036313444
-0.015346262 0.038866803 0.025170736 -0.010674819 0.02406023 -0.0041579353 -0.0016739366 -0.0007434055
0.0040257946 -0.0016743634 -0.002198174 0.00080548483 -0.0016521497 -0.0006513646 -0.10566207 -0.20153701
-0.12643838 -0.082830966 0.05977664 -0.07942807 -0.08017678 0.10838222 0.017227754 -0.0034323898
0.0058983667 0.00022900394 -0.13002513 -0.1101698 -0.09029567 0.07369829 0.21140175 0.025985124
0.09917298 0.0040520877 0.019860849 -0.022979002 -0.08799907 0.0423416 0.019099487 0.11909976
-0.0106705 0.23441814 0.088119976 0.21802029 0.18144356 0.06043774 0.18234569 0.30896574
0.110247865 -0.014476859 0.0035020742 0.0035434621 -0.01280377 -0.0012394495 0.013398336 -0.02708557
-0.009210469 -0.006169537 -0.015725326 0.025582671 -0.08627125 -0.039783105 -0.13613054 0.015112784
-0.06673076 -0.038733855 -0.013465006 0.0009454447 -0.052491024 -0.043169998 -0.07400139 0.025020896
-0.07554718 -0.06060378 -0.14305896 -0.0301498 -0.08670987 0.005683192 -0.0011989829 -0.02020414
0.014419647 0.04187058 -0.07663814 -0.034682978 0.028087541 -0.008336026 -0.019982306 -0.024726335
0.039192636 -0.0068115992 0.031343736 -0.021037912 0.015222362 -0.0011786447 0.06780317 -0.0013928706
0.00013651562 -0.02786188 -0.0010316942 -0.007480797 0.011575761 -0.02217704 -0.0009782375 -0.030990733
-0.03829254 0.0052806917 0.019588292 -0.06606842 0.13348015 -0.06443188 0.0019231264 0.04967496
0.08369935 0.16878524 -0.09431173 -0.06463382 0.009964976 0.022845784 -0.10439237 -0.0044750567
-0.00048023235 0.005209909 -0.12368566 0.066666596 -0.13841614 -0.058505207 0.06986929 -0.08945083
-0.10283387 -0.109978236 -0.026684059 0.022738103 0.011599865 0.024971068 0.025609678 0.018075604
0.06276878 0.05557016 0.06061899 0.048219476 0.00046945372 -0.0036820152 0.0033367628 -0.002601534
0.0066697947 -0.0042688483 0.006925982 -0.0028766629 0.005812586 0.18658343 -0.2263169 0.07149119
0.018263863 0.35323042 -0.09617933 -0.029343314 -0.055950075 0.082706004 -0.08462903 0.045852333
-0.1856126 0.02353698 0.018562855 -0.0752082 0.14734875 -0.07641084 0.0038015142 -0.15574236
0.16616184 -0.024166673 -0.18194622 0.16463974 0.020548927 -0.17022188 0.124260746 0.09637599
0.081142575 0.025619559 0.031651825 0.034636106 0.101601034 0.0343718 0.019849852 -0.001433746
0.03992086 0.015464399 0.0057084323 -0.015893508 -0.0029580062 -0.15478015 0.017967876 -0.012027296
0.027712813 0.013493927 0.011417724 -0.07662329 0.09063893 0.09626589 0.070357576 -0.06552175
0.029478628 0.018846797 -0.031967476 -0.043230902 -0.067684054 0.018705092 -0.08881278 0.0012767687
0.050967682 0.06565944 0.025838047 -0.030593036 -0.061630897 0.0853649 -0.04201969 -0.03707137

layer_1.0.bias f4 [32]
00000000: 28b3 65bd 62f0 593c 0fb1 83bd e24d 163e
00000010: e30f 913c 5011 883c 60f6 f63c c0da 4e3e
00000020: ceef fa3c 7536 e93b 0c16 dd3d 3260 b83d
00000030: 3878 e63d 9b46 843d 744b 3d3e a76f 91bd
00000040: 682e 07be 9a5a df3d a279 9ebd 3403 4a3d
00000050: 71c5 4f3d 5875 96bd 45b1 10be 05ff 3f3d
00000060: 9f85 f23d 6380 29bd 61e0 ad3d 4d96 6a3d
00000070: c5f6 c2bd 5cf6 bbbd 5afc a1bc 4647 59bd
-0.05607906 0.013301941 -0.064302556 0.14678147 0.01770777 0.016609818 0.030146778 0.20200634
0.030631926 0.0071170875 0.10795221 0.09002723 0.11253399 0.064587794 0.18485814 -0.07101374
-0.13201296 0.10905953 -0.07738043 0.04931946 0.050725404 -0.073466 -0.14130123 0.046874065
0.118418925 -0.041382205 0.084900625 0.057272244 -0.09519724 -0.09177849 -0.01977365 -0.053046487

layer_2.0.0.conv1.weight f4 [32, 32, 3, 3]
00000000: 2056 d53c afc2 53bd 6e97 03bd 8511 283b
00000010: c4bd 16bd e3c3 10bd 05a2 e33b daf3 46bd
00000020: 0f35 f2bb 2ae0 153d 94e3 bfbd d33e d5bc
00000030: 9c2f e2bc e331 b0bd 45b7 83bd 9e96 3cbd
00000040: e0bd a4bd 1b0d 63bd a1d6 073d af5b 013d
00000050: 66ff 803d 106c f03c f874 173d 5fdb e43b
00000060: 6c61 843b e352 8ebd 778e 96bd 064c b2bb
00000070: 06ed 2fbb 2747 eabc e08f 043d 092e 7e3c
00000080: 24a8 65bc 7e3f a3bd d60c cdbd ed79 0bbe
00000090: 10fb 823d 0c01 86bc 0e36 3f3c 1d15 233d
000000a0: 4139 0839 62d2 c2bc cef2 dc3d 2d9d 3e3d
000000b0: ccfe 6b3d a337 933c da8e 973d 8119 0d3d
000000c0: 3ce1 f03c c606 653c 3bf7 ac3c ae7f 21ba
000000d0: 11e4 403d 97b2 7f3c e38f 493c 700f d6bb
000000e0: 11b2 823d 647c 6bbd 78c1 cebc 503f 2cbd
000000f0: a509 db3d d965 cebc d913 afbc 2a47 ff3c
00000100: 1b72 a73c 6550 173d f5fb 51bc 4b46 dcbc
00000110: e7b9 a1bb 005f 543b 22fc 49bd 1cae b7bc
00000120: 81d2 873d 1534 26bd d70d d6bc e132 003d
00000130: d75b 69bd c417 f23a ce0c b03d 11c8 43bd
00000140: 6bed 81bc 9e5e 9c3b e8cd 28bd 50f8 8dbd
00000150: 9ebf 063d 4f78 49bd 3b75 dc3c 483b 603d
00000160: 2e10 e23b 2aa6 17bd a32b af3c 2e3d 093d
00000170: 38db efbc a300 85bd 3de3 ccbb 174a 4fbc
00000180: 91fc fbbc 2be3 c53c 8c4a 3f3d a403 74bc
00000190: 998d 0cbd 675a 2e3d 9ec8 a23c e502 c9bc
000001a0: 8ba6 14bd 6f30 b6bc 6417 c8bd 17fb 8dbd
000001b0: 1200 2a3d 79ba 58bd 0b1d 2dbd f42b 11bd
000001c0: a729 0e3d 5418 dbbb edab adbd 55e1 3bbd
000001d0: 15a3 01bd 4756 11bc ca2b 9ebb 9bcd 83bc
000001e0: 951e 2bbd 85de 54bc c0c6 42bd 2249 1ebc
000001f0: b8c5 33bd 33dd a3bd 8b9a 87bd 547f 8a3c
00000200: 6d77 bd3c 04ab 2ebd 09d0 5d3d 294f c73c
00000210: c418 9f3a 84c7 ef3d 9d15 1a3e 1af5 44bd
00000220: 0191 bf3b ce4d 1d3c 93c0 a6bc 335a 7fbd
00000230: 2b47 25bd a691 993b bc77 153d 5b6e 52bc
00000240: 2420 073b ae39 d4bc bc8d 893c 4f80 8bbd
00000250: 0f08 4a3d b7a0 70bd 4ec6 06bc f594 183b
00000260: da98 6b3b 3000 93bd d61a c2bd 37a1 0b3d
00000270: 26c6 2abd dc73 3abc d7ea b13d 95f6 9abc
00000280: 0211 d93c 11e3 413d fafa e13c da53 863b
00000290: 84e5 133c 7ec1 8aba 3d53 363d 1cbe 863d
000002a0: 79fb 0dbb d05a 133d 59cf ac3d 8089 22bd
000002b0: 490c 433c ccdf 0d3d 3abb 033d 2a7a 4f3d
000002c0: 7479 e43d a7b6 07bd fa36 b2bc 3f23 76bd
000002d0: 2d75 333d a428 bcbc 70e5 7b3c e574 703c
000002e0: 8cf8 f1bc a560 ff3b a839 8f3d f979 6a3d
000002f0: af81 863d 7c0e c33d 9680 c23c 2766 9f3c
00000300: 5f3d 73bb 680c 0fbd 23d2 5f3d fe23 78bc
00000310: b658 70bd 2437 323c 0d89 32bd d5d3 d53c
00000320: 906e 913b c4ff 37bd f35f 91bc d611 afbb
00000330: b9f3 2bbd f9e1 6b3d f887 0bbd 92b7 b33d
00000340: 33a3 653d 6fb8 213d d2e4 423a 15dd 65bc
00000350: a7a4 62bd f7ab e13d 22e6 1a3d 3f1a 593c
00000360: a2b3 03bb cb1b aabc 4bac 4abc c2a3 dbba
00000370: 4719 4cbd 4c63 a7bd db92 16bd 13c0 44bd
00000380: dd77 7c3d 0edb 5ebd 9970 98b8 f667 00bd
00000390: 33f4 22bb f0a3 bb3c 4920 d73c f1ec 933d
000003a0: b4fe 6bbc 5fff 91bd 5c0f 30bd df00 913c
000003b0: b058 07bd 6257 d6bb 553d 15bd e61e 2abd
000003c0: d3f9 aabc 6fa9 b93c c72f af3a a3b9 eb3c
000003d0: 672c d9bc 3cea 1ebd a2ae 343d 01b5 d53a
000003e0: 9f5c b43c d9d8 8fbc 55d8 c13c 5993 1ebd
000003f0: 14b9 fa3a c003 38bb ae83 c93b dc50 963c
0.026042044 -0.051699337 -0.032126836 0.0025645208 -0.03680207 -0.035343062 0.0069468045 -0.0485724
-0.007391579 0.036590733 -0.09369579 -0.026030933 -0.027610593 -0.08603265 -0.0643144 -0.046042077
-0.08044028 -0.05543242 0.03316367 0.031581577 0.062987134 0.029348403 0.036976784 0.006984159
0.004039934 -0.06949403 -0.07351392 -0.0054411916 -0.0026844158 -0.028598381 0.032363772 0.015513905
-0.014017139 -0.079710945 -0.10012214 -0.1362073 0.063955426 -0.016357921 0.0116706025 0.039815057
0.000129913 -0.023781959 0.10788499 0.046536613 0.05761604 0.017970866 0.07400294 0.03444815
0.029404275 0.013978666 0.021113982 -0.00061606884 0.0470925 0.015606544 0.012302372 -0.006532602
0.0638162 -0.057491675 -0.025238737 -0.042052567 0.10695199 -0.02519505 -0.021371769 0.031161863
0.020440152 0.036941905 -0.012816419 -0.026888987 -0.0049354914 0.0032405257 -0.04931272 -0.022421889
0.06631947 -0.040577013 -0.026129646 0.031298522 -0.05697235 0.0018470217 0.08596192 -0.04779822
-0.01586028 0.0047720214 -0.041211993 -0.069321275 0.032897584 -0.049187 0.026911369 0.054744035
0.0068989014 -0.0370237 0.021383112 0.03350561 -0.029279336 -0.06494262 -0.006252675 -0.012651942
-0.030760081 0.024156174 0.046701953 -0.014893446 -0.034314726 0.042566683 0.019871052 -0.024537513
-0.03629164 -0.022239892 -0.097700864 -0.06932657 0.041503973 -0.05291221 -0.042264026 -0.035442308
0.03470769 -0.0066862497 -0.08480058 -0.04586919 -0.031649668 -0.008870668 -0.0048269974 -0.016089251
-0.041777212 -0.012992506 -0.047552824 -0.009660991 -0.04388973 -0.08001175 -0.066212736 0.016906418
0.023128236 -0.042643562 0.054153476 0.024329739 0.0012138118 0.117079765 0.15047307 -0.04808531
0.0058461432 0.00960107 -0.020355498 -0.06234188 -0.040351074 0.004686552 0.03649114 -0.012843694
0.0020618523 -0.02590641 0.016791217 -0.06811582 0.04932409 -0.05874702 -0.00822599 0.0023282145
0.003594926 -0.0717777 -0.09477775 0.034089293 -0.041692875 -0.011380162 0.0868737 -0.018916408
0.026497368 0.047335688 0.027585495 0.0040993514 0.009026889 -0.001058623 0.044512976 0.06579229
-0.0021664782 0.035975277 0.08437986 -0.03968191 0.0119047845 0.034637257 0.032160975 0.050653614
0.11155978 -0.033133175 -0.02175473 -0.060092207 0.04381292 -0.022968598 0.015374526 0.014676307
-0.029537462 0.0077935033 0.06993419 0.05724523 0.06567704 0.09524247 0.023742955 0.01945789
-0.0037115437 -0.03492394 0.05464376 -0.0151453 -0.05867835 0.010877404 -0.043587733 0.026101986
0.004438229 -0.04492165 -0.017745947 -0.0053427024 -0.04198048 0.05758855 -0.034065217 0.08775248
0.056063842 0.03948253 0.00074346096 -0.014029761 -0.055332806 0.11019128 0.037817128 0.013250886
-0.0020096083 -0.020765206 -0.012370179 -0.0016757178 -0.049828794 -0.08173236 -0.036761146 -0.04803474
0.061637748 -0.054408126 -7.268898e-05 -0.031349145 -0.0024864792 0.02290532 0.026260512 0.07222927
-0.014403988 -0.07128786 -0.042983398 0.01770061 -0.033043563 -0.0065411786 -0.036435444 -0.041533373
-0.020871079 0.0226638 0.0013365679 0.028775042 -0.02651043 -0.038797602 0.044111855 0.0016304554
0.022016821 -0.017559456 0.023662725 -0.03871474 0.0019128644 -0.0028078407 0.0061497306 0.018349104

layer_2.0.0.conv1.bias f4 [32]
00000000: 2e74 bc3c a315 41bd c1fd 34bd 0366 2cbd
00000010: edf1 e2bc d2d5 d03c 02dc a63c 0130 5cbd
00000020: 687c c3bc 811a 663d 15d1 173d 04ec cbbc
00000030: 1bf4 513d 72e0 a03c 2999 61bd 71b7 273d
00000040: df02 683d b613 dfbc d39a 653d e93e 153d
00000050: ea63 64bd 4244 ad3c 423f 36bd 9ba5 ffbc
00000060: 03bf 4a3d 20a6 3bbd 3b22 e3bc 41ae 403d
00000070: 69b9 08bd d854 2dbd 318b 463d fed7 04bd
0.023004618 -0.047139775 -0.04418731 -0.042089473 -0.02770325 0.025492582 0.02036858 -0.053756718
-0.023863032 0.05617762 0.03706463 -0.024892814 0.051258188 0.019638274 -0.055077706 0.040946428
0.056643363 -0.027231079 0.056055855 0.03643695 -0.055759348 0.021150712 -0.04449392 -0.031206897
0.04949857 -0.045812726 -0.027726283 0.04704118 -0.033379946 -0.04231724 0.048472587 -0.03243255

layer_2.0.0.bn1.weight f4 [32]
00000000: f4d2 7c3f 4484 693f dd60 7c3f 7d3f 7c3f
00000010: 7f92 733f 91f6 863f 02ad 833f 34e6 813f
00000020: 06ce 7b3f 2fbf 703f 49de 713f 8d44 803f
00000030: 456d 823f cb53 8a3f 3f7b 7d3f 9cad 763f
00000040: f16a 7f3f d520 873f 155c 7d3f 4321 813f
00000050: 305e 823f 5763 803f e0bd 783f 17f4 733f
00000060: 4c16 813f dc6f 7c3f 1326 803f f25e 823f
00000070: cce2 8b3f 972f 7f3f 0be3 7a3f af1f 813f
0.9875939 0.91217446 0.985853 0.98534375 0.9514541 1.0543996 1.0287173 1.0148377
0.9836124 0.94041723 0.94479805 1.002092 1.0189596 1.0806822 0.99016184 0.96358657
0.99772555 1.0556895 0.9896863 1.0088276 1.0184994 1.0030316 0.97164726 0.95294327
1.008493 0.98608184 1.0011619 1.0185225 1.0928588 0.9968199 0.9800269 1.0087794

layer_2.0.0.bn1.bias f4 [32]
00000000: d9c4 653d 1cee 9f3d 9ec1 61bd 0f07 ab3d
00000010: 53c3 9b3c b1ff 8cbd 0276 ea3d 225d bebc
00000020: 7cc6 103d 69d4 023d d08a 833c d543 143c
00000030: 0976 953d c532 c83b 4b47 22bd 73da c2bc
00000040: c7f5 adba 104a 6cbd e6f8 5a3d 02bd 79bd
00000050: 4682 b83b 4cd4 393d 4a0a 6a3d d748 4ab9
00000060: 6935 da3b a06a 7c3d 2ff7 5bbd c38c 163d
00000070: 30d6 e2bd e0c1 98bb b825 dd3d 88dc 12bd
0.05609593 0.07809088 -0.05511629 0.08350956 0.019014036 -0.06884707 0.114482895 -0.023237769
0.03534554 0.03194085 0.016057402 0.009049376 0.07297904 0.006109568 -0.03961877 -0.023785805
-0.00132721 -0.05768782 0.053460024 -0.060971268 0.005630764 0.045368478 0.05713872 -0.00019291356
0.006659199 0.061625123 -0.05370253 0.036755335 -0.11076009 -0.0046617836 0.1079821 -0.035854846

layer_2.0.0.bn1.running_mean f4 [32]
00000000: 681b 47bf b4cb 44bd 28c7 cdbe 6206 37bf
00000010: 3739 8c3d 1303 60bf 1153 59bf 59a0 cebe
00000020: 04c2 eabe 7785 893d 716c 01be 2b0f 09be
00000030: 1ccf 49be b39a 30bf 7f35 4cbf 139f 72be
00000040: 57ed 5abf 0752 83bf 9f59 84be da5b 96bf
00000050: f32a 40bf 432a 3abf 2e26 b4be 4ce3 f93d
00000060: 56af 20bf 270b 55bf 06dc 20bf d52b a2be
00000070: 0112 9abf cf80 42be 8085 57be 8fc3 a3bf
-0.77776194 -0.04804583 -0.40191007 -0.71494114 0.0684685 -0.8750469 -0.84892374 -0.4035671
-0.45851147 0.067149095 -0.12639023 -0.13384692 -0.19707912 -0.6898605 -0.7976913 -0.23693494
-0.855184 -1.0259408 -0.25849625 -1.1746781 -0.75065535 -0.72720736 -0.3518538 0.122015566
-0.6276754 -0.8322014 -0.6283573 -0.31674066 -1.2036744 -0.18994449 -0.2104702 -1.2794055

layer_2.0.0.bn1.running_var f4 [32]
00000000: b8a5 0440 9d27 d33f a182 f33f dabf 0740
00000010: e7da 0d40 7218 6040 c26c 0a40 1b8d 4540
00000020: 49ea ef3f 636a 1140 53e4 0840 43b9 0a40
00000030: 1fe6 1240 b22b 2340 f934 ec3f 2684 ca3f
00000040: 7aec d53f 4d5c 9640 c2e8 da3f 6827 9f40
00000050: 5650 d83f 2378 3740 525f e73f dc46 1140
00000060: 56c7 943f 9ae5 e83f 1606 be3f 8d07 2140
00000070: 8c61 9240 2ed4 d53f e07a ec3f 7bfd 4240
2.0726147 1.6496464 1.902424 2.1210847 2.2164857 3.501492 2.162888 3.0867374
1.8743373 2.2721183 2.1389358 2.1675575 2.2952955 2.549542 1.8453666 1.5821579
1.6712792 4.698767 1.7102282 4.9735603 1.6899517 2.8667076 1.8075964 2.26995
1.1623333 1.8195069 1.4845607 2.5160859 4.5744076 1.6705377 1.8474998 3.0467212

layer_2.0.0.conv2.weight f4 [32, 32, 3, 3]
00000000: 0c1b 53bc 1fcc 87bc e73c b9bc 0d46 2a3d
00000010: efd2 c5bc 8aa3 ae3c 47ae 2fbc 918f 793c
00000020: fe5c 12bd a3d9 323d 693a 973c f37a 8a3d
00000030: 07fb 553d ccad 23bc efc5 053d f455 ba3a
00000040: 1e6c 03bd 3b63 8bbc 7037 01bd be69 dbba
00000050: 7829 103d 8e9e 443c d0cd 60bc 7f0b dc3c
00000060: 7437 743c 9563 2cbd 148b c63c d781 43bd
00000070: 0042 99bd 164e 733d 7d31 acbc 87d0 613d
00000080: 42b1 813d 188e 35bc ddd3 7b3c 20e7 833d
00000090: 45b0 323c b07b 503d a642 ea3d 18cf ec3c
000000a0: ee93 533d 1155 283d b803 173c c966 b7bc
000000b0: f0b5 7b3d df1a cebc c464 62bd e1da 75bd
000000c0: 91d9 5dbc 7df8 3ebd 2427 e4bc 0f1d 633d
000000d0: dc15 4d3d 117d fa3b 9891 9d3b 5c5e 72bd
000000e0: adcc d0bc 3b3b 1a3c d836 16bc b1ed 89bc
000000f0: 2ed2 d2bc d6c0 723b c9db 46bd dc86 b33c
00000100: a0df 2c3d ffa3 e4bb a42f 333b 9d16 c83c
00000110: 4ec0 edbc 200c 73bd 487e cebc dfc0 11bd
00000120: ecd8 823d 720d 2fbc 4b05 0c3d b2c7 b13b
00000130: 6659 a2bc 298e e73c 4f3b 59bd 36d7 cfbc
00000140: 9f83 64bb d018 ce3c 4515 423c 31a5 8b3d
00000150: 607c 38bd fddb bdb9 465e a9bc 6ec5 56bd
00000160: b22a 32bd da2c aebb e42f ac3c a647 e33c
00000170: fabc 253d 0de5 073d fa3d 54bc 7b9b 183d
00000180: 0b3a b7bc abbf 003d c85b b83c 40cf 0abd
00000190: afe9 b5bd f0b4 42bd 90d7 893c 3b96 263d
000001a0: 4e3b 97bc 28a1 cb3c 252c 9ebd 054f 293d
000001b0: 0427 debc b763 4abc 623f a63d e74b fbbb
000001c0: 9a45 78bc 5165 ed3c bd69 8cbc be04 3abd
000001d0: ae87 db3b 0a62 bc3b 3653 3b3c a985 48bd
000001e0: a728 1d3d 44a7 a93c 9ced 8c3c 98ee a53c
000001f0: 68b2 91bc 1c6c 8cbd e3ea 62bc 13b2 80bd
00000200: 00b7 29bc 3c83 c53c f1b7 b3bb cb20 5abd
00000210: cb10 313b 6400 a43c 478d 94bc 3ab8 143d
00000220: 2e72 ef3b dd04 723d ad44 9c3c deea 9e3c
00000230: 2665 a33c 72bc fdb9 662e ccbc 43f5 dc3b
00000240: 1ef8 a4bc dc1e fbbc fcea 743c 5285 5fbb
00000250: 1b75 19bd 69ba 06bd 221b 39bd 621e bdbb
00000260: f70f 093c 51e6 173b 0d2e 6d3d a46a 51bc
00000270: bef7 0fbb 9147 943d d52e b13b 94e8 29bc
00000280: 6aea 503d 1c7e 0b3c 6fcd d3bc bbc8 b0bb
00000290: 3cfe 2bbc e308 eaba 9c7d 213b 4556 f63b
000002a0: 2cbc 8fb8 09ce 213c 0d08 873c c60f 6c3c
000002b0: 7dc5 54bc 269d b53c a7de 933c 72e5 8c39
000002c0: 5bd1 1abd b623 513c 4105 84bc 76a2 93bd
000002d0: 2678 0d3c 2b92 733d db03 8abd 6985 e93c
000002e0: 39f6 463c 823d 12bd 8b30 993c bdfe 803d
000002f0: da33 29bd 1d98 ffbc 06b4 c53c 4a3a 213c
00000300: d485 ac3c 6998 88bd e539 8d3b 7e8d 50bd
00000310: 9cf4 bfbc c303 e03b 2570 4abd a527 d5bc
00000320: e878 043d 5f0c 9fbc 4861 2d3c c78b 3bbb
00000330: fbab 25bd a632 f63c 4718 293d e38a b2bc
00000340: 7b98 28bd 280b 8cbb 7adb 173d 4d5d 08bc
00000350: 939d 2abc 2c18 05bd 5b4e 6cbd 7e1c e33b
00000360: 6b14 05bc faca 83bc df02 2c3c b62f aabb
00000370: 7377 963b 31b1 b63c 7045 1fbd 34eb 87bc
00000380: cdf2 bc3c c157 cabb 4863 ac3c 3899 a23b
00000390: a86f 08bd 12f6 d33c e569 a23d 832a 48bd
000003a0: 9414 5dbd a54c 40bd c6c6 463c 7048 89bb
000003b0: 964f 98bd 7207 9e3c 5cdd 933b f97a 2a3d
000003c0: 640f 9abc 5392 c53c 7132 4b3b 8ae2 24bd
000003d0: 4fac 6c3d 796a 403d 2dbb c6bc 77dd f63b
000003e0: 7e03 8cbc b93a 0ebd 132c 27bc d5eb 993c
000003f0: 9ef9 bd3d babd 563d a23b ed3d 283d 14bd
-0.012884866 -0.016576825 -0.022612048 0.041570712 -0.024148433 0.021318216 -0.010722703 0.015231983
-0.035733216 0.043664586 0.01846047 0.06761732 0.05224135 -0.009990167 0.032659467 0.001421629
-0.03208553 -0.01701509 -0.03154701 -0.0016739888 0.035195798 0.012000693 -0.0137209445 0.02686095
0.014905799 -0.042087156 0.02423624 -0.047731247 -0.074832916 0.05940064 -0.021019692 0.055130508
0.06332637 -0.011081241 0.015370336 0.06440568 0.010906284 0.050899208 0.114384934 0.028907344
0.05165475 0.04109675 0.009217195 -0.022387879 0.061452806 -0.025159298 -0.05527188 -0.060023192
-0.013540641 -0.046623696 -0.027850695 0.055447634 0.050069675 0.0076443036 0.004808616 -0.05917202
-0.025488222 0.009413536 -0.009168349 -0.016836973 -0.025734987 0.0037041209 -0.048549447 0.021914892
0.042205453 -0.0069775577 0.0027341628 0.024424845 -0.029022362 -0.059337735 -0.0252067 -0.035584327
0.06389031 -0.010684358 0.034184735 0.005425417 -0.01981802 0.02826603 -0.053035077 -0.025371175
-0.0034868491 0.025158316 0.011845891 0.06818617 -0.04504049 -0.00036212793 -0.020674836 -0.052434377
-0.04349775 -0.0053154053 0.02101893 0.027744126 0.040463425 0.033177424 -0.0129542295 0.037257653
-0.022366544 0.03143279 0.022504702 -0.033889055 -0.08882462 -0.047535837 0.016826421 0.040670615
-0.018460896 0.024857119 -0.07723264 0.041335125 -0.027118213 -0.012352875 0.08117558 -0.0076689604
-0.015153313 0.028978975 -0.017140264 -0.04541468 0.006699524 0.005748992 0.011433413 -0.048955593
0.038368847 0.020709641 0.017203145 0.020255372 -0.017785266 -0.06856558 -0.013849947 -0.06283965
-0.010358572 0.024110429 -0.005484574 -0.05325393 0.0027018066 0.020019718 -0.018133773 0.036308505
0.0073073125 0.05908667 0.019075716 0.019399103 0.019945692 -0.00048396323 -0.024924468 0.0067431047
-0.020137843 -0.030654363 0.014948603 -0.0034106565 -0.037465196 -0.03289262 -0.04519189 -0.005771444
0.008365623 0.002317805 0.057905246 -0.012781773 -0.0021967734 0.07240213 0.005407194 -0.010370392
0.051004805 0.008513954 -0.025854794 -0.0053950227 -0.010497626 -0.0017855432 0.002464152 0.0075176083
-6.853821e-05 0.009875783 0.016483331 0.014408058 -0.012986538 0.02216966 0.018050505 0.0002687383
-0.037797313 0.012764862 -0.016115787 -0.07208721 0.008634603 0.05946557 -0.067390166 0.028505998
0.012143665 -0.03570319 0.018699905 0.062985875 -0.041309215 -0.031200463 0.024133693 0.009840557
0.021059908 -0.06669695 0.00430988 -0.050916187 -0.023432069 0.006836386 -0.049423356 -0.02601988
0.032341868 -0.019415079 0.010582276 -0.002861725 -0.040447216 0.030053448 0.04128292 -0.021794742
-0.04116104 -0.004273791 0.037074544 -0.008323026 -0.010413545 -0.032493755 -0.057691913 0.006930887
-0.008122544 -0.016087998 0.010498731 -0.005193676 0.004591876 0.022301288 -0.03888458 -0.016591646
0.023064995 -0.006175012 0.021043435 0.0049621128 -0.03330961 0.025874171 0.07930354 -0.048868667
-0.053974703 -0.046948094 0.012132352 -0.0041895434 -0.07437055 0.01929066 0.004512472 0.041621182
-0.018806167 0.024117624 0.0031005407 -0.040255107 0.057781514 0.04697654 -0.024259174 0.007533725
-0.017091509 -0.03472397 -0.010203379 0.018789211 0.09276126 0.05242703 0.1158364 -0.036191136

layer_2.0.0.conv2.bias f4 [32]
00000000: 352e 6abd 7cd0 c6bc 5e3a 9e3c a5e7 223d
00000010: 88b6 9abb 0078 30bd 80dc 41bb 21fb 44bd
00000020: be9b 30bd c7e0 223d 3db2 463d 60b7 8bbc
00000030: 0cf4 7c3c cc19 413c 941b 3c3c 62e8 a3bc
00000040: 45ba 213d 30ad febb 9a37 ad3c b05a 95bb
00000050: cf8a 2fb9 62f8 8f3c fd84 143d 6715 0e3d
00000060: 3cbe 0ebd f43b 52bd f6a8 ef3c 947a 5b3c
00000070: 1cbc 52bd 8134 173d bc29 a8bc 822d ff3c
-0.057172973 -0.024269335 0.019314941 0.039771695 -0.0047214665 -0.04308319 -0.002958089 -0.048091058
-0.043117277 0.039765146 0.048509825 -0.017055213 0.015439045 0.011785936 0.0114811845 -0.02000827
0.03948428 -0.0077721104 0.021144677 -0.00455793 -0.00016741011 0.017574493 0.03625964 0.03468838
-0.03484939 -0.051326707 0.029255372 0.013395924 -0.051448926 0.036915306 -0.020527713 0.03114963

layer_2.0.0.bn2.weight f4 [32]
00000000: 97b6 8f3f 18f8 8c3f 76f7 903f 85f7 943f
00000010: ade0 973f 6391 923f 3ce4 953f 9a5b 923f
00000020: 35c5 923f db05 973f fa32 9b3f 2239 8a3f
00000030: 4274 883f bc9c 953f 39d1 ab3f eb09 953f
00000040: d6c0 913f 5a79 8a3f 1b8b 853f 32be 9e3f
00000050: 4a0e 8d3f d18a 983f 7689 9d3f ba7f 873f
00000060: 933f 903f 0a4b 923f 7a70 a83f 98ec 953f
00000070: 012c a03f 4d5d 9d3f 110c 9e3f 78fe 983f
1.1227597 1.1013212 1.1325519 1.1638037 1.1865441 1.1450619 1.1710277 1.1434205
1.1466433 1.1798662 1.2124932 1.0798686 1.0660479 1.1688457 1.3423225 1.1643652
1.1386974 1.0818284 1.0433077 1.2401793 1.1019986 1.1917363 1.2307575 1.0585854
1.1269401 1.142915 1.3159325 1.1712828 1.2513429 1.2294098 1.2347432 1.1952658

layer_2.0.0.bn2.bias f4 [32]
00000000: ee80 eb3d e31e 133e a598 2e3e 2c80 033e
00000010: aa74 fd3d 1e9d 0b3e 735d 253e ef28 ab3d
00000020: cd66 283e fa43 543d fbaf 2d3e 3aa1 543d
00000030: 15ee aa3d 1dec a53d 19fb 523e 6c91 973d
00000040: 219f 893d 44ba a63d edb6 793d 7d97 d53d
00000050: 32fd ae3d 7b89 033e 3008 f13c e01d fdbc
00000060: ebe6 5c3d a280 8b3d b24b be3d 1f97 0a3e
00000070: b921 893d 1169 143e 45b9 ee3d 9700 ed3d
0.11499201 0.14367251 0.17050417 0.12841862 0.123757675 0.13634154 0.1614893 0.08357417
0.16445465 0.05182264 0.16961662 0.05191157 0.08346192 0.08101676 0.20603599 0.07400784
0.067198046 0.08140996 0.060965467 0.10429285 0.08544387 0.12845413 0.02942285 -0.030898035
0.053931158 0.06811644 0.092917815 0.1353421 0.06695885 0.14493205 0.11656431 0.11572378

layer_2.0.0.bn2.running_mean f4 [32]
00000000: 4892 12bd 5ce4 f0bc 9cec df3e 8cc1 97bd
00000010: 57f4 edbd 3e6b 353e 2ef1 88bd e3ce 183e
00000020: 562f 6cbe 9656 813e 052c 01be 0efb febd
00000030: 2981 68be dfb9 f23d 5af6 46be 959f ecbd
00000040: 3aab 1fbe 3098 c63e 1a5a 9fbe 7650 2dbe
00000050: a729 ed3d e077 82bd f7a8 9bbd 87bc 21bd
00000060: 55ee 77be 7e40 b43d 4445 663d aabf 253e
00000070: 5dce 35be b886 debd 8554 32be 3b72 143e
-0.035784036 -0.029405765 0.43735206 -0.07409963 -0.1161887 0.17716691 -0.066866264 0.14922671
-0.23064932 0.25261372 -0.12614448 -0.12450229 -0.2270552 0.11851858 -0.19429913 -0.11553875
-0.15592661 0.38787985 -0.3112343 -0.16925225 0.1158021 -0.063705206 -0.07600587 -0.039486434
-0.2421201 0.088013634 0.0562184 0.16186395 -0.17754503 -0.10865539 -0.17415054 0.144967

layer_2.0.0.bn2.running_var f4 [32]
00000000: 81be 143e c248 e43d 6b1e 023e b0fb ed3d
00000010: 56ee 063e 95ec 413e 7771 db3d 952e ef3d
00000020: d1f4 023e 6338 0c3e bd07 d33d 3320 ca3d
00000030: 5609 1a3e 2987 c23d 3b8b f83d f34c cb3d
00000040: 8a8f 123e ec29 053e a120 f93d dfc0 183e
00000050: f878 e83d fa9f fd3d 7370 1a3e cd0e 1a3e
00000060: d742 e73d fdac b83d 936f 8e3e a1b7 073e
00000070: 86e0 2c3e e5ec dc3d dbd4 f13d 8e0d 003e
0.14525796 0.1114669 0.12706916 0.11620271 0.13176855 0.18937905 0.10715001 0.11678807
0.12788703 0.13693385 0.1030421 0.09869423 0.15042624 0.09498436 0.12135931 0.09926786
0.14312568 0.13004273 0.121644266 0.14917324 0.11351198 0.12384029 0.15081958 0.15044709
0.112920456 0.0901737 0.278195 0.13253643 0.16882524 0.107873715 0.11808177 0.1250517

layer_2.0.1.conv1.weight f4 [32, 32, 3, 3]
00000000: b695 be3d 6a76 d53d 10ac dd3d 2b67 423d
00000010: 3879 513d 6dcd 813d eaba 49bb f0aa 16bd
00000020: 4759 a1bc 3d9f 3fbd 9903 e2b9 58c0 e63c
00000030: 9217 95bc 836a cabd db93 c03c 281c 41bc
00000040: a7fa 6a3c ed16 1abd 45d9 673d 9229 963d
00000050: f4b2 753d b4a1 7f3d 89eb ca3c af98 afbb
00000060: 9f07 01bd 6c01 793c 2285 92bd 6d48 ae3c
00000070: 82a8 b9bc 3c7f 13bc 9295 0b3c fca1 40bd
00000080: 99ae d1b8 ce49 99bc a529 5e3d f186 533c
00000090: c48d 1dbc 0912 90bc a1db 62bc 7484 6e3b
000000a0: e0ec ad3c 8a8e e43c cba7 843d a3f2 093d
000000b0: f516 613d b4ae 4bbc a8c5 433d bf19 54bd
000000c0: 5d76 153d d2b1 093d 8b70 a9bd e8fd 60bd
000000d0: f17d 093d baf3 40bc 88f6 4c3d c13f 3a3c
000000e0: 16d1 2fbd 8e8f 543c 069f 8cbc fd31 443d
000000f0: a48e 353d 527e b1bc 4c28 263d 6990 a0bd
00000100: f50f 1dbd d0d9 98bd 48f9 14bd 7bb9 4d3b
00000110: 0dc2 4ebc 7e47 463c 4aea 123c e5bc af3c
00000120: a5be 0d3d d7d8 d23c 38e2 893d dac3 d4bc
00000130: 98ce 0c3d 65b3 d43c b0d7 98bc c4bb 1cbd
00000140: 1917 1cbd 74e4 853d 4bb8 d83d 5c0c d83d
00000150: e432 253d 9c5a a6bb 2554 333d 8aa7 143d
00000160: 73db 89bd 63f8 8c3b 4784 10bd 7d60 64bc
00000170: e61f 85bd 2f04 2bbd 9555 023d ff76 16bc
00000180: 5583 03be 941f 9e3b 821f 5e3b 127e 683c
00000190: 01f3 a73c 63ec 7bbd 285e d7bc 984a b8bc
000001a0: dc7b f5bc cd41 9b3a 7ddf 423d 5f50 e4bc
000001b0: b727 d2bc d13a 2ebd 7d0e 73bd 0d5a b9bc
000001c0: 4d9d dd3c 136c 2ebc 1890 54bd 5b18 60bd
000001d0: c4f3 36bd 62a1 93bc f6ab fbbc d226 2c3d
000001e0: b86d e8bc 436b dfbc f4f4 8dbb 5214 333d
000001f0: 5163 6cbd 66e3 083d 0109 193d e810 b63c
00000200: a448 97bd ef3f 713d 8645 413d 7a4c 16bd
00000210: 8918 843d 7035 c23d 8be7 f63b 6cbd 87ba
00000220: b90e d0bc c541 75bd 6d9e f43c 5bba 093d
00000230: fc5e 88bc 8e37 a7bd f98f bcbd 7982 4bbd
00000240: f7d9 383b b774 b6bc 08e1 853d c55c 873b
00000250: 6284 ca3c 6130 723d d23e 0ebd b853 2a3b
00000260: 35e4 943c 5af0 d1bc 28ae 7d3d 2adf 78bd
00000270: 46ea 7c3c da44 6b3d 6932 40bc 20b3 333b
00000280: f26f 243d c2fd 0b3c a06b 953b 4b09 833d
00000290: d390 e4bd f128 4abc 0e75 193d 261f aebd
000002a0: 280e bbbd 11d6 32bd f869 abbd 51bf b3bd
000002b0: 97bd cebc 8a87 d9bd 118d 643d e279 82ba
000002c0: 3ea2 dcbc 57ba c53c 9b2d 28bc 9ecc 2dbd
000002d0: e7ed 00bd e157 ba3c c67f 58bd 78de 783c
000002e0: 2ccc 4cbc 2ccc 9abc f844 3d3d 2a33 c8bb
000002f0: 1cb8 cfbc 1bea dbbd ee8a 84bd 4e14 a3bd
00000300: 0b50 65bd b25a 193d 4e17 4bbc 77fe e8bd
00000310: ba4e 66bc a70e ddbd 619a c23b b0b6 333d
00000320: 530e 683d 2f06 2a3d d37b c53c 2fa7 bd3d
00000330: a732 833c df32 453c fb1b 623d 2145 acbc
00000340: 5678 30bc bb26 9d3c 35d6 fcbc 1df7 21bc
00000350: 9155 8dbb c705 dd3c 7b8f e2bc 5831 783d
00000360: c083 04bd 5eee 00bd 377b b3bd 1a0d 2fbc
00000370: e122 213d 61c0 25bd 0c80 19bd f85c 44bb
00000380: 717b 99bd bd30 95bc c243 013d 85b8 363d
00000390: 4423 68bc 9471 1fbb 56bd d13d e2a2 8b3c
000003a0: 2a0d 5d3d df27 a53d 8bc2 03bc c665 4d3b
000003b0: 3db3 80bd d771 683d 51c4 483d db3b 05ba
000003c0: 8575 c63c 79ff 1c3d 71e5 623d d0b8 f03b
000003d0: ca1b b7bc 472a afbd 0158 72bc ff44 e63b
000003e0: b1f1 a6bd 8620 ecbc 4377 9f3a 8f9f 74bd
000003f0: cfea ebbc eeb4 6abd 9851 f5bc cc08 ebbc
0.09305899 0.10422976 0.10823834 0.04746167 0.051140994 0.0633801 -0.0030781575 -0.036784112
-0.019695891 -0.04678272 -0.0004310876 0.028167889 -0.018199716 -0.09883597 0.023508003 -0.011786498
0.014341987 -0.03761952 0.05660369 0.07332148 0.059985116 0.06241007 0.024770515 -0.0053587775
-0.03150141 0.015198093 -0.07154299 0.02127477 -0.022663359 -0.009002503 0.008519547 -0.04702948
-9.998418e-05 -0.01871195 0.054238934 0.0129105905 -0.009616319 -0.017586725 -0.013846309 0.0036394866
0.021231115 0.0279 0.064773165 0.033678662 0.054953534 -0.012431789 0.04779592 -0.051782366
0.036489833 0.03361685 -0.08273419 -0.054929644 0.033567373 -0.011776859 0.050039798 0.011367739
-0.04292401 0.012973679 -0.017165672 0.047899235 0.044325486 -0.02166668 0.040565774 -0.07840044
-0.038345296 -0.074634194 -0.036370546 0.0031391073 -0.0126195075 0.012102006 0.008966992 0.021452377
0.03460564 0.025738163 0.06732601 -0.025972296 0.03437671 0.025964448 -0.018657535 -0.038265005
-0.038107965 0.065377146 0.10582026 0.10549232 0.040331736 -0.0050767194 0.04378142 0.03629259
-0.0673131 0.004302071 -0.0352824 -0.01393902 -0.06500225 -0.041752037 0.0318199 -0.009183644
-0.12843068 0.0048255417 0.0033893292 0.014190214 0.020501615 -0.061504733 -0.026290014 -0.022496507
-0.029966287 0.0011845172 0.047576416 -0.027870355 -0.025653703 -0.04253656 -0.05933999 -0.022625947
0.027052546 -0.010645884 -0.05189523 -0.054710727 -0.044666067 -0.01802129 -0.030721646 0.04202921
-0.02837263 -0.027272826 -0.004332179 0.04372055 -0.057711903 0.03341999 0.037362102 0.022224858
-0.07386902 0.058898862 0.047185443 -0.036694027 0.06449992 0.09482849 0.0075349263 -0.0010356135
-0.025397645 -0.059877176 0.0298607 0.033624988 -0.016646855 -0.08164893 -0.09207148 -0.049684975
0.002820609 -0.02227245 0.06537062 0.004130932 0.024721328 0.05912817 -0.03472788 0.0025989842
0.018175224 -0.025627304 0.061933666 -0.0607597 0.0154367145 0.05743871 -0.011730769 0.002742
0.040145822 0.008544387 0.004559949 0.06398257 -0.111604355 -0.012338863 0.037465148 -0.08502035
-0.091335595 -0.04366118 -0.08369821 -0.08776725 -0.025236888 -0.10621555 0.055798594 -0.0009954537
-0.026932832 0.024136705 -0.010264779 -0.042431466 -0.03147688 0.022746982 -0.05285623 0.015189759
-0.01249985 -0.018896185 0.04620835 -0.006109615 -0.025356345 -0.107380114 -0.06471811 -0.07962857
-0.055984538 0.03744001 -0.012395693 -0.1137666 -0.014056856 -0.1079381 0.0059388136 0.043875396
0.056654286 0.041509803 0.024106896 0.09260403 0.016015364 0.012036054 0.055202466 -0.021029057
-0.010770878 0.019183507 -0.03086386 -0.009885577 -0.004313179 0.026980294 -0.027656307 0.060593933
-0.03235221 -0.031477325 -0.08763736 -0.010684276 0.039339904 -0.04046667 -0.03747563 -0.002996264
-0.07494248 -0.018211717 0.03155876 0.044609565 -0.014168564 -0.0024329172 0.10241191 0.017045442
0.053967632 0.080642454 -0.008041988 0.003134118 -0.06284187 0.05674919 0.049015347 -0.00050824665
0.02422596 0.038329575 0.055394594 0.00734625 -0.022352118 -0.08552986 -0.01479149 0.007027268
-0.08151568 -0.028824102 0.001216628 -0.05972248 -0.028798489 -0.057301454 -0.029946133 -0.028690718

layer_2.0.1.conv1.bias f4 [32]
00000000: b84e 74bc 867d 843c 8013 d4bc 8d75 263d
00000010: 58e4 973b bc85 4bbd 3303 663d ce3f 8c3c
00000020: 3d2b 023d 30e5 84bc 5688 dd3c 46c8 8bbc
00000030: fb52 433d 5663 d13c 5a5f a13c e0af bcbb
00000040: 6708 6f3d d809 6bbd 0407 063c da6c 893c
00000050: fa75 32bd e3c5 343d e073 f6ba 50dd b7bc
00000060: 27c1 383d 6a47 b9bc 9ae0 a73c 46f9 60bd
00000070: dba4 0d3d 0276 893c 8750 403d bc90 073c
-0.014911346 0.016173135 -0.025888205 0.04063945 0.004635375 -0.049688086 0.056155395 0.017120268
0.031779516 -0.016222566 0.02704255 -0.017063271 0.04768656 0.025560062 0.019698787 -0.0057582706
0.058357622 -0.057382435 0.008180384 0.016775537 -0.043569542 0.044134032 -0.0018802844 -0.022444397
0.04510608 -0.02261706 0.02049284 -0.054925226 0.034581047 0.016779903 0.046951797 0.008274253

layer_2.0.1.bn1.weight f4 [32]
00000000: 58b7 823f 7021 813f a051 853f 0c25 813f
00000010: 013f 7b3f 6252 863f 0d10 823f f30c 7c3f
00000020: bd02 7a3f 4983 813f 763b 843f 491d 753f
00000030: 1acb 7c3f 2a2f 783f d6dd 833f 4f74 823f
00000040: 8dc0 823f dde6 783f 91f2 7b3f 0d84 7e3f
00000050: 0c74 743f 7a93 803f 96c2 853f 7619 853f
00000060: a245 713f b54a 7f3f 051f 7e3f cb65 793f
00000070: c409 823f 3249 703f 551e 7d3f fcf2 783f
1.0212202 1.0088329 1.0415535 1.0089431 0.9814301 1.0493891 1.0161148 0.9845726
0.9766043 1.011819 1.0330646 0.9574781 0.9874741 0.96946967 1.0302074 1.0191745
1.0215012 0.9722727 0.98417 0.99420244 0.95489573 1.0045006 1.0450008 1.0398395
0.94246876 0.9972337 0.9926608 0.9742095 1.015923 0.9386169 0.9887441 0.97245765

layer_2.0.1.bn1.bias f4 [32]
00000000: 5332 76bd b502 d43d eb2d c8bd 8608 babc
00000010: fde4 363d 7c04 d93c 318b 823b e842 3b3d
00000020: d11d abbc 560e 84bb f603 e43c 1a77 b13c
00000030: 6248 b0bc 6f34 2c3c 4c40 ca3d 87f0 43bd
00000040: 3f25 68bd b366 89bc 5e15 993c 0562 5abd
00000050: 3a62 e03d e807 933d 1549 423d d1a5 383d
00000060: 10e1 723b 5c80 003e eb3d 903d e091 7f3d
00000070: 336c c6bb cef1 ac3d 6d74 a33d 93fd debc
-0.060106587 0.10352079 -0.09774383 -0.022709142 0.044651974 0.026491396 0.003983878 0.045718104
-0.020888241 -0.0040300293 0.02783392 0.021663237 -0.02151889 0.010510548 0.09875545 -0.047836807
-0.056676146 -0.016772604 0.018686946 -0.053316135 0.10956235 0.07179242 0.047432978 0.04508001
0.0037060417 0.12548965 0.0704306 0.062394977 -0.006055379 0.08444558 0.07981191 -0.027220523

layer_2.0.1.bn1.running_mean f4 [32]
00000000: 8a00 a9bf 055e b83d eeab 15bf fa9d d5be
00000010: 39aa 7fbf ab04 e8bd 5abb a7bd 4a83 2bbe
00000020: d62a e53d 8ff7 70bf bdec 14bf c2b9 14be
00000030: 9d02 54bf d628 eabe 908d 56bf 7d8c a7be
00000040: 1910 6dbf 7d0e f2be 37a2 18bf 3380 293e
00000050: 9b18 653c 93d0 80be 9425 8cbf d202 dcbe
00000060: 8816 163e eb5c b0be 4ed5 3ebf 35e1 013e
00000070: cbcb 58bf 7186 433e 3011 e7bc 3177 2bbf
-1.320329 0.09002308 -0.5846547 -0.4172209 -0.99869114 -0.11329015 -0.08190031 -0.16749302
0.11189811 -0.94127744 -0.58173734 -0.14523986 -0.8281649 -0.4573428 -0.8380976 -0.32724372
-0.9260269 -0.4727668 -0.5962252 0.1655281 0.013982917 -0.2515913 -1.0948968 -0.42970902
0.14657032 -0.3444589 -0.7454423 0.12683566 -0.84685963 0.19094254 -0.028206438 -0.66978747

layer_2.0.1.bn1.running_var f4 [32]
00000000: b803 8040 19b8 c63f 5e29 0f40 aab1 fa3f
00000010: a082 1540 ad4b 5240 9f69 1840 b4bf 1240
00000020: 7f22 0d40 b808 e63f bc50 0440 0a4c fe3f
00000030: bd8e 2740 70bd 993f a650 0b40 343d a93f
00000040: a8b2 3a40 9f77 f53f 03a2 2740 d3be 2340
00000050: 21c4 873f 74d9 bc3f 03fc 0040 6bc5 1240
00000060: 9089 ce3f 5ad6 b33f c4dc b33f de0e 893f
00000070: 9450 0240 5ebb 9d3f a743 a83f b24d 1140
4.000454 1.5524932 2.2368999 1.9585469 2.3360977 3.285869 2.3814466 2.2929506
2.2052305 1.7971411 2.0674276 1.9866955 2.618087 1.2010937 2.1767974 1.3221803
2.9171543 1.917713 2.6192634 2.558522 1.0606729 1.4753861 2.0153816 2.2932994
1.6135731 1.404979 1.4051747 1.0707662 2.036168 1.2322805 1.3145646 2.2703671
