checkpoints/pannet_model_GF2/pannet_model_2023_07_19-18_16_37.pth.tar (torch, 911943 bytes, 92 tensors)

layer_0.0.weight f4 [4, 4, 8, 8]
000000 7b 59 b6 bd bf ab b7 ba 57 d5 ae bc 02 c3 97 3e
       -0.08903786 -0.0014012976 -0.021341963 0.29640967
000010 ca 46 88 3d d5 57 be 3d ce 6c 73 3a 2e fe 9f bd
       0.06654127 0.092940964 0.00092859275 -0.07812153
000020 dc 5f 06 3d 53 3c a0 bd a3 c3 4b 3d 99 7f 47 bd
       0.032806262 -0.07824006 0.04974712 -0.04870567
000030 35 69 40 3d db 32 8d bd c1 65 88 ba 41 7d a7 3c
       0.046975333 -0.068944655 -0.0010406302 0.020445468
000040 29 59 37 3e 64 63 8c 3c 84 f4 50 be 6c 69 fd bd
       0.17905106 0.017137237 -0.20405775 -0.12373623
000050 97 21 7a be 0a 4e c8 bd ef 3d 13 3e 45 e9 8b 3d
       -0.24426876 -0.0978051 0.14379095 0.06831602
000060 a6 e7 0b 3e 5c 00 77 3b 10 2d eb bc 3c 11 9e bd
       0.13662586 0.0037689423 -0.02870801 -0.07718131
000070 3d 31 ab bd 16 0d ca bc 34 df 3d bc 3f 73 18 3e
       -0.08359001 -0.024664443 -0.01158886 0.14887713
000080 b7 49 3c 3e 1b 4a b6 bd e4 30 3c bd 68 a3 51 be
       0.18387495 -0.08900853 -0.045945063 -0.20472491
000090 cd e3 c1 bc d2 83 12 be 33 76 0a 3e 72 ae 9b 3d
       -0.023668194 -0.14308098 0.13521652 0.07601632
0000a0 33 f7 ab 3d 7f e0 91 3c 79 f5 34 be f6 a2 47 3d
       0.08396759 0.017807243 -0.17671765 0.048739396
0000b0 82 d2 62 be 56 ac 80 3c c2 1c 9f 3c cb 28 d7 bb
       -0.22150615 0.015707176 0.019422892 -0.006566142
0000c0 4c 6b 82 bd be 29 55 3a 93 2c bc 3d 39 82 de 3d
       -0.063681215 0.0008131525 0.09188189 0.10864682
0000d0 9d 63 f8 3d b7 37 c5 3d 6d 9e e3 3c 90 7a b0 bd
       0.12128375 0.096297674 0.027785504 -0.08617127
0000e0 6c fe a5 bd 1c cb f1 3b 16 f3 4a 3d 8d e5 da 3d
       -0.08105168 0.007378949 0.04954823 0.106883146
0000f0 f0 3f a3 3d 17 fc cf bb 3d 81 75 bc 51 51 9d bd
       0.079711795 -0.00634719 -0.014984426 -0.076815255
000100 af 5d 17 3d 33 93 f9 bc c6 fb 68 3c 1c 3b f8 bc
       0.036954578 -0.030465698 0.014220184 -0.030301623
000110 d2 4f 22 3d ab b0 ca 3c 1c 6e bd 3d 3b ca f6 3c
       0.039626904 0.024742445 0.09249517 0.030125728
000120 4e b6 44 3d 79 26 96 3d 47 3f 56 bd 5b a8 4d bd
       0.04802542 0.07331557 -0.05230644 -0.050209384
000130 f0 70 1b bd ac 43 87 bd fc d5 00 3d f8 f9 4e 3d
       -0.037949502 -0.06604704 0.03145407 0.050531358
000140 df 38 6c bd 61 18 f6 3c e8 0f d2 3c 60 b8 ab 3d
       -0.057671424 0.030040922 0.02564235 0.08384776
000150 ff 29 f1 3c 56 eb 8b 3c 76 6c 5b 3b 8e 62 18 bd
       0.02943897 0.01707999 0.0033481396 -0.037203364
000160 5f 09 03 bd 4f fd 5f bc 42 bd bc 3d 1d 9c 0d 3e
       -0.03199136 -0.013671233 0.092157856 0.13829084
000170 14 45 55 3e bf 25 39 3c a6 0c 66 3d 33 7d ce bd
       0.20827132 0.011300503 0.056164406 -0.100824736
000180 56 4e a3 bc 53 85 9b 3d 4e a2 44 bd 3c e6 2a 3e
       -0.019934814 0.07593789 -0.04800635 0.1668939
000190 d9 62 8b bd 58 bd 99 3d 09 0f 78 bd 6e d7 7e bd
       -0.06805963 0.075068176 -0.060561214 -0.06221717
0001a0 be b9 14 3b 69 97 81 bd 27 4b 9e 3d 9d 57 a0 3d
       0.0022693719 -0.06327707 0.07729178 0.07829211
0001b0 cc 65 27 3d 58 b7 84 3c ba 7c 9b 3c b2 22 d5 bd
       0.040868565 0.016200706 0.018980373 -0.10407008
0001c0 e0 0d 07 3d 7b d5 83 3c df a6 85 bc 8b ba 33 3d
       0.032972217 0.016093006 -0.016314922 0.043879073
0001d0 c7 8d 9e 3b 9c 94 91 3d d7 30 68 3c 32 69 00 bc
       0.0048386785 0.07108423 0.014171801 -0.0078375805
0001e0 f8 a5 28 3d e1 4d a4 bc 9d 1d 34 bd 43 53 3d bd
       0.041173905 -0.020056667 -0.043973554 -0.046221983
0001f0 6f 8b af bd 23 25 52 bd 4f b3 44 3c 98 5c ea 3c
       -0.08571517 -0.051304948 0.012005641 0.028608605
000200 56 95 9d 3d 21 dc b8 3c 8f 2c 40 3d 46 f7 35 3d
       0.07694499 0.022565903 0.046917494 0.04442527
000210 8c f9 b3 bd 5e 1f bb bd 53 94 82 bd f6 1f a8 bd
       -0.08787832 -0.09136842 -0.06375947 -0.08209221
000220 28 a1 10 3d b7 8b 0b bd 9c fe 05 bc 93 43 54 bd
       0.03530994 -0.03406879 -0.008178379 -0.051822256
000230 67 9f 18 bc a1 8b e4 bd 09 0c 11 ba d5 48 0d bd
       -0.009315348 -0.111594446 -0.00055331044 -0.034493286
000240 4c 82 f4 3c fb 08 a8 bc fd fa 78 bd 64 45 14 bd
       0.029847287 -0.020512095 -0.060786236 -0.03619899
000250 ce 47 89 3d 7b d9 22 bd cb 69 0b 3e 18 35 41 bc
       0.06703149 -0.039758187 0.13614576 -0.011792444
000260 38 77 2e bd 1b 51 8c 3d f6 ab ef bd 98 55 01 3e
       -0.042594165 0.06851407 -0.11702721 0.12630308
000270 23 ae 47 bb 6d 95 a6 3c e6 e5 87 3d 07 ec ad 3c
       -0.0030468784 0.020334924 0.066356465 0.02123071
000280 01 cd 9e bd dd 83 49 3d 91 0e 3e be 2c b2 5b 3d
       -0.07753945 0.04919802 -0.18560244 0.053636715
000290 c0 78 9f bb 81 42 60 3d f8 9a ad 3d 15 85 b2 3d
       -0.0048666894 0.054750923 0.084768236 0.0871679
0002a0 af 8c c1 3b c4 bb 9d 3c cf e0 f5 bd c1 56 c1 3d
       0.0059066634 0.019254573 -0.120057695 0.09440375
0002b0 fc cb b3 bc d8 b0 c6 3d 0b cf 88 3d 2e b0 87 3d
       -0.021947853 0.09701699 0.06680115 0.066254005
0002c0 f0 1f 81 3c c0 d8 26 bd 68 6d a2 3d fc 0a 85 3b
       0.0157623 -0.040734053 0.07931024 0.0040601473
0002d0 59 46 3c 3d 8c 40 e4 3c f1 8a 4d ba 16 71 23 bc
       0.045965526 0.02786281 -0.0007840833 -0.009975692
0002e0 72 ed 34 3d 07 ef 0c 3c 6c b8 81 3d 62 e2 6f 3c
       0.044171758 0.00860191 0.06334004 0.014641376
0002f0 d8 9d 90 bd 29 61 93 bd ec c7 47 bd ca d6 c2 bd
       -0.07061356 -0.07196266 -0.048774645 -0.09513624
000300 cb 3b fd bd 6a 3d 10 3d cc a7 4a 3c 56 88 0f 3e
       -0.1236492 0.03521482 0.012369107 0.14016852
000310 58 de 9d 3d 5c f7 93 3d 76 10 25 3d c9 83 4e bd
       0.07708424 0.072249144 0.0402989 -0.05041865
000320 f6 ce 89 3d 43 38 ae bc 1c e1 e9 3c a7 5f c6 bb
       0.06728928 -0.021267062 0.028549723 -0.006053883
000330 6a c3 b4 3c 15 ac de 3c 22 8d e3 3c c6 14 57 3d
       0.022065837 0.027181664 0.027777258 0.052510045
000340 5a 4a 88 3d 72 ea ad bc 51 0a b7 3a 2c b5 b9 bd
       0.066548064 -0.021229956 0.0013964867 -0.09067759
000350 e6 97 80 bd 34 f0 65 bc e9 5e 8f bd b2 84 40 3d
       -0.06278972 -0.01403432 -0.070005246 0.047001548
000360 ad e3 df 3d 7b 8d 3b bd 52 b5 89 bd 83 cf 66 be
       0.109320976 -0.045789223 -0.06724037 -0.22540097
000370 3e 7b 76 bd 82 a1 eb bd ae e1 21 bd e2 26 15 3e
       -0.060176127 -0.115054145 -0.039521866 0.14565614
000380 00 bc 14 3e 59 4f 47 3d 18 26 7f bd 07 1e 89 bd
       0.14524841 0.048659656 -0.06229219 -0.066951804
000390 17 4c 31 bd 92 48 be bc 41 07 8b bd a0 91 e7 3d
       -0.043285456 -0.023227964 -0.06788493 0.11307073
0003a0 f6 a6 ac 3d 1b 0f fe bc d9 14 bf bc 2b ab f1 bb
       0.08430283 -0.031013062 -0.02332537 -0.007375141
0003b0 3f 6f de bd 46 0c d6 bd 81 3e 80 bc d1 55 76 3d
       -0.10861062 -0.1045156 -0.015654804 0.060140435
0003c0 a9 30 32 3c 84 ce 47 3d a1 5e a1 bd e6 67 fa bd
       0.010875859 0.048780933 -0.07879377 -0.12226848
0003d0 d4 2f 94 bd b2 6b a4 bd f7 6a 08 bd ad 5c 1c 3d
       -0.07235685 -0.08028354 -0.033305135 0.03817432
0003e0 32 a8 a4 bd 86 e8 6c 3c 4c da 83 3d 05 8e 4d 3e
       -0.08039893 0.014459735 0.06438121 0.20073707
0003f0 28 e3 39 3e e7 ce 97 3d a8 fa 85 3d e1 e7 f5 bd
       0.1815306 0.0741251 0.065419495 -0.12007118

layer_0.0.bias f4 [4]
000000 d5 62 91 bd e5 94 2c bd 52 2d 0a 3d 46 f6 42 be
       -0.07098929 -0.042134184 0.033734627 -0.19039258

layer_1.0.weight f4 [32, 5, 3, 3]
000000 24 07 32 bc 5f 4a 15 3c 68 0c 0d bc ed b4 30 3b
       -0.01086596 0.00911197 -0.008608915 0.002696331
000010 46 d2 ca bc e3 4f b7 bb cf ab 15 bb cd 93 3d 3d
       -0.02475847 -0.00559424 -0.0022838002 0.046283532
000020 0e 70 f0 bb 05 05 22 3d 98 0d c3 3c 57 c6 a5 3c
       -0.0073375767 0.03955557 0.023810193 0.020236177
000030 af a1 0a 3d d7 5b 38 3d 8d c4 17 3d 75 19 1f 3c
       0.0338456 0.04500946 0.03705268 0.009710659
000040 f8 26 93 3c ee 1b 38 3d b1 46 32 3a 85 1d 7b bc
       0.017962918 0.04494851 0.0006800695 -0.015326862
000050 b8 83 75 3b f3 a3 b5 3c dc 81 c6 3b 66 fd 95 3c
       0.0037462544 0.022172904 0.006057961 0.018309306
000060 12 e6 06 3d 8f aa b2 3c 5b 0a 9c 3d 59 4f f7 3c
       0.032934256 0.021809844 0.07619163 0.030189203
000070 d1 ce 25 bd 10 f2 12 bb 84 5f 38 3c 6c ed 73 bc
       -0.04048044 -0.0022422113 0.011253241 -0.014888149
000080 d8 bb 1b bd 48 ba 24 3d 94 cc 34 bc 90 ed fa bc
       -0.03802094 0.040216714 -0.011035103 -0.030630857
000090 79 4c 87 3c ce e8 7b 3c 15 26 71 3c 6e 81 8f 3c
       0.016515957 0.015375329 0.014718552 0.017517772
0000a0 09 9b a6 bb e4 3d 9f 3c 93 4c ad 3b 92 dd 00 bc
       -0.0050843996 0.019438691 0.0052886694 -0.0078653265
0000b0 13 30 fa 3c 78 60 97 b9 86 be 19 3a 40 0e 90 ba
       0.030540502 -0.0002887284 0.0005864877 -0.0010990575
0000c0 60 7a b8 3a e7 a0 34 ba c6 52 ec 39 e6 cf 6f ba
       0.0014074557 -0.00068904314 0.000450751 -0.0009148106
0000d0 9d 39 1d 39 1c 36 ff b9 3f ad cf bd 0e 3d 12 be
       0.0001499415 -0.00048677705 -0.10140466 -0.14281103
0000e0 6e 0d c8 bd c1 33 94 bd 8f 19 36 3d 0a 04 61 bd
       -0.097681865 -0.07236434 0.04445797 -0.054935493
0000f0 24 b2 24 bd e4 7d 8f 3d 2b 80 82 3c 56 06 f0 3c
       -0.04020895 0.070064336 0.015930256 0.029299896
000100 c8 11 92 3c 35 9f c8 3c 1e 37 1b be 2b 5c 2e be
       0.017830744 0.024489978 -0.15157744 -0.17027347
000110 66 5f 14 be bf 1f 08 3d 1b bf 48 3e 8e e9 87 3d
       -0.14489517 0.0332334 0.19604151 0.06636344
000120 f8 8e 23 3d 44 26 03 3d ca 85 3c 3d 93 21 6e 3b
       0.039931267 0.032018915 0.04602603 0.003633593
000130 ce e2 85 bd a6 06 f5 ba 01 9d 24 3d fe 3d 02 3d
       -0.065374 -0.0018693998 0.040188793 0.0317974
000140 dc 5c 8b 3c ed 2f f2 3d 0b 07 22 3d 3c 9e 1e 3e
       0.017012052 0.11825547 0.039557498 0.15490049
000150 8d ae d0 3d 19 91 95 bc f7 97 0f 3e 54 51 5a 3e
       0.10189543 -0.018257665 0.14022814 0.21320087
000160 46 97 ca 3d 1b 18 4d 3d 35 c3 6a 3a d4 37 42 3b
       0.09892134 0.050071817 0.000895548 0.0029635327
000170 3c 80 18 bb 06 eb 18 3b fb bc 17 bb 76 2a 4f bb
       -0.0023269793 0.0023333444 -0.0023153413 -0.0031611002
000180 bc f8 95 bb ac aa 7b ba 78 1d ed bb bc 08 4e bc
       -0.0045767706 -0.0009600322 -0.007236179 -0.012575325
000190 ab 19 00 3c 7e 06 72 3c d2 d8 aa bd f4 d1 24 bb
       0.00781862 0.014772056 -0.083421364 -0.0025149556
0001a0 e9 bb 80 bd 61 56 41 bc e4 03 23 bb 8f 6a 96 3c
       -0.06285841 -0.0118003795 -0.0024874145 0.018361358
0001b0 1f 7c 3d bd 0f 49 99 bc 37 d2 cc bc af 35 bc 3c
       -0.04626095 -0.018711595 -0.025002582 0.022974817
0001c0 99 2f a4 ba 39 72 ce bc d4 1a fe bd a5 5c a4 ba
       -0.0012526392 -0.02520095 -0.12407461 -0.0012539817
0001d0 04 42 d5 bd 09 51 bc bb e0 a0 4a 39 ec 6d 12 3c
       -0.10412982 -0.005746965 0.00019324152 0.00893734
0001e0 d5 81 81 bc ba 1e 40 3d 20 a8 38 bd cc 2a f2 bc
       -0.015808979 0.046904303 -0.04508221 -0.029561423
0001f0 66 9c b5 3c 9a 74 8c 3c a5 95 b1 bc 76 40 4e bb
       0.022169303 0.017145444 -0.021677801 -0.0031471527
000200 54 c4 66 3c 5d 34 82 bc 48 4b be ba 73 94 8a bc
       0.014084894 -0.01589411 -0.0014518285 -0.01691649
000210 a3 f4 e4 bb dc 22 1e 3c 07 91 76 3c 0e cd 31 3a
       -0.006987171 0.009651866 0.015049226 0.00067825697
000220 5c 04 87 3b 47 75 55 bc 5a d9 14 ba da cf de ba
       0.0041203927 -0.013028449 -0.000567814 -0.00169992
000230 47 3a 19 3b 19 ce 0e bc 9c 59 6d 3b 50 76 8b bc
       0.0023380683 -0.00871613 0.0036216741 -0.01702419
000240 92 e8 f5 3b e6 11 b8 3c 3f 00 ce bc f4 68 9e ba
       0.007504531 0.022469472 -0.025146602 -0.0012085722
000250 08 bc b8 3d bc a1 c0 bb c7 58 cc 3c 85 b2 0b 3d
       0.09020239 -0.0058786552 0.024944676 0.034105796
000260 a1 04 0a 3e e7 cd f9 3d b6 a9 68 bd 0f 4e ab bd
       0.13478328 0.12197476 -0.056802474 -0.08364498
000270 f9 d6 cd bc 5c 63 dd bc dd b7 f7 bd 3d 41 0f 3d
       -0.025126921 -0.027024917 -0.12095616 0.034974325
000280 10 fb 21 bb 7d ac be 3d 38 4e 7a bd 7c 5f 94 3d
       -0.0024716295 0.09310243 -0.06110975 0.07244775
000290 21 00 db bd 36 9d 3e bc 23 e9 27 bc 8f 22 8d bd
       -0.10693384 -0.011634162 -0.010248455 -0.06891357
0002a0 b6 55 03 3b 55 e1 d2 3a 02 6b cd bd fb be a3 3c
       0.0020040101 0.0016088883 -0.10030176 0.019988528
0002b0 35 b4 20 3c 4b 1e 28 bc 33 7a 4c bc 1f 92 02 3c
       0.00980859 -0.010261129 -0.012480306 0.007969408
0002c0 62 87 24 3d 8d 21 bf 3c a0 64 61 3c cb 79 f5 3c
       0.040168174 0.023331428 0.013756901 0.029965302
0002d0 26 56 4b 3a 8e 3a 95 ba 6e e1 d9 3a 5c 63 3c ba
       0.00077566726 -0.0011385249 0.0016622969 -0.00071864366
0002e0 d1 51 2e 3b c9 c3 41 bb ec 51 0c 3a 6b 02 66 ba
       0.002659906 -0.002956616 0.00053527835 -0.0008774164
0002f0 98 8d d9 3a c0 99 a0 3d 21 cd 0a be fa 21 2a 3d
       0.0016597984 0.078418255 -0.13554813 0.04153631
000300 96 b1 41 3c af a2 ae 3e 47 11 88 bd f8 65 2d 3d
       0.011822125 0.34108493 -0.066439204 0.042333573
000310 4d d7 99 bd ed c7 53 3d 3d f8 47 bd 9f 61 ba bc
       -0.075117685 0.051704336 -0.048820723 -0.022751627
000320 99 ee d7 bd 50 72 bf 3d 28 f5 38 3d 80 85 0c be
       -0.10543556 0.09347975 0.045155674 -0.13722801
000330 17 1c b8 3d aa 25 56 3c 96 ea 71 bb ef 4e 03 be
       0.08989733 0.013070503 -0.0036913506 -0.1282308
000340 e9 3b 3c 3e 4c 44 c8 bd 1d e1 18 be 64 c1 66 3e
       0.18382229 -0.097786516 -0.14929624 0.2253471
000350 08 71 7b bc c9 be f2 bd 9a 23 06 3e 47 f9 d9 3c
       -0.015346773 -0.11852796 0.13099518 0.026608123
000360 ae b0 3d 3d ad 43 ab bc 0e 89 db 3c 4d 86 e9 3c
       0.046311073 -0.020906294 0.026798751 0.028506422
000370 7b f5 c9 3d ff 43 97 b8 4e e1 11 3d c6 4c fb bc
       0.09861275 -7.212906e-05 0.035615258 -0.030676257
000380 26 7a af 3c ee 0d 0c 3c da 71 e2 3c 6e 09 73 bc
       0.02142055 0.008548243 0.02764218 -0.014833791
000390 2c e0 ef 3c 84 69 66 be 1f 69 3f 3d 63 94 2d bc
       0.029281698 -0.22501189 0.04673111 -0.01059446
0003a0 98 8e 80 3d 70 e0 55 3c 21 52 00 bb 6a 8b 09 bd
       0.062771976 0.013053998 -0.0019580203 -0.03358022
0003b0 4d e4 16 3c d2 ce 9e 3b 47 b0 a3 3b 91 11 fb bc
       0.009209705 0.0048464322 0.004995379 -0.030648025
0003c0 85 4b b6 3c 79 67 a4 bc 45 4e d7 bc 88 2d a8 bc
       0.022252807 -0.02006887 -0.026282439 -0.020529523
0003d0 50 b5 31 3c 66 41 43 3c 57 d3 35 bd 9a 88 12 bb
       0.010846451 0.011917448 -0.044391003 -0.0022359253
0003e0 0d 4e 17 bb 12 7a 19 3d e1 84 c1 3a 29 db 73 bc
       -0.0023087293 0.03746993 0.0014764332 -0.014883795
0003f0 83 14 56 bd 43 08 51 3d be 8f 1f 3c 0e 2e be bc
       -0.052265655 0.05103327 0.009738861 -0.02321532

layer_1.0.bias f4 [32]
000000 b6 32 3d 3d 26 cc bd 3c 74 72 c2 3c 92 5a b0 3e
       0.04619094 0.023168635 0.023736216 0.344441
000010 a4 e2 c8 3c c6 0f d9 3d 3f 4f ab 3e df 81 b6 3e
       0.024522133 0.10598712 0.33458897 0.3564596
000020 81 27 e4 3d 1d 31 4f 3d ae 0f 1d 3d 0b ab 46 3e
       0.11140347 0.050583947 0.03834503 0.19401185
000030 36 a6 93 3d 20 48 95 3c 09 2c b3 3e b5 a4 a4 3c
       0.072094366 0.018222868 0.34994534 0.02009807
000040 5d 00 c3 bb e7 fc 0c 3e 46 d0 29 bd 77 ab 03 3e
       -0.005950971 0.1376835 -0.04145839 0.12858377
000050 ab 9e b4 3d 71 6e 1c bd 91 1a f2 bd 74 87 74 bd
       0.08819326 -0.038191263 -0.118214734 -0.05969949
000060 fe 30 1c 3e 30 50 d8 3c a1 6e 7d 3d 11 23 c2 3d
       0.15253064 0.026405424 0.061873082 0.09479345
000070 6b 1c 24 be 4f 59 19 be 25 91 ec bc f6 83 ac 3d
       -0.16026466 -0.14975475 -0.028877804 0.08423607

layer_2.0.0.conv1.weight f4 [32, 32, 3, 3]
000000 1d 96 91 3d 3e e6 15 bd c1 6c 9b bc 27 59 c0 3c
       0.0710871 -0.03659653 -0.018972756 0.023480011
000010 fc 82 04 bd e6 da 3d bd 97 0e 9c 3d aa 72 ea bc
       -0.03235148 -0.046351336 0.0761997 -0.02861913
000020 fe 67 fc bb 1d 72 ed 3d 27 22 c6 bd 5b d3 c9 bc
       -0.0077028265 0.11594031 -0.09674483 -0.024636915
000030 a6 33 63 3d 5c 39 f3 bd 52 90 b6 bd bf d6 c9 bc
       0.055469178 -0.11876175 -0.08914246 -0.024638532
000040 04 27 d8 bd bc f7 8c bd 49 75 08 3d 25 f2 07 3c
       -0.10554317 -0.06883189 0.033314977 0.008297478
000050 41 71 30 3d 95 6c 2c 3c 1c 09 26 3d 0a 59 61 ba
       0.043076757 0.010523935 0.04053603 -0.00085963367
000060 e8 24 09 3d dc 67 51 bd b8 e6 d6 bc 1f df 3e 3c
       0.033482462 -0.05112444 -0.026233062 0.011649876
000070 60 6b 43 bc 2a 24 1c 3c d9 77 26 3d e0 38 8c bc
       -0.011927456 0.009530107 0.04064164 -0.017116964
000080 f6 88 93 3c 72 8e 74 bd c5 74 9e bd 0d d3 e6 bd
       0.018009644 -0.05970616 -0.07737116 -0.112707235
000090 b3 92 90 3d 89 74 0b bd cc f5 70 3d 76 05 ae 3c
       0.07059231 -0.034046683 0.05882816 0.021242838
0000a0 c9 8e 6a bb fd d6 bf 3b 22 ff 16 3e 88 e2 9e 3d
       -0.0035790673 0.005854486 0.14745763 0.07758051
0000b0 26 e0 a7 3d 69 e6 74 3c 8d b2 93 3d 90 58 fa 3c
       0.0819705 0.014947512 0.0721179 0.030559808
0000c0 69 e4 d9 bb 3f cb c8 ba fe ea 2b bc 9d 02 01 bc
       -0.006649543 -0.0015319361 -0.010493038 -0.007874158
0000d0 02 34 d6 3c 4a a6 93 3b eb 76 64 3c 49 17 e9 bd
       0.026147846 0.004505907 0.013944368 -0.113813944
0000e0 43 df 24 3d d5 73 70 bd b3 78 b3 bd 34 6f df bc
       0.04025198 -0.058704216 -0.08763256 -0.027274705
0000f0 0b f9 c1 3d ec 5b 96 bd c4 78 90 bc 1f c8 99 3c
       0.09471329 -0.073417515 -0.01763571 0.018772183
000100 bd cc d9 3c 73 2a 6b 3d 4a ba 2f bd 6a 3b 0e bd
       0.026586885 0.05741353 -0.04290227 -0.03472463
000110 4e 65 68 bd 51 6d 19 3c 18 85 47 bc 48 0b 14 3c
       -0.056737237 0.009364442 -0.012177728 0.009035893
000120 0b 18 45 3d da 44 4c bd 94 1a 87 bc a6 cb 2a bc
       0.048118632 -0.04987035 -0.016492166 -0.01042453
000130 1b 8b 97 bd ab 0c ed 3c 90 43 c5 3d c4 2a 6d bd
       -0.07399579 0.028936705 0.09632027 -0.057902113
000140 36 f3 9a 3c d2 8d 70 bc 1f 66 37 bd 9f 1a 02 bd
       0.0189148 -0.01468225 -0.044775125 -0.03176367
000150 7d fd 17 3d b8 7e f1 bc ef 97 53 3d dd c3 bb 3b
       0.03710698 -0.02947937 0.051658567 0.005730136
000160 05 de b6 bc a8 a6 b2 bb 7f 69 d5 3c ce 56 a4 3d
       -0.022322664 -0.005451996 0.026051281 0.08024369
000170 b2 ca 0f bd 33 c4 7e bd 92 6a 28 3c 00 8c 9e bc
       -0.035105415 -0.06219883 0.010279315 -0.019353867
000180 58 25 0c bd 95 02 9a 3d 39 36 c5 3c 2c c1 52 bd
       -0.0342153 0.07520024 0.024073707 -0.051453754
000190 18 a3 13 bd eb 36 b3 bc 38 d0 21 3c a0 aa a1 3c
       -0.03604421 -0.021876773 0.009876303 0.01973468
0001a0 bc 6b 97 3c 1c 45 88 bd 5b a2 da bd 93 b2 35 bd
       0.018483989 -0.066538066 -0.10675498 -0.044359755
0001b0 bd 7d 20 3d 87 1d 9a bc 90 0d 0e bd 43 b5 d1 bc
       0.039182413 -0.018812908 -0.034680903 -0.025599128
0001c0 f2 78 3a 3d 24 41 f2 bc 45 7a c5 bd 7e 44 a5 bc
       0.0455255 -0.029572077 -0.09642462 -0.020174261
0001d0 11 5c 3a bd dc 51 82 bc 02 fb 97 bc ea e5 7c bd
       -0.045497958 -0.015908174 -0.018552307 -0.0617427
0001e0 0c b2 26 bd 6b 16 ea 3b a9 44 08 bd b8 8f 7d bd
       -0.040697142 0.0071437857 -0.033268604 -0.06190464
0001f0 c6 4e 8e bd 1f b1 e4 bd 43 6a 9f bd 8d 83 c8 3c
       -0.069486186 -0.11166596 -0.0778394 0.02447679
000200 ef 17 7b 3b ca 72 3a bd 58 4c e6 3d c0 71 82 3d
       0.0038313826 -0.045519628 0.1124503 0.06369352
000210 ef cc 97 39 39 d4 2b 3e 35 20 79 3e 60 4f e6 3b
       0.00028953652 0.16780175 0.24328692 0.007028505
000220 92 40 7e 3c 8f 20 3b 3d 4b 24 84 bc 14 75 bb bd
       0.015518324 0.045685347 -0.016130587 -0.0915319
000230 33 da 87 bc 6e fe 4a bb 88 0c b3 bc 50 40 91 bd
       -0.016583538 -0.0030974406 -0.021856561 -0.07092345
000240 96 e9 26 bc 75 98 55 bd ef 2a 9d bc fb a9 7d bd
       -0.010187527 -0.052147347 -0.019185511 -0.061929684
000250 63 33 09 3d 7b 42 b9 bd 3b c4 b2 3b 0c 51 18 3d
       0.03349627 -0.09045883 0.0054555214 0.037186667
000260 39 d8 22 3d 8b a2 d4 bd cd 57 c9 bd b4 b1 4f 3d
       0.039756987 -0.10382565 -0.098312 0.05070658
000270 40 03 12 bd 00 14 bf bb b6 e0 bb 3d 8b a8 1b bc
       -0.03564763 -0.0058312416 0.091737196 -0.009500633
000280 14 0b 4c 3b f7 20 81 3d 58 13 ee 3c ab 77 ac 3b
       0.0031134533 0.06305116 0.029061958 0.005263289
000290 d9 a1 23 3d 95 22 95 3c 84 c3 48 3c 4b a2 af 3d
       0.03994927 0.018204967 0.012253646 0.08575877
0002a0 12 7a cf 3c 4e 67 3e bd 55 5a 03 3e 7e 2f aa bd
       0.025326762 -0.046485238 0.12827428 -0.0830984
0002b0 b5 9b c1 bb 02 10 4b 3d b0 55 c3 3c 47 89 36 3d
       -0.0059084543 0.049575813 0.02384457 0.04456451
0002c0 45 7d 1e 3e f0 9c 6b bd 88 c3 ea bb 24 c5 23 3d
       0.15477474 -0.057522714 -0.0071644224 0.03998293
0002d0 ef 51 5d 3d e9 70 8c bc f4 21 b2 3c 6b d3 43 3c
       0.054033216 -0.017143684 0.021744706 0.011952261
0002e0 89 a8 6e bd f0 8c cd bb d4 c6 8e 3d 98 a1 8f 3c
       -0.058266196 -0.0062729046 0.06971517 0.017533109
0002f0 5f f2 cc 3c c3 21 a2 3d 5c f5 29 bd ff 4d 5a 3d
       0.025017915 0.07916596 -0.04149376 0.05329704
000300 2b 4a 01 3d 73 40 61 bd 04 e3 85 3d 12 22 83 3c
       0.031564873 -0.054993104 0.065374404 0.016007457
000310 43 a7 82 bd b1 90 4b 3d 4b 15 51 bc 0e 4b 7f 3c
       -0.06379559 0.049698535 -0.012761424 0.015581859
000320 fb 45 6f 3c b5 2f e9 bb c4 d2 9c bc d1 36 90 ba
       0.014604087 -0.007116283 -0.01914347 -0.0011002665
000330 64 0b 6a bc 19 59 b0 3d 36 be 22 bd d2 92 9f 3d
       -0.014284942 0.08610744 -0.03973218 0.077916756
000340 8c d5 24 3d bf e4 e4 3c 38 f9 d2 ba c5 79 2d bd
       0.040242717 0.027941106 -0.0016096001 -0.042352457
000350 40 74 02 bd c6 ea c6 3d 42 ad ae 3c 18 4e 84 3c
       -0.031849146 0.09712748 0.02132285 0.01615052
000360 64 49 3a 3c f5 7a 11 bd bf 1e 2c bc 61 48 20 3c
       0.011370037 -0.03551765 -0.010505377 0.0097828815
000370 70 3b e9 bc 94 5b a8 bd 44 2a ab 3d 5a 43 8c 3c
       -0.028470725 -0.08220592 0.08357671 0.01712196
000380 7a 3b f9 3d 2a ac 3d bd cd 6c e9 bc 96 1c 9b bd
       0.121695474 -0.046306767 -0.028494263 -0.07573812
000390 2a 6f 72 3b d5 8e e5 3c 05 89 7d 3d 52 3b c6 3d
       0.0036992528 0.02802221 0.06189825 0.09679283
0003a0 11 a3 ea 3c f8 57 c8 bc 1d 9f da 3c 95 47 94 ba
       0.02864221 -0.02445601 0.0266872 -0.0011312837
0003b0 65 df 09 bc ae 30 1d 3d ce 0a 4b bd f3 47 54 bd
       -0.008415078 0.038376503 -0.04957085 -0.05182643
0003c0 3b 26 ee 3c e9 6e 0a 3b 7b 5e 36 bc 29 31 5d 3d
       0.029070964 0.0021123237 -0.011130924 0.05400196
0003d0 0e 74 55 bd f5 c8 cf bb 95 af 21 3d 12 a8 eb bc
       -0.05211263 -0.0063410946 0.03947409 -0.028766666
0003e0 bf f2 03 3d cf 77 48 bc 41 f5 35 bd 0c 90 6f bd
       0.032213923 -0.012235596 -0.044423345 -0.058486983
0003f0 b8 97 9b 3c 8e c9 af bc b6 f4 04 bb ca 89 47 3c
       0.018993244 -0.021458413 -0.002028746 0.012178848

layer_2.0.0.conv1.bias f4 [32]
000000 2e 74 bc 3c a3 15 41 bd c1 fd 34 bd 03 66 2c bd
       0.023004618 -0.047139775 -0.04418731 -0.042089473
000010 ed f1 e2 bc d2 d5 d0 3c 02 dc a6 3c 01 30 5c bd
       -0.02770325 0.025492582 0.02036858 -0.053756718
000020 68 7c c3 bc 81 1a 66 3d 15 d1 17 3d 04 ec cb bc
       -0.023863032 0.05617762 0.03706463 -0.024892814
000030 1b f4 51 3d 72 e0 a0 3c 29 99 61 bd 71 b7 27 3d
       0.051258188 0.019638274 -0.055077706 0.040946428
000040 df 02 68 3d b6 13 df bc d3 9a 65 3d e9 3e 15 3d
       0.056643363 -0.027231079 0.056055855 0.03643695
000050 ea 63 64 bd 42 44 ad 3c 42 3f 36 bd 9b a5 ff bc
       -0.055759348 0.021150712 -0.04449392 -0.031206897
000060 03 bf 4a 3d 20 a6 3b bd 3b 22 e3 bc 41 ae 40 3d
       0.04949857 -0.045812726 -0.027726283 0.04704118
000070 69 b9 08 bd d8 54 2d bd 31 8b 46 3d fe d7 04 bd
       -0.033379946 -0.04231724 0.048472587 -0.03243255

layer_2.0.0.bn1.weight f4 [32]
000000 9f 09 70 3f 40 4b 47 3f da 3e 80 3f 2c fe 6e 3f
       0.9376468 0.778492 1.0019181 0.93356586
000010 70 77 5b 3f 12 0f 8b 3f 25 e2 7c 3f 12 ea 83 3f
       0.8572912 1.0863974 0.9878257 1.0305808
000020 ce aa 79 3f 4f 82 53 3f 3f 24 5c 3f 05 32 83 3f
       0.9752625 0.8262071 0.8599281 1.024964
000030 d1 b0 80 3f 94 fd 92 3f 06 a8 84 3f 2f 21 81 3f
       1.005396 1.1483636 1.0363777 1.0088252
000040 61 1c 87 3f d0 ec 8e 3f d5 37 72 3f 58 78 83 3f
       1.0555536 1.116602 0.9461644 1.0271101
000050 71 8b 82 3f ec 7e 76 3f 5d f3 68 3f cb 74 78 3f
       1.0198804 0.9628742 0.9099634 0.9705321
000060 e2 21 88 3f d8 6d 75 3f bd 95 7d 3f 82 a4 7f 3f
       1.063534 0.95870733 0.9905661 0.99860394
000070 44 aa 8d 3f e5 51 86 3f 24 f0 64 3f 00 05 83 3f
       1.1067586 1.0493742 0.89428926 1.0235901

layer_2.0.0.bn1.bias f4 [32]
000000 d0 ff 39 3e d4 f4 77 3e 08 96 43 be 2c 25 ce 3d
       0.18163991 0.24214488 -0.19100201 0.10065684
000010 a9 12 2b 3e c7 87 60 be 01 45 fe 3d 09 cf 54 3d
       0.16706337 -0.21926795 0.12415505 0.051955257
000020 0c d6 8a 3c 60 fd 36 3e 9c 30 53 3d 1b a5 48 bd
       0.016947769 0.17870092 0.05156003 -0.04898558
000030 ec 31 52 3e ee a5 ed 3a 5a 02 61 bd 8b fd 78 3d
       0.20526856 0.0018131116 -0.054933883 0.060788672
000040 da 26 b9 bd 74 e5 03 be c9 9a 25 3e 6e 6c 2a be
       -0.090406135 -0.12880498 0.16172327 -0.16642925
000050 94 eb 90 3d a6 45 4d 3e 9a bf 79 3e 21 8c 80 bd
       0.07076183 0.200461 0.24389496 -0.062767275
000060 ea 03 15 3c e3 02 1b 3e 6a e7 86 bd 11 7b 1c 3e
       0.0090951715 0.1513782 -0.065871075 0.15281321
000070 f6 18 32 be 6d 5e af bc ae 00 4e 3e cf 45 0d be
       -0.17392334 -0.02140733 0.20117447 -0.13796161

layer_2.0.0.bn1.running_mean f4 [32]
000000 7a 40 eb bd c4 dc 27 3e ac 1a fa be cd 56 3b bf
       -0.11486907 0.16392809 -0.48848474 -0.7317932
000010 7a da cb bc 47 71 36 bf 80 b5 02 bf 6a 87 c3 be
       -0.024884451 -0.712666 -0.510582 -0.3818925
000020 88 b5 01 bd c9 40 e7 3e c6 88 73 3c 56 2b 9b be
       -0.031667262 0.45166615 0.014864152 -0.303065
000030 12 ff 5c 3d 61 3b 0e bf ed 55 1a bf 02 24 a6 be
       0.05395419 -0.55559355 -0.6028736 -0.32449347
000040 8b 71 10 bf 97 d0 a6 bf 33 8d 51 3e 02 c2 b1 bf
       -0.5642325 -1.3032407 0.2046402 -1.3887331
000050 24 9d b4 be df 34 16 be 38 46 5f 3e 3f 04 24 be
       -0.3527614 -0.14668606 0.2180413 -0.16017245
000060 39 5b ed be 4c a8 39 be c1 85 19 bf 0e 1f 90 be
       -0.4635866 -0.18130606 -0.5996972 -0.28148693
000070 d3 61 b6 bf 8a df dd be 75 7c ee 3d fc 2d e0 bf
       -1.4248604 -0.4333461 0.11644832 -1.7514033

layer_2.0.0.bn1.running_var f4 [32]
000000 27 22 af 3f c4 ac 98 3f a8 3f 1a 40 6b ab da 3f
       1.3682297 1.1927724 2.4101353 1.7083563
000010 a7 8c 9f 3f 98 3e 1e 40 00 d6 5f 3f a5 26 c6 3f
       1.2464799 2.4725704 0.87435913 1.5480543
000020 f3 40 8e 3f 9e 0d 94 3f 96 23 dd 3f 3b af ba 3f
       1.1113571 1.1566656 1.7276485 1.4584726
000030 5e c6 ad 3f 05 69 db 3f 61 87 77 3f 17 13 9a 3f
       1.3576162 1.7141424 0.96690947 1.2037076
000040 d7 27 6a 3f 02 f4 a9 40 b5 d7 96 3f 16 c4 94 40
       0.9146704 5.311036 1.1784579 4.6489363
000050 cf 10 59 3f d0 8c 6f 3f e6 2c ab 3f 64 4e ba 3f
       0.8479127 0.9357424 1.3373077 1.4555173
000060 6b d5 64 3f a1 bd 8b 3f c9 05 73 3f ff f5 b1 3f
       0.8938815 1.0917245 0.949307 1.3903197
000070 48 95 74 40 60 f1 8a 3f cd 5d bb 3f cd e4 48 40
       3.8216114 1.0854912 1.4638001 3.138965

layer_2.0.0.conv2.weight f4 [32, 32, 3, 3]
000000 29 d4 ea 3b 78 2f f3 bc c2 3d a0 bd 19 1f f5 3c
       0.0071664047 -0.02968572 -0.07824279 0.029922055
000010 df 50 ea bc 2a c4 4f 39 2b 13 01 3c a1 4a 50 3c
       -0.028603015 0.00019814135 0.007878105 0.012713105
000020 32 99 3e bd 33 f1 ba 3d ff fb 7a 3c 5a bd af 3d
       -0.046532817 0.09128036 0.01531887 0.08581038
000030 be de 67 3d 47 5c 25 3d 0b 97 81 3d 9f f3 61 3c
       0.056608908 0.040371206 0.06327637 0.013790994
000040 74 38 43 3b 81 07 73 bd d4 62 b2 bc 9a c3 b3 bc
       0.0029788287 -0.05933333 -0.02177564 -0.021943856
000050 bb e7 59 3c 2f 29 7b 3c 29 77 ea ba d3 6d 23 3d
       0.013299878 0.015329643 -0.0017888296 0.03989966
000060 79 df 85 bb 03 c2 23 bd 31 16 00 3d aa 42 9c bc
       -0.004085478 -0.039979946 0.031271163 -0.019074757
000070 2d 06 8e bd a0 3f 80 3d 6e 4a 9e bc ff 06 6c 3c
       -0.06934772 0.062621355 -0.0193226 0.014405965
000080 41 c6 34 3d 0d 98 60 3c 4b d5 85 3c 63 d6 04 3e
       0.044134382 0.013708127 0.016337058 0.12972407
000090 bc d3 8a bc 33 68 8d bc 11 c4 c4 3d df 46 bf 3c
       -0.016946666 -0.0172616 0.09607709 0.023349224
0000a0 7d 6e 67 3d 14 92 30 3d c3 12 df 3b 9b bf f2 bc
       0.056501854 0.04310806 0.0068076565 -0.02963238
0000b0 53 83 91 3d a5 97 43 bc 00 85 9b bc b7 8d c5 bc
       0.07105126 -0.01193801 -0.018984318 -0.024115426
0000c0 83 f3 26 bd 7b 9d 93 bd 99 50 56 bd 83 8f 44 3d
       -0.040759575 -0.072077714 -0.052322958 0.047988426
0000d0 ba ec 08 3d 16 27 3d bb 73 22 c7 bc da c2 65 bd
       0.033428885 -0.0028862408 -0.024308419 -0.056094028
0000e0 13 43 50 bd 54 58 7e 3c bd bc 20 bc c7 53 d8 bc
       -0.050845217 0.015523989 -0.009810624 -0.026407136
0000f0 9f 76 0c bd 25 03 df ba a6 77 94 bd a9 97 fc 3c
       -0.034292813 -0.0017014487 -0.07249384 0.030834036
000100 4c 30 48 3d 47 fc a2 3c 3a 82 c7 3c 38 0e 6f 3d
       0.048874184 0.019895686 0.024354089 0.05836317
000110 aa 1a a2 3b a1 2f 9a bd 52 90 49 3c 12 a5 24 bd
       0.0049470263 -0.07528616 0.012302475 -0.040196486
000120 8b 2a 8f 3d 3b 47 36 bb 1f 44 25 3d 12 91 80 bc
       0.06990536 -0.0027813453 0.04034817 -0.015694175
000130 81 77 57 bc ae 9b ab 3b 38 f0 80 bd da 57 44 bb
       -0.013151051 0.0052370643 -0.06295818 -0.002995959
000140 76 f8 18 bd fd a3 4d bc dd 1e a9 3b 47 de e4 3d
       -0.037346326 -0.012551305 0.00516115 0.111752085
000150 22 6f 9d bd 05 03 4a 3c 96 a3 8c bc 99 35 a8 bd
       -0.076872125 0.0123298215 -0.017167848 -0.08213348
000160 b7 93 f1 bc a2 24 16 bd 39 8d 1b bc 5f 6a bb 3b
       -0.029489381 -0.03665603 -0.009494119 0.0057194675
000170 db 6d 17 3d 2f ed 30 bb 08 d5 d2 bb af 3d 8f 3d
       0.03697 -0.0026996841 -0.0064340867 0.06994187
000180 50 07 5c bd 46 8b 48 3b 05 7b 91 3d 6b ae b7 3c
       -0.05371791 0.0030600592 0.07103542 0.022422036
000190 eb 6d b9 bd 4f 89 05 bd 4e b4 1f 3d f5 81 47 3d
       -0.09054168 -0.03260165 0.03899031 0.04870792
0001a0 81 23 62 bc 22 76 aa bc 54 e1 a9 bd 5c 3c 3b 3c
       -0.01380241 -0.020808283 -0.08294931 0.011427965
0001b0 03 ec a5 3b dc 85 5d bb 4e 8f 9f 3d 40 3a a2 bc
       0.005063535 -0.003380171 0.07791005 -0.019803166
0001c0 b2 ef 14 bc 85 31 2e 3d 80 47 17 3d cc 97 3e bd
       -0.009090351 0.042527694 0.036933422 -0.046531484
0001d0 16 91 91 3d cd c8 8c bb 5f 22 ce 3c 30 e5 99 3b
       0.07107751 -0.0042963983 0.025162874 0.0046965107
0001e0 1c 0e 7e 3d f7 d0 4f 3c da 3e 45 3d e0 43 a6 3d
       0.062025174 0.012684098 0.048155643 0.08118415
0001f0 85 4b 53 3d 61 86 4f bd 2a 33 25 bc 4c 7b 0c bd
       0.051585693 -0.050665263 -0.010082999 -0.034297273
000200 8e 4e 14 bd b3 f8 00 bc 65 70 92 bc 33 64 d0 bc
       -0.036207728 -0.0078717945 -0.01787586 -0.025438404
000210 50 e9 91 3c 7a 21 58 3c 81 cf 1d bd 15 b7 5d 3d
       0.017811447 0.013191575 -0.03852797 0.05412968
000220 68 23 92 bc eb db 69 3d cd 38 25 3d f6 40 78 3c
       -0.017839149 0.057094496 0.040337373 0.015152207
000230 51 f5 66 3b d5 a9 8c 3c 42 23 5a bc 81 f2 e4 3c
       0.0035241435 0.017170826 -0.01331407 0.027947666
000240 e6 0c 28 bb 46 3e ea bc 1c 34 56 3d 5f 00 82 bc
       -0.0025642454 -0.028594147 0.05229579 -0.015869318
000250 b4 b6 ef bc 4c cf 50 bc 2c 6d fa bc 84 4e 6d bc
       -0.029261924 -0.012744736 -0.030569635 -0.014484052
000260 9b da 1f 3d c3 b3 d2 3c 60 c7 27 3d 88 7c d8 bc
       0.039026838 0.025720483 0.040961623 -0.026426569
000270 c8 19 86 3c 65 65 f2 3c 5f 42 87 3c b6 94 e3 bb
       0.016369715 0.029589364 0.01651114 -0.006945218
000280 c7 65 a0 3c b6 92 1c 3d a9 3d 35 bd 1c 01 f3 3c
       0.019579781 0.038225852 -0.044248257 0.029663615
000290 7e c1 77 bd 99 31 c4 3c 6a 06 04 3d b4 ff 50 3d
       -0.060487263 0.023949431 0.03223268 0.051025108
0002a0 a3 c6 7d bc 76 fc eb 3c 40 0f aa 3c e9 64 e3 3c
       -0.015489253 0.028806906 0.020759225 0.027758079
0002b0 aa 04 8a bc af 9b ad bb 95 6e 44 3c 30 ed 5a 3d
       -0.016847927 -0.0052981 0.011989255 0.053448856
0002c0 b7 cd 52 bc 13 05 57 bd 33 e2 d5 bc 57 d2 4d bd
       -0.012866429 -0.052495074 -0.026108837 -0.050249424
0002d0 7c 43 f4 bc 0f a6 1f 3c e4 6b 08 bd 97 b2 53 3d
       -0.029817335 0.009744181 -0.033306018 0.05168399
0002e0 df 8d 15 3c e0 4d 1c 3d d3 09 c0 bc fa 02 07 3d
       0.009128063 0.038160205 -0.023442185 0.032961823
0002f0 1f e7 5d bd da 3b 8c bd 34 38 15 bc c7 19 0e bb
       -0.054175492 -0.06847353 -0.009107638 -0.0021682845
000300 d7 4c 3c bc 7d 60 0f bd ba fe cb 3b 77 96 0c bd
       -0.011492929 -0.035004128 0.006225434 -0.034323182
000310 e1 ea 18 bc ea 08 4b bb 9b 87 e0 bc 8c d1 0f bd
       -0.009333343 -0.0030980655 -0.027408412 -0.03511195
000320 2b 6f 91 3d 10 9a 89 3c 28 cf 90 bc 36 f2 ba bb
       0.07101282 0.016797096 -0.017676905 -0.0057051433
000330 25 62 b2 bd 7b 2f 3b b9 f1 08 1a 3d 8f 54 a6 bc
       -0.08710126 -0.00017851398 0.037606183 -0.020303993
000340 d4 92 41 bc 7d 1f 53 bd 48 b4 8c 3d b3 22 14 3d
       -0.011814792 -0.0515437 0.068703234 0.036165904
000350 4d c0 10 bd 98 7f 26 bd 72 da 28 bd aa e6 08 bd
       -0.035339642 -0.040649027 -0.04122395 -0.033423103
000360 fe af 9e bc ed d7 de bc f4 00 ca 3c fd bf 10 3a
       -0.019371029 -0.02720257 0.024658658 0.00055217725
000370 bc 2d a9 3c 6a aa 8d 3d f8 8a 87 bd 44 18 72 bc
       0.02065169 0.069172695 -0.06618303 -0.014776293
000380 ac cc e3 3c ff 3c a6 3b 63 f3 c0 bc ec 92 35 3d
       0.027807556 0.0050731893 -0.023553556 0.04432957
000390 e6 ae 05 ba a3 c3 08 3d 13 bd 18 3d 8b 9a fb bc
       -0.0005099609 0.0333897 0.03728969 -0.03071334
0003a0 16 49 59 bd 0f 04 09 bd 18 3a 97 3d 9e 08 ea 3c
       -0.053048216 -0.033451136 0.073841274 0.028568562
0003b0 0a 14 2d bd ca 06 0a 3d 04 cb ae bc 7f 4d 5e 3c
       -0.04225544 0.03369788 -0.02133704 0.013568281
0003c0 f7 96 31 39 8f b0 0f 3d 4b 00 45 bd e3 48 35 bd
       0.00016936274 0.03508049 -0.048095983 -0.044258963
0003d0 89 af 79 3d 96 89 d6 3c c3 bb f1 b9 61 4c 02 bc
       0.06095842 0.026188653 -0.00046106995 -0.00795278
0003e0 e8 12 c0 bc af d6 93 bc bc b4 96 bc e7 b2 c1 3c
       -0.023446515 -0.018046705 -0.018396728 0.023644878
0003f0 01 bc b9 3d a7 c4 02 3b 34 32 1c 3e 1d 7d 18 bd
       0.09069062 0.001995364 0.15253526 -0.037228692

layer_2.0.0.conv2.bias f4 [32]
000000 35 2e 6a bd 7c d0 c6 bc 5e 3a 9e 3c a5 e7 22 3d
       -0.057172973 -0.024269335 0.019314941 0.039771695
000010 88 b6 9a bb 00 78 30 bd 80 dc 41 bb 21 fb 44 bd
       -0.0047214665 -0.04308319 -0.002958089 -0.048091058
000020 be 9b 30 bd c7 e0 22 3d 3d b2 46 3d 60 b7 8b bc
       -0.043117277 0.039765146 0.048509825 -0.017055213
000030 0c f4 7c 3c cc 19 41 3c 94 1b 3c 3c 62 e8 a3 bc
       0.015439045 0.011785936 0.0114811845 -0.02000827
000040 45 ba 21 3d 30 ad fe bb 9a 37 ad 3c b0 5a 95 bb
       0.03948428 -0.0077721104 0.021144677 -0.00455793
000050 08 8a 2f b9 62 f8 8f 3c fd 84 14 3d 67 15 0e 3d
       -0.00016740721 0.017574493 0.03625964 0.03468838
000060 3c be 0e bd f4 3b 52 bd f6 a8 ef 3c 94 7a 5b 3c
       -0.03484939 -0.051326707 0.029255372 0.013395924
000070 1c bc 52 bd 81 34 17 3d bc 29 a8 bc 82 2d ff 3c
       -0.051448926 0.036915306 -0.020527713 0.03114963

layer_2.0.0.bn2.weight f4 [32]
000000 ae 49 9c 3f 9a 38 93 3f b3 3c 9e 3f 10 22 9e 3f
       1.2209985 1.1501648 1.2362274 1.2354145
000010 95 b8 b1 3f f2 5b 85 3f 05 8a 9c 3f fb fb a4 3f
       1.3884455 1.0418684 1.222962 1.2889398
000020 eb 36 9a 3f cf 04 9e 3f 8e 22 b3 3f d6 40 9b 3f
       1.204801 1.2345217 1.399492 1.2129161
000030 c1 64 7d 3f 69 c0 ad 3f ec ca bd 3f 1d 40 a3 3f
       0.98981863 1.3574344 1.4827552 1.2753941
000040 62 0d 9d 3f ea b6 91 3f 11 aa 90 3f 23 0b b9 3f
       1.2269709 1.1383946 1.13019 1.4456524
000050 f3 d5 99 3f 4f 5b ac 3f a7 0a ae 3f b2 90 84 3f
       1.2018417 1.3465365 1.3597001 1.0356658
000060 35 a2 92 3f e5 a9 9e 3f 5f fe b9 3f cc c8 a6 3f
       1.1455752 1.2395598 1.4530753 1.3030028
000070 09 7b b0 3f 1f d6 95 3f aa a5 b8 3f fe 0e ab 3f
       1.3787547 1.170597 1.4425557 1.336395

layer_2.0.0.bn2.bias f4 [32]
000000 5f 64 8b 3e ca ee 96 3e cd c7 bf 3e c0 82 8f 3e
       0.27225015 0.29479057 0.37457123 0.28029442
000010 77 5b 9a 3e e5 bd aa 3e ce 09 d3 3e a4 d8 57 3e
       0.30147907 0.33348003 0.41218418 0.21078736
000020 97 0d c6 3e 93 03 c8 3d 85 00 da 3e 55 0f 34 3e
       0.38682243 0.09766307 0.4257852 0.17583974
000030 f7 3b 74 3e fb 85 80 3e c5 d7 b7 3e ce b1 52 3e
       0.23851 0.2510222 0.35906807 0.2057564
000040 39 cf 73 3e 9e 4a 97 3e b4 c0 99 3e 6c 3a 63 3e
       0.23809518 0.29549116 0.30029833 0.22190255
000050 45 c0 a2 3e 29 b6 87 3e 38 b6 bc 3d 3a c2 60 3d
       0.31787315 0.26506165 0.09214443 0.05487273
000060 07 be 2b 3e 87 60 34 3e 8d 36 7d 3e fb 98 94 3e
       0.16771708 0.17614947 0.2472784 0.29022965
000070 f0 56 b9 3d a0 5f c3 3e 53 97 69 3e 7f 44 be 3e
       0.09049785 0.38158894 0.22811632 0.37161633

layer_2.0.0.bn2.running_mean f4 [32]
000000 5e 78 c4 3d 0a b0 a5 bd 49 cc 95 3e e3 97 29 be
       0.09593271 -0.080902174 0.2925742 -0.16561846
000010 16 19 0d 3e 92 e5 81 3e 6f 04 0a be 7d 5a 49 3c
       0.13779101 0.2537046 -0.13478254 0.0122896405
000020 32 b3 83 be 6f 09 12 3f 3b da bf 3d 51 8d 90 bd
       -0.25722653 0.57045645 0.09367796 -0.07058204
000030 f9 e9 7d bd 5f c2 dd 3d 5e a6 0d bd 1e f7 1f be
       -0.06199071 0.10828089 -0.03458249 -0.15621611
000040 24 f0 54 be 1e 0e 15 3f 2a d9 89 be 58 7a 25 be
       -0.20794731 0.58224666 -0.26923496 -0.16159952
000050 de 78 6d bd 5f 1b 12 be 48 b6 52 3d 02 f6 59 3d
       -0.057976596 -0.14268254 0.05144337 0.053213127
000060 19 a8 3e be b2 2a 2d be b2 2c 49 3d ff 04 96 3e
       -0.18618812 -0.16910818 0.04911489 0.29300687
000070 fe 96 a7 bd 6a 71 21 be 34 8f 39 3b 33 53 f7 3d
       -0.08183096 -0.1576592 0.0028314115 0.12076416

layer_2.0.0.bn2.running_var f4 [32]
000000 c4 92 4b 3e 3a 0f 30 3e 82 e6 57 3e 32 d3 3a 3e
       0.19880205 0.17193308 0.21084026 0.18244627
000010 7a d4 38 3e e8 07 78 3e e0 40 32 3e 25 a5 3f 3e
       0.18049803 0.24221766 0.1740756 0.18715341
000020 ed 41 60 3e c7 2a 8b 3e cd bc 71 3e 0e dc 35 3e
       0.21900149 0.27181074 0.23607178 0.17759725
000030 f6 06 4c 3e b9 26 10 3e fc 61 1c 3e 00 7f 18 3e
       0.1992453 0.14077272 0.15271753 0.14892197
000040 3f b3 46 3e e5 c5 4c 3e 79 0a 2d 3e ea 46 78 3e
       0.19404314 0.19997366 0.16898526 0.24245802
000050 f1 06 4b 3e 8e 58 5c 3e da a5 67 3e 65 96 88 3e
       0.19826867 0.21518156 0.22621861 0.26677242
000060 89 f1 23 3e be 6b 0a 3e 91 11 fd 3e cc ff 24 3e
       0.16010107 0.13517663 0.49427465 0.16113204
000070 8d 59 84 3e e5 d9 40 3e 23 84 63 3e b5 48 5f 3e
       0.25849572 0.1883312 0.22218375 0.2180508

layer_2.0.1.conv1.weight f4 [32, 32, 3, 3]
000000 af 96 8d 3d 96 c4 11 3e 09 ed 4f 3e 6b 95 07 3d
       0.06913506 0.14235148 0.20305265 0.03310148
000010 88 65 ad 3d fc b3 0f 3e 44 10 a5 bd d6 34 2d bd
       0.08466631 0.14033502 -0.08059743 -0.042286716
000020 ce e7 01 3c 9f f0 53 bd 56 d9 01 3c 1b f4 4e 3c
       0.007928802 -0.051743146 0.007925352 0.0126314415
000030 4b 37 ef bc ef 76 69 bd 10 23 0c bc 7c be 2f bd
       -0.02920117 -0.05699819 -0.008553281 -0.04290627
000040 67 96 45 3d b9 e0 a0 bd 88 56 a4 3d 22 c4 fd 3d
       0.048239138 -0.078553624 0.08024317 0.12390925
000050 36 c0 03 3e 96 cc 17 3b a8 62 b3 3b 10 f4 f4 ba
       0.12866291 0.0023162714 0.005474407 -0.0018688459
000060 d3 4a d2 bd 06 72 90 bc f6 af 99 bd 90 c4 43 3c
       -0.10268178 -0.017632496 -0.07504265 0.01194872
000070 1c aa 5b bb 0c e0 09 3d 8f 8f 60 bc a2 41 8d bd
       -0.003351814 0.033660933 -0.013706102 -0.06897284
000080 32 f4 2f bc 7a 94 38 bd 1a 92 75 3d 66 b1 1d bc
       -0.010739373 -0.045063473 0.059953786 -0.009624815
000090 dc 43 c9 3c ff 6e a9 3c c0 83 25 3c 58 7e f6 3c
       0.02456849 0.02068281 0.010102212 0.030089542
0000a0 68 b7 f7 3c 8a eb 97 3c 0f 9d c0 3d d6 9f 9b 3d
       0.030238822 0.018544931 0.094049565 0.07598846
0000b0 cc 3c 30 3d 39 43 95 bc f8 69 6e bc b5 70 bd bd
       0.04302673 -0.01822053 -0.014551632 -0.09250013
0000c0 f2 ac 09 3d 50 67 94 bc ad c1 d1 bd 18 36 00 bd
       0.0336122 -0.01811567 -0.10242019 -0.031301588
0000d0 d5 74 80 3c 15 39 58 bd f9 6e 07 3e e4 95 4d 3a
       0.01568071 -0.052788813 0.13225926 0.0007842465
0000e0 a5 ba 51 bd 81 ea 25 3d 4b 70 e1 bc 39 d7 94 3c
       -0.05120339 0.040506843 -0.027519366 0.018169032
0000f0 8e f6 d6 3c 49 1a 7f bd 7a a0 f8 bb 5f 3a dc bd
       0.026240613 -0.062280927 -0.0075874897 -0.10753321
000100 72 14 a8 bd 38 0d 3a be 18 77 12 bd dc f5 be bb
       -0.08207025 -0.18169105 -0.035758108 -0.0058276486
000110 0f 6b b5 bd 4b 6b 4a bb a6 e8 8e 3c ff 5c 31 bd
       -0.088583104 -0.0030886705 0.01744492 -0.04330158
000120 77 1d 5d 3d 46 b2 bd 3c d7 42 db 3d 12 f0 46 3c
       0.053983178 0.023156296 0.10706108 0.012142198
000130 77 a8 9b 3c 27 5f 5a 3d 06 a7 37 bd 61 f6 e8 bd
       0.019001229 0.0533134 -0.04483702 -0.11375118
000140 d0 ee 81 bd a7 21 5e 3d 68 c4 96 3d f3 80 d7 3d
       -0.06344378 0.054231312 0.0736168 0.10522642
000150 b1 46 4b 3d 22 41 a2 bb 78 79 88 3d 58 e7 21 3d
       0.049627963 -0.004951612 0.06663793 0.039527267
000160 1a 6e 2e bc 7e 36 63 3d b8 02 16 bd 87 ce 27 3c
       -0.010646367 0.05547189 -0.036623687 0.010242111
000170 c1 a4 98 bc 1b bc 01 bd 4e dd e3 3c 8a 7d 8d 3c
       -0.018633248 -0.031673532 0.027815487 0.017271776
000180 88 20 a8 bd 01 05 9a 3c 5e cc 53 3d f4 f4 be 3c
       -0.0820933 0.018801214 0.05170857 0.023310162
000190 1f c4 a7 3d 38 32 b1 bd ee 78 44 3c 40 35 5b 3c
       0.08191704 -0.086521566 0.0119917225 0.013379395
0001a0 eb 42 6f bd 2e 5c 40 3d 56 3e e8 3d 98 7b a6 bc
       -0.058413427 0.04696291 0.11340015 -0.020322606
0001b0 56 f8 e1 bc 79 42 f9 bc f9 a4 8a bd fb c0 ee bc
       -0.027584236 -0.030427204 -0.06769747 -0.029144755
0001c0 9c 49 3a 3c 53 14 05 bd b8 ce 8b bd e1 a9 46 bd
       0.011370089 -0.032490086 -0.06826538 -0.048501853
0001d0 f8 35 5a bd 82 9a f1 3b 8a ed 35 bd 8e 92 1f 3d
       -0.053274125 0.007373155 -0.044415988 0.038958125
0001e0 0f 02 ef bc 3c 05 80 bd 6f 97 8a 3c 59 bd a0 3d
       -0.029175786 -0.062509984 0.016917912 0.07848615
0001f0 cc cd 85 bd b4 73 a9 3d 70 b3 ae 3b 0f c5 40 bc
       -0.06533393 0.08274022 0.005331449 -0.011765732
000200 bf 6b 00 be 24 53 2a 3d ca d3 00 3c ed d0 25 bd
       -0.12541102 0.041583195 0.007862994 -0.04048245
000210 a7 0e d5 3d 99 9d 74 3d 97 6b f5 3b 3a a8 cb bc
       0.10403185 0.05972061 0.0074896323 -0.02486049
000220 e9 2e 85 bc 23 4b 02 bd 89 23 99 bc b7 d1 3c bc
       -0.01625772 -0.031809937 -0.018693702 -0.011524609
000230 04 d8 b4 bc 96 b4 a0 bd e4 6a aa bd 96 7e 69 bd
       -0.02207566 -0.07846944 -0.08321169 -0.057005487
000240 0e 1c 70 bb df 89 23 bc 12 87 79 3d ec 99 c6 3c
       -0.0036637816 -0.0099816015 0.06091983 0.024243318
000250 13 95 63 3d 88 e0 28 3d 67 fe 06 bd 6a d5 80 3b
       0.05556209 0.041229755 -0.03295746 0.003931691
000260 61 f5 e5 3b e9 a1 a1 3c 33 af d6 3d b6 78 65 3d
       0.007017777 0.019730525 0.10482635 0.056023322
000270 33 ca 60 3d 44 6c f6 3d 9e e0 98 3d ea 94 3b 3b
       0.054880332 0.12032369 0.07464717 0.0028622695
000280 49 9f 85 3d 07 a5 87 3d 38 2b a0 3d ff b4 a0 3d
       0.06524522 0.06623273 0.07820743 0.07847022
000290 a5 3d 37 bd 10 6b 8f 3c a5 11 8f 3c 78 45 3f bd
       -0.044736523 0.017507106 0.017464468 -0.04669711
0002a0 ef 00 ab bd 58 6b 96 bd 80 c4 d3 bd f8 f9 20 be
       -0.083497874 -0.07344693 -0.10340214 -0.15720356
0002b0 14 09 c4 bd 32 36 6d be 76 7f b3 3b e6 41 bb bd
       -0.09572044 -0.23165205 0.005477841 -0.091434285
0002c0 5e ce 19 be ff 44 2f 3c 49 76 4d bd 4a a7 18 be
       -0.15020129 0.010697602 -0.050161634 -0.14907566
0002d0 90 fe 4d bd 07 ba 6d bc 4a f5 c5 bd c0 7c 3d 3d
       -0.050291598 -0.014509684 -0.09665926 0.04626155
0002e0 52 cc c7 3c 14 4b 2f bd 3d 4d a8 3d e6 b5 18 3d
       0.02438942 -0.04279621 0.08217857 0.037282847
0002f0 d0 b4 2b bd 09 ae 02 bd 22 f9 f1 3a f8 16 53 bd
       -0.041920483 -0.031904254 0.0018461088 -0.051535577
000300 cf 8a ee bc 3f 4b 3d 3d 4a dd 20 bc 48 7b c5 bd
       -0.029118923 0.04621434 -0.009818384 -0.09642655
000310 46 cd 20 bd 52 02 a2 bd 11 dd 2d 3d 12 b9 59 3d
       -0.039258264 -0.07910599 0.042447153 0.053155012
000320 32 cf 8c 3d 2e aa 9d 3d 5d ea 31 3d 16 9c 86 3d
       0.06875457 0.07698475 0.043436397 0.0657274
000330 bd ba 4d 3c 88 cc 92 ba 00 f2 cb 3c c5 41 b2 3b
       0.012556729 -0.0011199871 0.024895668 0.0054399692
000340 c1 da 90 bb 4d 49 ce bb b6 1c 26 bd cf 88 4f bd
       -0.0044206087 -0.006295359 -0.040554725 -0.05066758
000350 b0 b3 02 bd 0f 37 35 3d ab d0 8c bb 76 21 d5 3b
       -0.031909645 0.04424196 -0.004297336 0.006504233
000360 67 5e d1 bd b7 70 94 bd 10 37 c2 bd d3 fa a4 bd
       -0.10223084 -0.07248061 -0.094831586 -0.080556534
000370 b9 88 8d 3c 46 2c 1c bd 20 50 e4 bd 63 04 2d bd
       0.017277109 -0.03812816 -0.11148095 -0.04224051
000380 ca f5 da bd 5b 99 5d bd e6 6f 1a bd d5 5a cb bb
       -0.10691412 -0.05410133 -0.03770437 -0.0062058964
000390 6e 32 0a bd 68 f9 6d bd 13 1c 8e 3d 97 99 8a 3d
       -0.0337395 -0.05809918 0.069389485 0.06767576
0003a0 49 da a8 3d b3 ea eb 3d 3d 06 04 3d a6 25 72 3c
       0.082447596 0.11519375 0.03223251 0.014779484
0003b0 82 50 56 bd 29 e0 d8 3d 13 22 c4 3d 34 e5 55 3d
       -0.052322872 0.1058963 0.09576812 0.05222054
0003c0 c3 ce a2 3d 32 3f f1 3c 84 d5 bb 3d 26 2e a6 3b
       0.07949593 0.02944908 0.09171584 0.0050714193
0003d0 11 d9 b0 3c 04 79 d4 bd 24 5f b9 3a 3f 5d 01 3c
       0.02158788 -0.103746444 0.0014142734 0.007895767
0003e0 31 59 03 be 66 56 84 bc 65 11 09 3b 50 dd ce bd
       -0.12826993 -0.01615448 0.002091491 -0.10100806
0003f0 26 3a 41 bd d2 c5 05 bd 72 93 1e 3d f0 e8 78 bd
       -0.047174595 -0.03265936 0.038714834 -0.06076902

layer_2.0.1.conv1.bias f4 [32]
000000 b8 4e 74 bc 86 7d 84 3c 80 13 d4 bc 8d 75 26 3d
       -0.014911346 0.016173135 -0.025888205 0.04063945
000010 58 e4 97 3b bc 85 4b bd 33 03 66 3d ce 3f 8c 3c
       0.004635375 -0.049688086 0.056155395 0.017120268
000020 3d 2b 02 3d 30 e5 84 bc 56 88 dd 3c 46 c8 8b bc
       0.031779516 -0.016222566 0.02704255 -0.017063271
000030 fb 52 43 3d 56 63 d1 3c 5a 5f a1 3c e0 af bc bb
       0.04768656 0.025560062 0.019698787 -0.0057582706
000040 67 08 6f 3d d8 09 6b bd 04 07 06 3c da 6c 89 3c
       0.058357622 -0.057382435 0.008180384 0.016775537
000050 fa 75 32 bd e3 c5 34 3d e0 73 f6 ba 50 dd b7 bc
       -0.043569542 0.044134032 -0.0018802844 -0.022444397
000060 27 c1 38 3d 6a 47 b9 bc 9a e0 a7 3c 46 f9 60 bd
       0.04510608 -0.02261706 0.02049284 -0.054925226
000070 db a4 0d 3d 02 76 89 3c 87 50 40 3d bc 90 07 3c
       0.034581047 0.016779903 0.046951797 0.008274253

layer_2.0.1.bn1.weight f4 [32]
000000 7c 29 83 3f b1 52 74 3f 29 e6 8f 3f ec 35 84 3f
       1.0247035 0.9543868 1.1242114 1.0328956
000010 fa ac 84 3f a0 5c 93 3f 78 27 83 3f b6 ff 82 3f
       1.0365288 1.1512642 1.024642 1.0234287
000020 38 43 6b 3f c3 80 7c 3f 92 db 83 3f 9c e4 73 3f
       0.9189944 0.98633975 1.0301383 0.95270705
000030 00 fe 7e 3f 73 d5 72 3f 90 37 85 3f 12 49 85 3f
       0.99606323 0.9485695 1.0407581 1.0412924
000040 c0 2d 91 3f 76 e3 78 3f 8c 24 71 3f fb 87 7d 3f
       1.1342087 0.9722208 0.9419639 0.99035615
000050 a3 c8 3e 3f 01 16 6e 3f 88 89 83 3f ec f0 87 3f
       0.745249 0.93002325 1.0276346 1.0620399
000060 4c 8b 62 3f 17 a5 6a 3f ec c6 72 3f 96 f2 70 3f
       0.884938 0.9165816 0.9483478 0.94120157
000070 fc ca 88 3f ff b6 4b 3f 45 5a 75 3f dc 00 6f 3f
       1.0686946 0.79576105 0.95840865 0.93360686

layer_2.0.1.bn1.bias f4 [32]
000000 0f 09 9d bd 3b ff 6c 3e 29 97 ec bc 28 f8 f3 bd
       -0.076677434 0.23144238 -0.028880673 -0.119125664
000010 cf 96 d0 3d 8f 4b 8e bd cd 03 87 3d 2d 21 97 3d
       0.101850145 -0.069480054 0.06592522 0.07379375
000020 14 82 8c bd b4 86 ae 3d c3 44 0f 3e df ff bf 3d
       -0.06860748 0.08521786 0.13991074 0.093749754
000030 5f 0d e1 3d bd 63 d6 3d f0 94 ed 3d da 0a c8 bd
       0.109888785 0.10468242 0.11600673 -0.09767695
000040 3f 29 d1 bd 10 2e 24 3d 10 00 f0 3d 93 5e 75 bd
       -0.10212945 0.04008299 0.11718762 -0.059904646
000050 63 7c 8a 3e 4f 69 2f 3e 6e 45 eb 3d 69 13 bc 3d
       0.27048025 0.17130016 0.11487852 0.0918339
000060 f4 25 04 3e 64 52 a0 3e 1f 37 3b 3e 44 29 82 3e
       0.12905103 0.3131286 0.18282746 0.25422108
000070 77 ed 87 3d 1d a7 a4 3e 15 77 7b 3e ac 2d 07 3e
       0.0663709 0.32158747 0.24557145 0.13201016

layer_2.0.1.bn1.running_mean f4 [32]
000000 bc 7c 84 bf b2 11 b8 bb b5 d5 42 bf 97 d2 50 be
       -1.0350566 -0.005617344 -0.7610734 -0.20392834
000010 ea c1 57 bf 55 3a 92 be 00 cb fb bd 7a 8c 41 bf
       -0.84280264 -0.2856013 -0.122945786 -0.75604975
000020 9e 17 72 3e 7e fe 68 bf 25 4f d5 be 93 f7 12 3c
       0.23641822 -0.91013324 -0.41661945 0.008970159
000030 d1 7f 32 bf 88 c9 87 3e 42 be c7 be 99 38 19 bf
       -0.6972628 0.26520944 -0.39012343 -0.59851986
000040 fd 92 9b bf 87 7a e1 be 1e 0a 99 bd 51 79 c4 3d
       -1.2154232 -0.44038793 -0.07472633 0.09593452
000050 c7 b8 48 3e 22 f5 29 be 73 1c fa be 05 8e 26 be
       0.19601737 -0.16597417 -0.4884983 -0.16265114
000060 a2 c3 60 be e7 3a a5 3e 5a 23 a2 3d 0f 43 ea 3d
       -0.21949628 0.322715 0.07916899 0.11438572
000070 a8 ac 0f bf 98 f6 02 3e 1d a5 90 3e 20 2f 92 3d
       -0.5612283 0.1278938 0.2825097 0.07137895

layer_2.0.1.bn1.running_var f4 [32]
000000 50 63 82 40 41 a0 d2 3f 04 d7 76 40 6c 62 fc 3f
       4.074623 1.6455156 3.8568735 1.9717536
000010 a0 02 96 40 be 8d d7 40 43 c8 58 40 18 43 91 40
       4.6878204 6.7360525 3.387223 4.53944
000020 65 bf 15 40 ae 40 e4 3f 29 ed 5d 40 15 ab 9c 3f
       2.3398068 1.7832239 3.4676 1.223971
000030 82 9c 05 40 f0 77 88 3f be 6f af 3f 72 d2 57 40
       2.0876775 1.0661602 1.3705976 3.3722196
000040 05 4a cc 40 7b 18 98 3f cf 37 1d 40 5b 26 e6 3f
       6.3840356 1.1882471 2.4565313 1.7980455
000050 85 8d 81 3f 22 66 c5 3f b2 ac c9 3f 8a c5 c3 3f
       1.0121313 1.5421793 1.5755827 1.5294659
000060 d7 9c c4 3f d9 7c 5a 3f 04 67 a2 3f e1 eb 9d 3f
       1.5360364 0.8534675 1.2687688 1.233761
000070 6d 5b 9f 40 3e 3c b6 3f bc d2 b2 3f 03 41 b7 3f
       4.9799104 1.4237134 1.3970561 1.4316715
